scripts/distance/200-150-100/500k_nn_ssm_distance.pt (torch, 198865 bytes, 7 tensors)

weight f4 [200, 15]
-0.09234641 -0.70712197 -0.38978982 0.029982666 -0.42150575 -0.2680999 0.1476108 0.8197263
0.42804497 -0.03412484 0.48863962 0.33908716 0.042818673 0.021889454 -0.015150709 -0.12526405
-0.14301676 -0.011153259 0.12084055 -0.23480721 -0.27040455 0.11726716 0.10834306 -0.03603435
-0.15454683 0.21997565 0.26699862 -0.007956385 -0.14113006 -0.03671767 -0.16069283 0.5715296
0.309324 0.039587177 0.093811 -0.0075097536 -0.09643805 0.46851954 0.4314693 0.068885855
0.30146036 0.115955435 -0.13068534 1.0178632 0.20900658 -0.12691389 -0.08163074 -0.20517696
-0.03213572 1.3020899 0.117063224 0.08491433 -0.21204758 -0.26836053 -0.098874755 0.37278888
0.015533562 -0.061655425 0.24103633 0.0018454241 0.06658652 -0.23619387 -0.35365668 0.053289607
-0.26269865 -0.2706553 -0.06365747 0.061700203 0.13031226 0.12348551 -0.05116579 -0.4518456
0.56823355 0.05368431 0.21676321 -0.069873504 0.044755884 0.06366646 -0.10269435 0.12793669
0.07994272 0.008627014 0.17603974 -0.03326802 0.0454564 -0.19980238 -0.19290543 0.54111624
0.6585122 0.33953226 -0.13016643 0.24905637 -0.40888193 0.025340596 -0.16691615 -0.009467509
0.15160264 -0.29316533 0.48697028 -0.027684709 0.19722605 0.015268415 -0.004340147 0.0020207816
0.0016675001 -0.00081214285 -0.0027293938 -3.512656e-05 -0.0050105024 -0.010579451 0.006538311 0.0013571691
-0.0018480403 -0.010660079 -0.00296622 0.0044366736 -0.00096220017 0.0005773717 0.0014457897 -0.0043710214
0.13194922 0.001698797 0.27182725 0.17073236 0.18698029 -0.04654728 0.29748318 0.37536886
0.1075991 0.103752285 -0.054179583 0.11487318 0.6169262 -0.14839353 -0.76890403 0.24225761
0.4164361 0.23112881 0.20771393 -0.29143488 -0.06328246 -0.34095976 -0.45330113 -0.14683694
-0.1500412 0.30468556 0.074883856 -0.0783977 0.33011046 -0.035195164 0.3696538 0.050980184
0.41785067 0.079585895 -0.075641654 0.01597988 -0.42814544 -0.045332424 -0.31211525 -0.012785514
0.06839587 -0.050557766 -0.23182102 -0.044165682 0.007199467 0.2346749 -0.33610052 -0.19429278
0.14947367 0.11966745 -0.070620134 -0.16184807 -0.26290724 -0.29764584 0.61373025 0.41447917
0.088403024 -0.29141718 -0.41495216 -0.12546767 0.12639882 0.05535608 -0.122007035 0.027865682
-0.07167528 0.045118406 -0.14562657 -0.069039896 0.14057872 -0.02817965 0.08412266 -0.06632538
0.0022148013 -0.0026688043 0.0006426278 0.044781573 -0.58883697 0.049554773 0.03763931 0.017751386
0.047445145 0.13422738 -0.82424796 0.20424412 -0.055006176 0.11750507 -0.013027857 0.22424525
-0.86921823 -0.1693151 0.35147265 0.26431462 0.05033926 0.11595263 0.019344494 -0.0062893173
0.68322617 -0.05557442 0.026001677 0.13811094 -0.04414493 -0.012169899 1.0947758 0.7924559
0.1586383 -0.011384991 0.16684878 0.1310212 -0.11066933 -0.06578433 -0.071609005 0.6003416
0.46818748 0.14707631 0.31416294 0.20759888 0.037823685 -0.7701151 0.6261014 0.042073507
0.368593 0.5565453 0.004170345 0.031417515 0.024447395 0.009013315 0.76293427 0.8885915
0.21905486 -0.060709152 0.08457911 0.036487993 -0.35391048 -0.815915 0.10345121 0.24416037
00000000: 1d20 bdbd f205 35bf 8892 c7be 359e f53c
00000010: 9acf d7be 6444 89be 4927 173e 95d9 513f
00000020: b628 db3e 7dc6 0bbd f92e fa3e d59c ad3e
00000030: a262 2f3d 8351 b33c ae3a 78bc 3845 00be
00000040: fc72 12be 29bc 36bc 407b f73d 4d71 70be
00000050: 7772 8abe c429 f03d f7e2 dd3d c198 13bd
00000060: 8641 1ebe 4c41 613e 0bb4 883e 7f5b 02bc
00000070: 6684 10be 4465 16bd a98c 24be c44f 123f
00000080: b75f 9e3e 2a26 223d fb1f c03d 6114 f6bb
00000090: 5081 c5bd cbe1 ef3e 8be9 dc3e 0714 8d3d
000000a0: 0359 9a3e 0b7a ed3d 61d2 05be 5749 823f
000000b0: d205 563e b7f5 01be 042e a7bd e919 52be
000000c0: bfa0 03bd e2aa a63f d8be ef3d 90e7 ad3d
000000d0: 0023 59be 8d66 89be d97e cabd 2fde be3e
000000e0: 7b80 7e3c 668a 7cbd 3ad2 763e 28e2 f13a
000000f0: 835e 883d cedc 71be 7d12 b5be 3446 5a3d
00000100: 7080 86be 5593 8abe d95e 82bd 5ab9 7c3d
00000110: 9470 053e f9e5 fc3d 3893 51bd 4e58 e7be
00000120: c177 113f 14e4 5b3d 2df7 5d3e d719 8fbd
00000130: f251 373d 9063 823d 6a51 d2bd d601 033e
00000140: 02b9 a33d 5258 0d3c c343 343e 0c44 08bd
00000150: 7d30 3a3d ff98 4cbe 0089 45be 9886 0a3f
00000160: 4194 283f 2cd7 ad3e 594a 05be a208 7f3e
00000170: f958 d1be 1597 cf3c 11ec 2abe 9c1d 1bbc
00000180: b93d 1b3e c419 96be 2b54 f93e 0bcb e2bc
00000190: a0f5 493e 6028 7a3c cb37 8ebb 176f 043b
000001a0: 0590 da3a fce5 54ba a1df 32bb db54 13b8
000001b0: 242f a4bb 6f55 2dbc 543f d63b 0ae3 b13a
000001c0: f139 f2ba 9da7 2ebc ea64 42bb 8461 913b
000001d0: 293c 7cba c25a 173a a780 bd3a c93a 8fbb
000001e0: b21d 073e 2baa de3a f12c 8b3e 77d4 2e3e
000001f0: c377 3f3e 5ca8 3ebd b74f 983e 5930 c03e
00000200: eb5c dc3d 147c d43d 69eb 5dbd a142 eb3d
00000210: e0ee 1d3f 79f4 17be e5d6 44bf 6112 783e
00000220: 1d37 d53e 08ad 6c3e f6b2 543e f436 95be
00000230: 3c9a 81bd 4792 aebe 1617 e8be 6c5c 16be
00000240: 66a4 19be bfff 9b3e b55c 993d f98e a0bd
00000250: 3d04 a93e ce28 10bd 4343 bd3e 99d0 503d
00000260: 86f0 d53e eefd a23d 03ea 9abd 3de8 823c
00000270: e135 dbbe 7eae 39bd 92cd 9fbe 557a 51bc
00000280: 2213 8c3d a915 4fbd 7d62 6dbe 13e7 34bd
00000290: 82e9 eb3b 9e4e 703e 5e15 acbe b0f4 46be
000002a0: a00f 193e 3514 f53d 4aa1 90bd 80bb 25be
000002b0: c79b 86be 0965 98be 6d1d 1d3f 9d36 d43e
000002c0: a50c b53d a234 95be 9c74 d4be 997a 00be
000002d0: b16e 013e 0fbd 623d d3de f9bd 9246 e43c
000002e0: 7dca 92bd 14ce 383d 221f 15be ca64 8dbd
000002f0: def3 0f3e 02d9 e6bc 8048 ac3d 9ad5 87bd
00000300: 3326 113b 1be7 2ebb 0676 283a e26c 373d
00000310: 05be 16bf f2f9 4a3d ad2b 1a3d 5b6b 913c
00000320: d755 423d e772 093e ea01 53bf 5f25 513e
00000330: 284e 61bd 80a6 f03d cb72 55bc 8ca0 653e
00000340: 1685 5ebf f060 2dbe 39f4 b33e 3f54 873e
00000350: 8a30 4e3d 9378 ed3d 5878 9e3c 9e16 cebb
00000360: e9e7 2e3f 01a2 63bd 7801 d53c f46c 0d3e
00000370: 50d1 34bd 4264 47bc 9d21 8c3f 64de 4a3f
00000380: 1472 223e 1d88 3abc 68da 2a3e 6c2a 063e
00000390: 9aa6 e2bd efb9 86bd bea7 92bd fdaf 193f
000003a0: 45b6 ef3e 2c9b 163e f7d9 a03e cd94 543e
000003b0: 02ed 1a3d 4326 45bf 2e48 203f 4555 2c3d
000003c0: 39b8 bc3e c179 0e3f 64a7 883b a7af 003d
000003d0: e745 c83c 95ac 133c a94f 433f bc7a 633f
000003e0: eb4f 603e 29aa 78bd d037 ad3d 6f74 153d
000003f0: c133 b5be cedf 50bf 3ade d33d 2d05 7a3e

bias f4 [200]
0.006913697 0.048868187 0.6901751 -0.023624342 0.68621063 -0.48751044 -0.00029050742 0.0029991562
-0.69444263 -0.10210215 -0.06349898 -0.36850446 0.0015728208 -0.6835542 0.2721956 -0.5889064
0.6996899 -0.062712386 0.0027508887 -0.15166636 0.0011310999 -0.48094395 0.88399744 0.06666064
0.00048699384 0.22741236 0.16260888 -0.06533161 0.0003109118 0.00018328457 0.1699681 -0.10284519
-0.0011345594 -0.6821655 -0.55639005 0.0006887371 0.69563055 0.0012782387 -0.051805686 0.2076332
-0.4656728 0.0010888058 -0.49242705 -0.008533044 -0.41552457 -0.058721 -0.56474364 0.31053796
0.6700551 0.1272219 0.37449363 0.0005219466 -0.0038843716 -0.478743 -0.0022185282 0.0015681459
0.22337238 -0.6563615 -0.10768688 0.01215757 -0.011726087 -1.0463909 -0.016958164 0.0048906812
-0.025048109 -0.16381218 0.00072291616 0.812996 0.001650306 0.5724006 -5.6894646e-06 0.49874255
0.1639033 0.10167532 -0.6931433 -0.619496 0.022059744 0.0014172154 -0.0009872009 -0.186771
0.22145596 -0.013280285 -0.87356067 0.00048031038 -0.00061824993 -0.020222535 4.9463964e-05 0.001118218
0.07220143 -0.5093229 -0.0034753105 -0.6108468 0.6512926 -0.00020561572 0.27597767 -0.087049216
0.19020696 0.6890894 0.54163116 -0.4870394 0.5223512 0.68931425 -0.7531844 0.5863438
0.08017109 -0.38663954 -0.004503929 -0.63488233 0.06284862 -0.0060508577 0.004277371 -0.00075240835
0.0024994405 -0.0014312052 -0.20365536 -0.0026926608 -0.5356628 0.1939434 -0.37010738 -0.45625225
-0.01999466 -0.034589656 -0.0030505261 0.010334985 -0.042914595 0.02280627 0.0027834245 -0.13248084
-0.79309845 0.0049478095 -0.025308443 0.05253935 0.0037256859 0.7673931 -0.15167926 -0.12972417
-0.0026673188 -0.22671033 0.7572632 0.12164713 0.13672599 -0.6363526 -0.274907 -0.6435464
0.25797725 0.012681812 0.00086348725 0.38849828 0.18184721 -0.60178125 -0.0004097374 -0.5941463
-0.23719437 -0.45559305 -0.36862373 0.0262668 -0.031528562 0.5048761 -0.4881858 -0.0002558576
-0.5283798 -0.0023059656 0.067725636 0.16950017 0.29999045 -0.54239136 0.61091524 -0.2822267
-0.62480175 -0.5351221 0.03908663 0.0010441269 -0.50733304 0.024121592 0.12720689 0.0037365204
-0.834237 0.5284622 -0.13166884 -0.6092879 0.8043 -0.004369369 0.08092861 0.0012863805
-0.12003204 0.28426874 0.70339805 -0.36946028 0.15513925 0.47675946 0.0024364162 0.007004261
0.50310767 -0.40174845 -0.19192553 -0.6173121 0.008101902 0.0413183 -0.34936395 -0.5502981
00000000: 4b8c e23b 022a 483d 51af 303f d687 c1bc
00000010: 80ab 2f3f f89a f9be 3f4f 98b9 7e8d 443b
00000020: fec6 31bf ef1a d1bd c10b 82bd 9eac bcbe
00000030: 1c27 ce3a 68fd 2ebf 395d 8b3e 92c2 16bf
00000040: e11e 333f 5a6f 80bd 4148 343b 6d4e 1bbe
00000050: 6a41 943a 493e f6be a84d 623f 6085 883d
00000060: 3553 ff39 c9de 683e f182 263e 94cc 85bd
00000070: e001 a339 1430 4039 1e0c 2e3e 80a0 d2bd
00000080: 7fb5 94ba 66a2 2ebf 946f 0ebf 5d8c 343a
00000090: d814 323f 938a a73a 3332 54bd cc9d 543e
000000a0: aa6c eebe 43b6 8e3a 661f fcbe 2ece 0bbc
000000b0: a3bf d4be 6e85 70bd 0a93 10bf d5fe 9e3e
000000c0: bb88 2b3f 7546 023e a1bd bf3e 3ed3 083a
000000d0: f190 7ebb cd1d f5be ba64 11bb 3f8a cd3a
000000e0: bbbb 643e 4f07 28bf f08a dcbd 8b30 473c
000000f0: c61e 40bc 23f0 85bf d9eb 8abc 0242 a03b
00000100: b131 cdbc 61be 27be 1582 3d3a 8120 503f
00000110: 154f d83a d988 123f 21e8 beb6 2f5b ff3e
00000120: 44d6 273e 263b d03d d771 31bf 4a97 1ebf
00000130: a3b6 b43c dcc1 b93a f764 81ba e640 3fbe
00000140: 5ac5 623e 8d95 59bc aca1 5fbf 2bd2 fb39
00000150: 0d12 22ba bba9 a5bc 8777 4f38 2b91 923a
00000160: 58de 933d fc62 02bf 09c2 63bb 7560 1cbf
00000170: 1dbb 263f 8d9a 57b9 f24c 8d3e dc46 b2bd
00000180: 9dc5 423e 2a68 303f 57a8 0a3f 3a5d f9be
00000190: cfb8 053f e676 303f b1d0 40bf a11a 163f
000001a0: be30 a43d 9ef5 c5be b295 93bb a687 22bf
000001b0: c7b6 803d 4646 c6bb 3029 8c3b 453d 45ba
000001c0: a7cd 233b 4797 bbba 088b 50be 5a77 30bb
000001d0: 3221 09bf 1999 463e b77e bdbe e599 e9be
000001e0: d7cb a3bc e2ad 0dbd 56eb 47bb 1254 293c
000001f0: 37c7 2fbd 37d4 ba3c 1d6a 363b 0fa9 07be
00000200: 8008 4bbf 3c21 a23b a753 cfbc 8033 573d
00000210: a32a 743b e073 443f cf51 1bbe 6ad6 04be
00000220: 2fce 2ebb c126 68be 00dc 413f 2122 f93d
00000230: e601 0c3e 01e8 22bf 9cc0 8cbe 75bf 24bf
00000240: 9815 843e 60c7 4f3c a65b 623a 3fe9 c63e
00000250: 2836 3a3e 560e 1abf 06d2 d6b9 f919 18bf
00000260: 15e3 72be 7e43 e9be 40bc bcbe 792d d73c
00000270: 1824 01bd 8f3f 013f 7df3 f9be a024 86b9
00000280: e643 07bf af1f 17bb bdb3 8a3d 7491 2d3e
00000290: 5998 993e 29da 0abf f164 1c3f 0580 90be
000002a0: 02f3 1fbf c3fd 08bf 4d19 203d 16db 883a
000002b0: 94e0 01bf a59a c53c 8642 023e 69e0 743b
000002c0: 8e90 55bf 4c49 073f 32d4 06be 4bfa 1bbf
000002d0: 9be6 4d3f ec2c 8fbb e6bd a53d c49b a83a
000002e0: 5cd3 f5bd ac8b 913e e511 343f e629 bdbe
000002f0: d3dc 1e3e d119 f43e 48ac 1f3b 0084 e53b
00000300: aacb 003f f9b1 cdbe 2088 44be 2a08 1ebf
00000310: d7bd 043c 613d 293d d5df b2be 56e0 0cbf

weight f4 [150, 200]
0.009755353 -0.10177941 0.092660986 0.57048565 -0.4638414 0.22448543 0.08966025 0.009076867
0.35622883 -0.22939505 -0.16667388 -0.11459839 -0.0059380513 -0.0037339465 0.09217879 -0.22922477
-0.13566846 -0.115821816 0.017107936 -0.396462 0.04924075 0.41753095 -0.16112302 -0.07409648
0.06919264 0.13324651 -0.58174455 -0.2878458 0.057284527 0.00434186 -0.2061511 -0.08873764
-0.08903614 0.2770696 0.47299504 0.011729308 -0.11283946 0.055239856 0.12765813 -0.30985776
-0.087087974 0.0033188642 -0.10546202 -0.0014932618 0.13896565 0.16695912 -0.42000413 -0.062423047
-0.11267719 0.17943202 -0.28957182 -0.02589164 0.03314603 0.30472615 -0.50416523 0.0006722395
0.38225192 0.32644662 0.36802688 0.03898165 -0.0025792026 0.44503596 -0.16988191 0.2261503
0.036905665 0.47870532 0.0017572875 -0.32016614 0.003041867 -0.52855223 -0.019017443 -0.23327225
-0.20042758 0.13972457 0.0924017 0.0547147 0.15391085 0.10604301 0.034779146 0.4849444
0.1191074 -0.10976092 0.1564562 -0.028376933 0.02318575 -0.08311782 -0.096600585 0.022521686
0.09388587 -0.28344733 -0.12467681 0.2196753 0.4120491 -0.08119085 -0.06973367 0.26860908
0.2264745 0.28406614 -0.30414352 0.23838124 -0.26619098 -0.62811005 -0.032996405 -0.34203988
-0.020159094 0.3443619 0.0204669 -0.6026301 -0.010056304 0.070858724 -0.1338207 0.01126565
0.02186151 -0.01957628 0.17555492 0.019979266 0.045443192 -0.6169114 0.17751084 -0.3811918
-0.06151345 0.057534352 0.055096477 -0.09919951 0.082067735 0.05750371 -0.040685143 -0.40651038
-0.2323789 0.24770293 0.35022953 -0.5980181 0.00542984 0.21318445 -0.14625569 -0.20238715
-0.051155373 0.25882965 0.027346862 0.12522775 -0.1385227 -0.35321054 0.010297647 0.04345207
0.35545376 0.07393239 -0.053207647 -0.18872519 -0.18156774 -0.23828825 0.021527018 0.08382219
0.50704485 0.3836627 0.121457614 -0.016156279 -0.289801 -0.096732765 0.1682387 -0.043734472
0.48012665 0.026992654 0.12884098 -0.13235055 -0.23212835 0.4500086 -0.12387663 0.09986031
0.7023886 -0.267231 0.6757858 0.076068796 0.299151 -0.1962815 -0.35520288 0.048561003
0.15710433 -0.056332286 -0.080324896 0.64892155 -0.1920048 0.13480663 -0.33437788 -0.04583775
0.03790822 0.21400478 -1.205089 -0.067994975 0.06947393 -0.55270374 -0.032103002 -0.038281806
-0.23762107 -1.208904 0.24001268 0.017427033 -0.121849895 -0.04318709 0.3475546 -0.066346206
0.3954458 -0.030130709 0.08988866 0.17349167 -0.14221773 0.2962907 -0.014474565 0.0016541075
-0.14382988 -0.03434437 -0.15570776 0.21418655 0.054963313 -0.027725518 0.1497441 0.09485324
-0.07926995 -0.10181583 0.0026899064 -0.3160925 -0.104906656 0.16701542 0.13796294 0.0030101368
-0.11574596 0.1116454 -0.33237883 -0.17299084 -0.5102312 0.0017296975 0.3026474 0.12425664
-0.46205756 -0.38511723 -0.6365002 0.020934047 0.02160452 0.007621062 -0.11938096 -0.28380418
0.2529927 0.0011790183 0.22357467 0.1901674 0.18009348 0.057286445 -0.10179201 -0.19065654
-0.19558531 0.065730505 -0.07891864 0.0016327173 -0.01273297 0.2146962 -0.37270856 -0.0017109297
00000000: ebd4 1f3c b971 d0bd 0bc5 bd3d 590b 123f
00000010: 9f7c edbe 82df 653e cb9f b73d 24b7 143c
00000020: a063 b63e 89e6 6abe 8fac 2abe 90b2 eabd
00000030: fc93 c2bb 3ab5 74bb 3cc8 bc3d e6b9 6abe
00000040: acec 0abe fd33 edbd f125 8c3c 11fd cabe
00000050: abb0 493d 9ec6 d53e 6ffd 24be e5bf 97bd
00000060: dfb4 8d3d c671 083e 36ed 14bf 8660 93be
00000070: 2ea3 6a3d 2946 8e3b 4619 53be 14bc b5bd
00000080: 9458 b6bd 11dc 8d3e 682c f23e 492c 403c
00000090: 6018 e7bd 3043 623d d0b8 023e ada5 9ebe
000000a0: 2e5b b2bd 4d81 593b 79fc d7bd 8db9 c3ba
000000b0: 034d 0e3e 55f7 2a3e c80a d7be 4faf 7fbd
000000c0: 4cc3 e6bd 07bd 373e c242 94be b41a d4bc
000000d0: 22c4 073d 1105 9c3e f910 01bf 3b39 303a
000000e0: 86b6 c33e 0324 a73e 056e bc3e 39ab 1f3d
000000f0: d707 29bb c1db e33e 86f5 2dbe f293 673e
00000100: 652a 173d dd18 f53e c954 e63a d1ec a3be
00000110: 0f5a 473b 334f 07bf 78ca 9bbc ecde 6ebe
00000120: e33c 4dbe f513 0f3e 1a3d bd3d 851c 603d
00000130: ce9a 1d3e 142d d93d 9474 0e3d a24a f83e
00000140: 95ee f33d 55ca e0bd 0e36 203e be76 e8bc
00000150: 0bf0 bd3c ad39 aabd 87d6 c5bd 667f b83c
00000160: 3c47 c03d 0220 91be 8e56 ffbd 90f2 603e
00000170: 1af8 d23e 6347 a6bd 87d0 8ebd 2187 893e
00000180: eee8 673e 1e71 913e b3b8 9bbe 361a 743e
00000190: 2f4a 88be d2cb 20bf 3d27 07bd da1f afbe
000001a0: af24 a5bc 3450 b03e 33aa a73c f745 1abf
000001b0: 32c3 24bc 611e 913d 4b08 09be 9093 383c
000001c0: e916 b33c 6f5e a0bc abc4 333e 8fab a33c
000001d0: a422 3a3d e8ed 1dbf 67c5 353e 922b c3be
000001e0: 87f5 7bbd 24a9 6b3d d8ac 613d 1d29 cbbd
000001f0: 2113 a83d 0389 6b3d 77a5 26bd 2122 d0be
00000200: bcf4 6dbe d6a5 7d3e 4951 b33e b717 19bf
00000210: cdec b13b 064d 5a3e 0dc4 15be 943e 4fbe
00000220: 4c88 51bd 5285 843e 8706 e03c b43b 003e
00000230: e5d8 0dbe 03d8 b4be 76b7 283c ccfa 313d
00000240: 09fe b53e dd69 973d 43f0 59bd 2d41 41be
00000250: e5ec 39be d601 74be 6e59 b03c f8aa ab3d
00000260: b1cd 013f 706f c43e c5be f83d 2c5a 84bc
00000270: cc60 94be d41b c6bd c446 2c3e eb22 33bd
00000280: 29d3 f53e b31f dd3c e4ee 033e e786 07be
00000290: 0eb3 6dbe 8767 e63e 08b3 fdbd 9083 cc3d
000002a0: bdcf 333f 80d2 88be 4c00 2d3f f5c9 9b3d
000002b0: 522a 993e 04fe 48be 27dd b5be e7e7 463d
000002c0: f5df 203e afbc 66bd 6181 a4bd b91f 263f
000002d0: e89c 44be c00a 0a3e 9433 abbe 5dc0 3bbd
000002e0: a645 1b3d 1224 5b3e 5b40 9abf f340 8bbd
000002f0: 5948 8e3d fe7d 0dbf 707e 03bd 62cd 1cbd
00000300: f052 73be 5ebd 9abf e2c5 753e 23c3 8e3c
00000310: 708c f9bd f2e4 30bd adf2 b13e 85e0 87bd
00000320: df77 ca3e add4 f6bc 8c17 b83d cda7 313e
00000330: 86a1 11be 6ab3 973e ba26 6dbc a3ce d83a
00000340: 2448 13be afac 0cbd db71 1fbe b853 5b3e
00000350: 3621 613d a020 e3bc 8456 193e 6a42 c23d
00000360: 4958 a2bd d184 d0bd 2449 303b e0d6 a1be
00000370: 4dd9 d6bd 1706 2b3e 2846 0d3e b745 453b
00000380: 380c edbd 58a6 e43d 8f2d aabe 8324 31be
00000390: 839e 02bf 04b7 e23a 9af4 9a3e 447a fe3d
000003a0: cf92 ecbe 162e c5be adf1 22bf e17d ab3c
000003b0: f6fb b03c 1aba f93b 017e f4bd c84e 91be
000003c0: 4288 813e 4a89 9a3a c2f0 643e 3ebb 423e
000003d0: 6d6a 383e 31a5 6a3d 5478 d0bd 783b 43be
000003e0: 8447 48be b79d 863d 19a0 a1bd e700 d63a
000003f0: f29d 50bc 52d9 5b3e a8d3 bebe 4641 e0ba

bias f4 [150]
-0.1693697 -0.109903164 0.04674881 -0.01935866 0.29093763 -0.73231155 0.06587704 -0.3478558
0.010980947 0.0019808807 0.04691284 -0.11811997 0.21198039 -0.23075108 -0.3869995 -0.11458537
-0.12147875 -0.24680649 0.15837133 -0.013618661 -0.35825035 -0.19028227 0.06049395 0.12406758
0.2793036 0.15519796 -0.102289885 -0.7874773 -0.11495824 0.12100259 0.079307064 -0.0043570125
0.38035515 -0.06268876 0.16683106 -0.2992133 -0.087668024 -0.04310913 -0.112733364 0.058326043
-0.12085786 -0.06580907 0.10430286 -0.7203388 -0.35268363 -0.28322423 0.25646058 -0.09019928
0.26517868 0.07978265 0.17402859 0.3073546 0.10584634 -0.1900952 -0.019188246 -0.14429393
-0.07994072 -0.19769411 -0.14400652 -0.18204342 -0.09723009 0.5611368 0.18201473 0.41229978
0.119296946 -0.24687783 -0.12713526 0.14468686 -0.19236986 -0.14328474 -0.12068725 0.16691661
0.07389434 0.17996258 0.1634273 0.36672652 0.12515698 -0.047832765 -0.11109682 -0.5974826
-0.77407414 -0.08706766 0.0822184 -0.76374507 0.57125443 -0.03309589 0.12599629 0.026294343
-0.03557347 0.45055518 -0.2392896 -0.14943746 -0.018622333 -0.22215237 0.28541592 0.6143728
-0.36575902 0.13611563 0.07591226 -0.4827294 0.14023697 -0.074524865 -0.7170393 -0.3173443
0.5101537 0.13989097 0.093070224 0.026387248 0.19268811 -0.041252382 -0.015514154 -0.19531254
0.2510806 -0.12727508 -0.21136533 0.060317617 0.09969794 0.1696855 -0.19368303 -0.65380174
-0.32347006 0.4421985 0.2056713 -0.057589862 -0.22760442 0.5361012 0.0885298 -0.25447562
-0.024186155 -0.16761436 -0.7623986 -0.6536038 -0.28377408 0.92719036 -0.3420184 0.4742862
-0.59580517 0.23721178 0.24334367 -0.32494733 0.18012875 -0.4336468 0.75648165 0.19380222
-0.98023343 0.046757966 0.18160726 -0.2173649 0.48810813 -0.09028274
00000000: 406f 2dbe e914 e1bd ae7b 3f3d 0d96 9ebc
00000010: c7f5 943e c578 3bbf 8bea 863d 281a b2be
00000020: 6ee9 333c aad1 013b ae27 403d e2e8 f1bd
00000030: 6311 593e 034a 6cbe cc24 c6be bcab eabd
00000040: dac9 f8bd d7ba 7cbe 182c 223e ce20 5fbc
00000050: 976c b7be 5bd9 42be 81c8 773d 2517 fe3d
00000060: e200 8f3e 37ec 1e3e 5c7d d1bd 1d98 49bf
00000070: 3a6f ebbd 35d0 f73d be6b a23d 45c5 8ebb
00000080: e9bd c23e f762 80bd c3d5 2a3e 7c32 99be
00000090: 4b8b b3bd 3393 30bd c0e0 e6bd 4ae7 6e3d
000000a0: 5384 f7bd e8c6 86bd bd9c d53d 2068 38bf
000000b0: f392 b4be c402 91be cd4e 833e 66ba b8bd
000000c0: 80c5 873e 1665 a33d 8d34 323e 955d 9d3e
000000d0: f7c5 d83d 51a8 42be ab30 9dbc cac1 13be
000000e0: f6b7 a3bd 5370 4abe 7276 13be 9769 3abe
000000f0: 9220 c7bd a9a6 0f3f 1262 3a3e f518 d33e
00000100: f551 f43d 8bcd 7cbe bf2f 02be cb28 143e
00000110: 9bfc 44be 3cb9 12be e02a f7bd 30ec 2a3e
00000120: ea55 973d 1c48 383e 7c59 273e 94c3 bb3e
00000130: 2729 003e 4aec 43bd bb86 e3bd 9ff4 18bf
00000140: b929 46bf 8850 b2bd 1f62 a83d cc84 43bf
00000150: bb3d 123f 8e8f 07bd 2c05 013e 3c67 d73c
00000160: 7db5 11bd 2baf e63e 5508 75be 2206 19be
00000170: dd8d 98bc e97b 63be 0922 923e 8947 1d3f
00000180: c444 bbbe e561 0b3e e377 9b3d 4f28 f7be
00000190: 489a 0f3e 7ea0 98bd e38f 37bf f47a a2be
000001a0: 6f99 023f 943f 0f3e 9a9b be3d 122a d83c
000001b0: 0850 453e 42f8 28bd 142f 7ebc 0300 48be
000001c0: a38d 803e 6654 02be 2770 58be 9b0f 773d
000001d0: 6f2e cc3d 09c2 2d3e d854 46be 8d5f 27bf
000001e0: de9d a5be d767 e23e 7f9b 523e 59e3 6bbd
000001f0: 2211 69be ee3d 093f 1d4f b53d a14a 82be
00000200: 0b22 c6bc 19a3 2bbe 8e2c 43bf 9452 27bf
00000210: d64a 91be 595c 6d3f 091d afbe a4d5 f23e
00000220: b086 18bf a5e7 723e 152f 793e 7f5f a6be
00000230: ac73 383e f406 debe c8a8 413f 1774 463e
00000240: 94f0 7abf 4885 3f3d 41f7 393e e894 5ebe
00000250: 4fe9 f93e 28e6 b8bd

weight f4 [100, 150]
-0.19827908 -0.008453439 0.12454002 -0.48955244 0.094580516 -0.17328082 -0.007597134 -0.36235702
0.16416477 -0.24303576 -0.32992935 0.16410555 0.043585245 0.007528278 0.03083323 0.33742574
0.3751803 -0.18720075 0.27739388 -0.06831972 0.1888603 -0.20465282 -0.28883177 0.11835481
-0.13529746 0.012480274 0.17638166 -0.21980613 0.23903993 -0.34099782 -0.12807086 -0.054943774
0.12746765 0.1768647 -0.050777815 0.2977469 0.07565143 0.09758746 0.2541874 -0.03166166
0.05146116 -0.06731397 -0.3895355 -0.3264264 0.37213972 -0.1298321 -0.25416002 0.117449135
0.085208744 -0.39261517 -0.22643626 -0.6250917 0.2540563 -0.14782771 0.09551703 -0.091131955
0.065351374 0.015977621 -0.4122451 0.13592681 -0.3402851 0.07722478 -0.23744996 -0.2357513
0.02556203 0.016085466 0.34309086 0.07173607 -0.14291763 -0.14996253 0.024921767 0.010119919
0.25216568 -0.2314663 -0.2173815 -0.11306787 -0.23286398 0.14717883 0.2794104 0.26099545
-0.038714975 0.011796715 0.06313214 0.0790318 0.2292869 -0.09873859 0.4708887 0.086400375
0.07063049 0.0062394687 0.1557898 -0.10102128 -0.16597186 -0.11014608 -0.28194827 0.12034955
0.43869382 0.006443057 -0.13558505 0.117721856 0.23840868 0.097867355 -0.07058047 0.15659724
-0.077310905 0.03341559 0.0738688 -0.39733046 -0.026202265 -0.027531752 -0.049288463 0.25663558
-0.188515 0.07927519 0.015690338 -0.5198181 -0.22345994 0.5448317 -0.17593011 -0.16913474
-0.22944538 -0.07856095 0.13567735 -0.0789468 -0.20998962 0.102937065 0.31597152 0.0118868835
-0.36005548 0.0024068707 -0.0805774 -0.036122635 -0.020451399 0.16429809 0.17055468 0.21482392
-0.056057315 -0.4078592 -0.09670957 0.023121122 -0.17337029 -0.1312285 -0.4812767 -0.28568664
-0.062216096 -0.45895544 0.045819648 0.42056215 -0.14935695 -0.28139254 0.37619263 0.068109006
-0.46852484 0.03677027 -0.27397832 -0.28022942 0.26532954 0.07800852 -0.09059644 -0.16517824
0.28026763 -0.033619456 -0.33012953 -0.22770609 -0.19635685 0.07511235 0.20948261 -0.102646105
0.05102297 0.16317363 -0.26322874 -0.03144562 -0.20623252 0.060387883 0.29846898 0.16450627
0.035061628 -0.18004434 -0.4004447 0.4667848 0.13238955 0.11045254 -0.107353754 -0.042296603
0.13546208 -0.37984315 0.4422526 -0.05379781 -0.021768766 -0.031377833 0.25374582 0.1620867
0.21562707 0.22834527 0.0018739721 -0.060162555 -0.6734454 -0.38692337 0.18072006 -0.113850415
0.11226844 -0.13659003 -0.43093005 -0.0038386746 0.070406504 0.16280761 0.25485766 -0.12792653
-0.2118799 -0.0016961147 -0.42887715 0.25779957 -0.11188896 0.07124863 -0.09185877 -0.06520847
0.27441952 -0.093672074 -0.1530117 0.044971477 -0.257122 -0.011535364 0.006320491 0.37621358
-0.00056694285 0.07965474 -0.12067733 -0.26957813 -0.20788363 -0.38230523 -0.06152398 -0.14654483
0.06011875 -0.30148953 0.30037305 0.10956301 0.36423555 -0.089576855 0.108552404 -0.19709837
-0.08099737 -0.19805981 0.19666553 -0.29317835 0.27949262 0.17905882 0.20731856 -0.09217633
-0.6462701 0.017024275 0.10636888 -0.061074294 -0.15857689 -0.17156987 0.0789925 -0.19871296
00000000: ac09 4bbe 4b80 0abc d70e ff3d 9ea6 fabe
00000010: 6eb3 c13d 8770 31be 61f1 f8bb dc86 b9be
00000020: cf1a 283e 5ede 78be 80ec a8be 490b 283e
00000030: 7186 323d c6af f63b f895 fc3c 11c3 ac3e
00000040: a217 c03e 8eb1 3fbe 9206 8e3e 36eb 8bbd
00000050: 9864 413e 8290 51be c2e1 93be 0264 f23d
00000060: 6b8b 0abe 107a 4c3c 659d 343e dc14 61be
00000070: e2c6 743e 4497 aebe 0225 03be b90c 61bd
00000080: e186 023e 051c 353e 66fc 4fbd 4872 983e
00000090: 23ef 9a3d efdb c73d da24 823e a8af 01bd
000000a0: f0c8 523d e8db 89bd 3271 c7be 5c21 a7be
000000b0: 1989 be3e b5f2 04be 4321 82be 2c89 f03d
000000c0: ec81 ae3d db04 c9be e8de 67be 0206 20bf
000000d0: ab13 823e 2660 17be 6f9e c33d 64a3 babd
000000e0: f1d6 853d 80e3 823c ca11 d3be 6630 0b3e
000000f0: d939 aebe 0728 9e3d 1526 73be ca68 71be
00000100: 7667 d13c abc5 833c 9ba9 af3e 5cea 923d
00000110: 0059 12be c78f 19be bc28 cc3c 04ce 253c
00000120: dc1b 813e 8005 6dbe 4299 5ebe 2190 e7bd
00000130: e573 6ebe 0cb6 163e e10e 8f3e 32a1 853e
00000140: 9893 1ebd 0247 413c 6c4b 813d 6ddb a13d
00000150: 2fca 6a3e 7537 cabd 5318 f13e aef2 b03d
00000160: b8a6 903d 7574 cc3b 5d87 1f3e 3fe4 cebd
00000170: 87f4 29be 4594 e1bd 865b 90be d379 f63d
00000180: 7a9c e03e 4820 d33b cfd6 0abe 2818 f13d
00000190: 6821 743e ae6e c83d 7e8c 90bd 075b 203e
000001a0: 2e55 9ebd c9de 083d 8748 973d e66e cbbe
000001b0: 22a6 d6bc 458a e1bc b3e2 49bd bd65 833e
000001c0: 130a 41be 085b a23d 0689 803c cd12 05bf
000001d0: afd2 64be 177a 0b3f 0627 34be a831 2dbe
000001e0: bbf3 6abe 90e4 a0bd 01ef 0a3e dcae a1bd
000001f0: 8507 57be abd0 d23d 05c7 a13e 34c1 423c
00000200: 3159 b8be 97bc 1d3b c405 a5bd 54f5 13bd
00000210: b189 a7bc c23d 283e e3a5 2e3e cdfa 5b3e
00000220: 5b9c 65bd ecd2 d0be ab0f c6bd 8268 bd3c
00000230: fb87 31be c460 06be e669 f6be 8545 92be
00000240: 4ed6 7ebd 35fc eabe 62ad 3b3d ec53 d73e
00000250: 07f1 18be af12 90be 529c c03e bc7c 8b3d
00000260: 7de2 efbe 6c9c 163d e346 8cbe 3b7a 8fbe
00000270: 46d9 873e eec2 9f3d a08a b9bd 7c24 29be
00000280: 3d7f 8f3e 8eb4 09bd bd06 a9be c92b 69be
00000290: c511 49be 81d4 993d 9c82 563e 1f38 d2bd
000002a0: 76fd 503d fd16 273e ebc5 86be 1fcd 00bd
000002b0: 9e2e 53be 4959 773d edd0 983e 5574 283e
000002c0: c89c 0f3d 8b5d 38be 1607 cdbe 6bfe ee3e
000002d0: 2091 073e f134 e23d 49dc dbbd 343f 2dbd
000002e0: 92b6 0a3e cd7a c2be ef6e e23e 185b 5cbd
000002f0: 6954 b2bc 0b86 00bd f9ea 813e 0efa 253e
00000300: 58cd 5c3e 58d3 693e 12a0 f53a 036d 76bd
00000310: eb66 2cbf d21a c6be ae0e 393e 682a e9bd
00000320: ffec e53d 42de 0bbe dda2 dcbe 4692 7bbb
00000330: 4931 903d 0ab7 263e b47c 823e 2cff 02be
00000340: 0bf7 58be 2a50 deba c995 dbbe 4efe 833e
00000350: 0a26 e5bd cdea 913d 7320 bcbd 058c 85bd
00000360: b780 8c3e 25d7 bfbd 19af 1cbe 0334 383d
00000370: 7fa5 83be d3fe 3cbc 1f1c cf3b 119f c03e
00000380: e49e 14ba 0622 a33d ad25 f7bd 2506 8abe
00000390: 72df 54be 83bd c3be 9200 7cbd d90f 16be
000003a0: 143f 763d d65c 9abe 7fca 993e 9262 e03d
000003b0: 157d ba3e 1274 b7bd b950 de3d 28d4 49be
000003c0: f3e1 a5bd 31d0 4abe b062 493e 791b 96be
000003d0: a819 8f3e 325b 373e 514b 543e f2c6 bcbd
000003e0: f571 25bf 7e76 8b3c edd7 d93d 0a29 7abd
000003f0: fb61 22be 03b0 2fbe d2c6 a13d 697b 4bbe

bias f4 [100]
0.18625453 0.2629733 -0.15084873 0.30139917 0.27538827 0.14656469 0.3130933 -0.32490835
-0.25521937 0.044029035 0.06472836 0.3267119 -0.15455039 -0.036351632 0.23547791 0.23183438
0.34693536 -0.2112103 0.71119606 0.08180933 -0.06988728 -0.023409216 -0.2911613 -0.6107948
-0.23837928 -0.08094883 -0.0944629 -0.255711 0.43986166 -0.22786136 -0.2316037 0.2531947
0.25084165 -0.30165705 -0.19499199 0.009574149 -0.24110112 -0.05914659 0.1739061 0.13507472
-0.34389827 -0.17164251 0.10000441 -0.33298 -0.13958284 -0.080070235 -0.19343638 -0.059971597
0.25106537 -0.108275235 0.044668145 0.3253012 0.47617668 -0.16084152 -0.36162946 0.21207935
0.13415289 -0.13911906 0.35888278 -0.042132612 -0.27964145 0.1765889 0.11647217 -0.36086696
0.17824812 -0.20394865 0.35355735 -0.2644562 -0.15603878 0.1754821 -0.07658761 0.21626492
-0.2881436 0.4099112 0.2820459 -0.039764773 0.30390492 -0.19041559 0.1499184 0.2525689
-0.11848174 -0.22936264 0.09111533 0.14114945 -0.33580717 -0.42343956 0.06627765 0.060546428
0.47841874 0.53964055 -0.37904295 0.07319551 -0.28204274 -0.3477467 0.15416174 0.22735552
0.040245168 -0.28626075 -0.1916193 0.48196042
00000000: 82b9 3e3e 70a4 863e 1778 1abe fe50 9a3e
00000010: b1ff 8c3e 0e15 163e c44d a03e 635a a6be
00000020: 1dac 82be ca57 343d 4d90 843d c846 a73e
00000030: 7542 1ebe 73e5 14bd 1f21 713e fe65 6d3e
00000040: 83a1 b13e 8347 58be f210 363f a68b a73d
00000050: 1021 8fbd afc4 bfbc 1813 95be 0c5d 1cbf
00000060: b319 74be 80c8 a5bd c475 c1bd 8dec 82be
00000070: 8c35 e13e 7d54 69be 8529 6dbe bca2 813e
00000080: 516e 803e cb72 9abe fbab 47be e4dc 1c3c
00000090: 36e3 76be b243 72bd 7114 323e 0751 0a3e
000000a0: 6f13 b0be 0ec3 2fbe 1dcf cc3d 5b7c aabe
000000b0: ceee 0ebe ddfb a3bd 3014 46be c7a4 75bd
000000c0: a48b 803e 68bf ddbd f2f5 363d e18d a63e
000000d0: 6ecd f33e a4b3 24be 7f27 b9be 542b 593e
000000e0: 605f 093e 3a75 0ebe 7cbf b73e 3f93 2cbd
000000f0: 2a2d 8fbe b8d3 343e f688 ee3d 8ec3 b8be
00000100: ad86 363e ead7 50be 7805 b53e ce66 87be
00000110: a1c8 1fbe 94b1 333e f7d9 9cbd 8d74 5d3e
00000120: 8f87 93be e1df d13e 5268 903e 63e0 22bd
00000130: 6d99 9b3e 4efc 42be 3684 193e b650 813e
00000140: 8ea6 f2bd 0ade 6abe ad9a ba3d 7b89 103e
00000150: ebee abbe 12cd d8be 94bc 873d 88ff 773d
00000160: 4df3 f43e e225 0a3f eb11 c2be 87e7 953d
00000170: e867 90be db0b b2be 93dc 1d3e e3cf 683e
00000180: 1ed8 243d c590 92be da37 44be 84c3 f63e

weight f4 [1, 100]
0.055211 0.062471755 -0.1391825 0.17982352 0.21590269 0.51397973 0.049308356 -0.22722764
-0.1000613 -5.3784894e-05 0.096153475 0.16241321 -0.14471991 -0.09596537 0.09534162 0.12817217
0.07721433 -0.1414011 0.31430867 0.04321401 -0.085756436 -0.001983469 -0.07564409 -0.43371567
-0.06890434 -0.07549496 -0.09134103 -0.12672015 0.19796193 -0.07544802 -0.10702956 0.03628363
0.13350853 -0.10061667 -0.07481367 -0.0014801966 -0.09750288 0.3671312 0.058513924 0.05775024
-0.11261149 -0.5301508 0.07707392 -0.11368246 -0.10116601 -0.08521811 -0.22344455 -0.07119121
0.17185143 -0.099793985 -0.00056526304 0.18552625 0.2388769 -0.07560143 -0.110149555 0.03583276
0.10707104 -0.1813458 0.09423692 0.2961089 -0.18477422 0.4265954 0.36803606 -0.21893612
0.118302085 -0.073211215 0.58804595 -0.06883916 -0.083372496 0.041335203 -0.13535792 0.06853808
-0.19093123 0.2583946 0.07415967 0.0016434989 0.15862572 -0.14999443 0.08273888 0.095684536
-0.088953644 -0.08510441 -0.5010343 0.27113363 -0.07973379 -0.24422923 0.0015556621 0.09724114
0.23566055 0.38390195 -0.19366728 0.088422984 -0.11951364 -0.16459285 0.13917914 0.0836945
-0.43728265 -0.08706407 -0.05319716 0.27280453
00000000: ee24 623d 62e2 7f3d db85 0ebe a823 383e
00000010: 9815 5d3e 2d94 033f 8ff7 493d 5dae 68be
00000020: f0ec ccbd 1797 61b8 1dec c43d a64f 263e
00000030: 7531 14be 7e89 c4bd 7842 c33d 913f 033e
00000040: 8c22 9e3d 73cb 10be 11ed a03e 2c01 313d
00000050: 12a1 afbd 16fd 01bb 4aeb 9abd fb0f debe
00000060: b81d 8dbd 1a9d 9abd 0211 bbbd edc2 01be
00000070: 88b6 4a3e 7e84 9abd 5032 dbbd 259e 143d
00000080: 76b6 083e 1d10 cebd e937 99bd 2803 c2ba
00000090: 97af c7bd 9ff8 bb3e 4cac 6f3d 848b 6c3d
000000a0: daa0 e6bd f6b7 07bf eed8 9d3d 59d2 e8bd
000000b0: 2030 cfbd d586 aebd a6ce 64be b2cc 91bd
000000c0: d2f9 2f3e ca60 ccbd 292e 14ba 98fa 3d3e
000000d0: 259c 743e ecd4 9abd 1796 e1bd 5fc5 123d
000000e0: 1048 db3d b7b2 39be 49ff c03d 969b 973e
000000f0: 7435 3dbe b66a da3e 396f bc3e ca30 60be
00000100: 5d48 f23d c3ef 95bd 2e8a 163f 8cfb 8cbd
00000110: 33bf aabd 1a4f 293d 449b 0abe b15d 8c3d
00000120: 7a83 43be 4c4c 843e 06e1 973d ac6a d73a
00000130: c86e 223e 2498 19be 0073 a93d 41f6 c33d
00000140: 542d b6bd 394b aebd c943 00bf 07d2 8a3e
00000150: 784b a3bd 3a17 7abe 5ce7 cb3a 5d26 c73d
00000160: 0051 713e cc8e c43e b750 46be 1c17 b53d
00000170: 91c3 f4bd 078b 28be fa84 0e3e 0668 ab3d
00000180: 83e3 dfbe a64e b2bd 44e5 59bd 09ad 8b3e
