scripts/distance/100/250k_nn_ssm_distance.pt (torch, 9709 bytes, 3 tensors)

weight f4 [100, 15]
0	0x3d1377a2	0.036002763
1	0x3b031cc1	0.0020006152
2	0x3cb16ad5	0.021657387
3	0x3cc60e84	0.024176843
4	0xbc2447c1	-0.010026873
5	0x3b945f16	0.0045279367
6	0xbd33184d	-0.043724347
7	0x3c1de017	0.009635947
8	0x3aa8c5b2	0.0012876301
9	0xbd19327b	-0.037401658
10	0x3c4a2a59	0.012339198
11	0x38ac8021	8.225465e-05
12	0x3b8af2b1	0.004240357
13	0x3aa2b458	0.0012413366
14	0xbaf52695	-0.0018703515
15	0x3ee5820c	0.4482578
16	0x3fca1a1a	1.5789216
17	0x3fa3c25f	1.2793692
18	0x3eb674ef	0.35636088
19	0x3f5c6c8e	0.8610314
20	0x3e7dc822	0.24783376
21	0x3f4c48e2	0.7979871
22	0x3f49a9ee	0.7877492
23	0x3f5fb4df	0.8738536
24	0x3efcf232	0.4940353
25	0x3f1e296a	0.6178194
26	0x3e755690	0.23958802
27	0xc05aff3d	-3.4218285
28	0x3ebf0d7c	0.37314975
29	0x3d4dbc45	0.050228376
30	0xbf72b361	-0.9480496
31	0x3f9c6bae	1.2220361
32	0x3f5e2103	0.8676912
33	0xbf0ed578	-0.5579448
34	0x3f152281	0.58255774
35	0x3e617c0b	0.22019975
36	0xbf99545b	-1.1978868
37	0x3fc8b80d	1.5681168
38	0x3fa0298e	1.2512681
39	0xbf0da3db	-0.5532815
40	0x3f2a1635	0.66440135
41	0x3e076bf1	0.1322477
42	0x4020d4ec	2.5129957
43	0x40131226	2.2979827
44	0x3e174e58	0.1477598
45	0xbf84c420	-1.0372353
46	0x3f0f12d3	0.558881
47	0x3f0618fc	0.52381873
48	0xbf0a3165	-0.5398162
49	0x3eea7a7b	0.4579657
50	0x3db2f6e2	0.087384954
51	0xbf0dd90a	-0.554093
52	0x3f346e6f	0.7048101
53	0x3f4f7f64	0.8105376
54	0xbdbf0fb8	-0.0932917
55	0x3e7f6194	0.24939567
56	0x3de0f5d3	0.10984387
57	0xbf80d323	-1.0064434
58	0xbe949da0	-0.29026508
59	0xbf0d7600	-0.5525818
60	0x3d2ae85f	0.041725513
61	0x3bfe04ea	0.0077520506
62	0x3c88997f	0.016674755
63	0x3c9e1b3e	0.0193001
64	0x3bb41a8c	0.0054963287
65	0xbb732d8f	-0.0037106012
66	0xbd43b0cd	-0.047776032
67	0x3aa5135a	0.0012594268
68	0xbb2c88f5	-0.002632675
69	0xbcdee32e	-0.027207937
70	0xbbc630e9	-0.006048311
71	0x3babee02	0.0052468786
72	0x3ab78bf8	0.0014003506
73	0xb8d8212a	-0.0001030586
74	0xbb1dd77b	-0.0024084735
75	0x3fb4da94	1.4129205
76	0x3ed4db58	0.41573596
77	0x3e78ee22	0.2430959
78	0xbc3e2af1	-0.011606918
79	0x3dbb242f	0.09137761
80	0x3d7f0431	0.062259857
81	0x3f4d5140	0.802021
82	0x3ede8d2e	0.43467087
83	0x3d44851a	0.047978498
84	0x3e11d531	0.14241482
85	0x3e42b5e6	0.19014701
86	0x3d8bee1c	0.06832525
87	0xc0c4d739	-6.1512723
88	0x3fc52f53	1.5405067
89	0xbe7b4744	-0.24538904
90	0x3f786574	0.97029805
91	0x3e075ba4	0.13218552
92	0xbd5037c8	-0.050834447
93	0x3ec22f5c	0.37926757
94	0x3cd66b47	0.0261742
95	0xbd188842	-0.03723932
96	0x3f7056ce	0.93882453
97	0x3e705d5b	0.23473112
98	0x3e3c9209	0.18415083
99	0x3dcb7ca6	0.09935884
100	0x3ccf54cc	0.025308989
101	0x3d145693	0.036215376
102	0xbe9a3fc2	-0.30126768
103	0x3e9badc8	0.30406022
104	0xbf5bb219	-0.8581863
105	0xbc625ce1	-0.013816089
106	0xbd065662	-0.032797225
107	0x3b9c0d72	0.004762345
108	0xbbe2e4fd	-0.00692427
109	0xbc530b14	-0.012881059
110	0x3ae9d310	0.0017839391
111	0x3c778f98	0.015109919
112	0x3d137e2c	0.036009
113	0xbbc48a15	-0.005997906
114	0x3c132096	0.008979937
115	0x3c8f4eda	0.017493654
116	0xba4bf3e2	-0.0007780177
117	0x3b55723a	0.0032569305
118	0x3bcfa70e	0.006337053
119	0x3b61b24d	0.003443855
120	0xbee2f621	-0.44328406
121	0x3f23de82	0.64011395
122	0x3e175886	0.14779863
123	0x3b042c31	0.0020167942
124	0x3e1daf87	0.1539899
125	0xbd42abf8	-0.047527283
126	0xbdfb6ca1	-0.12276579
127	0x3ec3e3ae	0.38259643
128	0x3e422f54	0.18963367
129	0x3d51c594	0.051213816
130	0xbd2ec3cb	-0.04266719
131	0x3dc9902a	0.0984195
132	0x3fc767b1	1.5578519
133	0x40006827	2.006357
134	0x3dc6cf27	0.0970748
135	0xbf170c6e	-0.5900334
136	0xbf226960	-0.6344204
137	0xbe9d4950	-0.30719995
138	0x3d85896a	0.0652035
139	0x3d1a1528	0.037617832
140	0xbdcc0318	-0.099615276
141	0xbf0f60fa	-0.5600735
142	0xbf24c453	-0.64362067
143	0x3d99e35e	0.0751407
144	0xbc244dd9	-0.010028326
145	0xbcc653e6	-0.024209928
146	0x3e0f5904	0.139988
147	0x4040dfa8	3.013651
148	0xc047b07c	-3.1201468
149	0xbe4d1f1e	-0.20031402
150	0xbec97d0e	-0.39353222
151	0x3efcb3fa	0.4935606
152	0x3f114adb	0.56754845
153	0xbf34ceda	-0.7062813
154	0x3f749d2f	0.95552343
155	0x3ec9af8f	0.39391753
156	0xbecd2570	-0.40067625
157	0xbcdee01e	-0.027206477
158	0x3d3a409a	0.045471765
159	0xbf2c1d60	-0.6723232
160	0x3f821d2a	1.016515
161	0x3f1ee710	0.62071323
162	0x3f8e1810	1.1101093
163	0xbf489337	-0.7834963
164	0x3e2da75c	0.16958374
165	0xbf971ed5	-1.1806284
166	0xbf82648b	-1.0186933
167	0xbf40462f	-0.7510709
168	0xbef9524f	-0.4869561
169	0xbef6522e	-0.48109573
170	0xbe0383ac	-0.12843198
171	0xbfe01f26	-1.7509506
172	0xbfce9900	-1.6140442
173	0xbf8dbac8	-1.1072626
174	0xbf6ada12	-0.91739
175	0xbf2e2308	-0.68022203
176	0xbe3ebf3b	-0.18627636
177	0x4062918c	3.5401335
178	0xc00316fd	-2.048278
179	0x3d2ea823	0.042640816
180	0x3edb8382	0.4287377
181	0x3f01928b	0.5061423
182	0x3d6c5305	0.05769636
183	0x3ce9d2b2	0.02854285
184	0xbd9834c7	-0.074319415
185	0x3be476c4	0.006972166
186	0x3ebe6ca8	0.37192273
187	0x3f19ec5c	0.6012628
188	0xbd706846	-0.058693193
189	0xbd80b732	-0.06284942
190	0x3d96d890	0.07365525
191	0xbc387e0a	-0.011260519
192	0xbf0f3736	-0.5594362
193	0xbd086190	-0.033296168
194	0x3c1b31f7	0.009472362
195	0x3e15f500	0.14644241
196	0xbd2c7db0	-0.042112052
197	0x3d2f0e5b	0.0427383
198	0x3d96aac4	0.0735679
199	0x3d3079b8	0.04308483
200	0xbd0bfe35	-0.034177978
201	0x3e30c4f1	0.17262627
202	0xbc86e304	-0.016465671
203	0xbda21fa0	-0.07916188
204	0x3d953526	0.07285528
205	0xbce21d34	-0.027601816
206	0x3d3bff39	0.045897696
207	0x3fc88229	1.5664722
208	0xbb9429e7	-0.0045215967
209	0xbc2bd1d7	-0.010487041
210	0x3eb2d610	0.34928942
211	0x3cd797ca	0.026317496
212	0x3e86ebcd	0.26351777
213	0x3f7524f3	0.95759505
214	0xbdafc907	-0.08583265
215	0xbc925a49	-0.017865317
216	0x3f01a898	0.5064788
217	0x3eaa99bc	0.33320415
218	0x3ec8c0d5	0.3920962
219	0x3f507999	0.81435543
220	0xbeadde83	-0.33958825
221	0xbe610283	-0.21973614
222	0xbf95cf12	-1.1703818
223	0xbfa4da60	-1.2879143
224	0xbda4ff6d	-0.08056531
225	0xbf0d0160	-0.55080223
226	0x3f298251	0.6621447
227	0x3e5a6024	0.21325737
228	0xbd8388fc	-0.06422612
229	0x3e2c0a19	0.16800727
230	0x3d40d789	0.04708055
231	0xbea7db0f	-0.32784316
232	0x3ee35d1d	0.44406977
233	0x3e2131b9	0.15741624
234	0xbcaaab2b	-0.020833572
235	0xbb824fa2	-0.003976778
236	0xbb83e04e	-0.004024542
237	0x4009c463	2.1526115
238	0x400cec58	2.2019253
239	0xbdbb56df	-0.09147429
240	0xbfa876f2	-1.3161299
241	0xbf9b0dd9	-1.2113601
242	0xbf9d812e	-1.2305048
243	0xbed2a114	-0.41138518
244	0xbedc2188	-0.42994332
245	0xbe92f649	-0.28703526
246	0xbf793368	-0.97344065
247	0xbf821fd7	-1.0165967
248	0xbf8a4be8	-1.0804415
249	0xbd878b29	-0.066183396
250	0xbf1ac84a	-0.60461867
251	0xbda58b2d	-0.08083186
252	0x3fc99ed5	1.5751597
253	0x3ea1e4f3	0.31619987
254	0x3e8f70f4	0.28015864
255	0xbf214b30	-0.6300535

bias f4 [100]
0	0x39268ecc	0.0001588419
1	0xbf87069a	-1.054889
2	0xbf67c05f	-0.9052791
3	0x3fcbaac6	1.5911491
4	0xbaeed85d	-0.001822244
5	0x3fad314a	1.3530667
6	0xbc9d364e	-0.019190934
7	0x3a9fd0ef	0.0012193004
8	0xbfe28aa4	-1.769856
9	0x3f542fc1	0.82885367
10	0xbf827271	-1.0191175
11	0x3f6a9321	0.9163075
12	0x3f4542bb	0.7705495
13	0x3fb1d0b5	1.3891817
14	0x3f7c6ca4	0.9860327
15	0x3f0ba598	0.5454955
16	0x401699ea	2.3531442
17	0xc0251991	-2.5796854
18	0x3f5505a7	0.8321175
19	0x39b509ef	0.0003453041
20	0xbb1ecc21	-0.0024230557
21	0x3e25fc5b	0.16209547
22	0xbf48a767	-0.78380436
23	0xbb5973bb	-0.0033180553
24	0x3f6922d0	0.91068745
25	0x3f1d95e9	0.6155687
26	0xc02f7573	-2.7415435
27	0xbb9a23cb	-0.004703974
28	0x3ada6cc1	0.0016664491
29	0xbf6a5be1	-0.91546446
30	0x40cb88c3	6.3604445
31	0x3a9928f2	0.0011685176
32	0x39b6ddf6	0.0003487912
33	0xbf199e73	-0.600074
34	0xc0c1b208	-6.0529823
35	0xbabd98cb	-0.0014465092
36	0x3f31c3b0	0.6943922
37	0xba8b1d98	-0.0010613678
38	0xc064dc0b	-3.5759304
39	0x400eb90a	2.230044
40	0x400d142c	2.2043562
41	0x3f63195f	0.8871059
42	0xbf46e89b	-0.7769868
43	0x39d343c1	0.00040295537
44	0xbf6053a7	-0.87627643
45	0xc04dea93	-3.2174423
46	0xbfcd11b5	-1.6021029
47	0xbe019a47	-0.12656508
48	0x3ec269a5	0.37971225
49	0x3f218cb3	0.63105315
50	0x3f2e8e56	0.6818594
51	0x3a07a216	0.0005173994
52	0x3f68f227	0.90994495
53	0xbf5bb1d0	-0.85818195
54	0x3b00c7db	0.0019650373
55	0xbfac8150	-1.3476963
56	0xbf884462	-1.0645869
57	0xc0488f92	-3.1337628
58	0xbb442d65	-0.0029934284
59	0x3fad02e9	1.3516513
60	0x3f5b0014	0.85546994
61	0xbf485a2c	-0.7826259
62	0x3f0fe982	0.5621568
63	0xbf7c2113	-0.9848797
64	0x3fa3b0c5	1.2788321
65	0xc06ad663	-3.6693351
66	0xbf72857a	-0.9473492
67	0xbf861135	-1.0474001
68	0x407e7af6	3.976255
69	0x401379ba	2.3043046
70	0xb9a8359f	-0.00032083408
71	0xbf21093b	-0.6290471
72	0xc073d2b9	-3.8097365
73	0x4082f588	4.092472
74	0xbb294aed	-0.0025832013
75	0xb918eccf	-0.00014584068
76	0x3fef62c3	1.8702015
77	0x3feb14ed	1.8365761
78	0xbf6fea38	-0.93716764
79	0x3f50bdc5	0.81539565
80	0x3d4178ff	0.04723453
81	0x3f2459b2	0.64199364
82	0x401bb131	2.43269
83	0xbe452c6f	-0.19255231
84	0xc040fe12	-3.0155072
85	0x40437dcd	3.0545533
86	0x3f6dd2fa	0.9290005
87	0xbf4407a2	-0.76574147
88	0xba1a485b	-0.00058854156
89	0xbf9dfd49	-1.2342921
90	0x4029b8f9	2.6519148
91	0x402bf577	2.686857
92	0xbf4487cb	-0.76769704
93	0x40504598	3.2542477
94	0xc03c32f9	-2.9406111
95	0x3f85d81f	1.045658
96	0xbe94b19c	-0.29041755
97	0xbf4b65cc	-0.79452205
98	0x40380df9	2.8758528
99	0x402e6a9f	2.7252576

weight f4 [1, 100]
0	0x3b2fb739	0.002681209
1	0xbe5bd83b	-0.21469204
2	0x3eca4277	0.39503834
3	0x3efa5267	0.48890993
4	0x3afb0003	0.0019149784
5	0xbe5b2a4a	-0.21402851
6	0x3eaf8475	0.34280744
7	0xba5ed785	-0.0008500743
8	0xbf7ab1fd	-0.9792784
9	0xbe9c111b	-0.304818
10	0xbe878b86	-0.26473635
11	0xbe90942d	-0.2823805
12	0xbf9b0f22	-1.2113993
13	0xc009c457	-2.1526086
14	0x3e95a5ae	0.29227966
15	0xbf2f4cb0	-0.6847639
16	0x3ed2ba86	0.4115793
17	0xbfa83a67	-1.3142823
18	0xbf442066	-0.76611936
19	0xba830383	-0.0009995553
20	0x3994f061	0.00028407856
21	0x3e943222	0.28944498
22	0xbf10db4e	-0.5658463
23	0xbb147632	-0.0022653458
24	0x3eba0c65	0.3633758
25	0xbe841888	-0.25799966
26	0x407599ff	3.8375242
27	0x3e7afef4	0.2451132
28	0xba5ab9ec	-0.00083437446
29	0xbe819f56	-0.25316876
30	0x3f3e17d3	0.742551
31	0xbafc86c5	-0.0019266239
32	0xba8a5fa5	-0.0010557069
33	0xbeefd69b	-0.46843418
34	0xbe1d8a02	-0.15384677
35	0x3a0c5e2c	0.0005354609
36	0xbfc02fd1	-1.5014592
37	0x3a8fbe14	0.0010966682
38	0xbea4a09a	-0.3215378
39	0x3e834198	0.25635982
40	0x3f408657	0.75204986
41	0xc03e5a55	-2.9742634
42	0x402bdcd1	2.6853526
43	0xb9b88c77	-0.0003519987
44	0xbe9c1e46	-0.30491847
45	0xbf89d10f	-1.0766925
46	0x4041715b	3.0225437
47	0xbefa59ae	-0.48896545
48	0x3eb4de4f	0.35325858
49	0xbe49f319	-0.1972164
50	0xbedb82b7	-0.42873165
51	0xb9736a68	-0.00023213925
52	0x3e7b3f89	0.24535955
53	0x401fdca9	2.497843
54	0xba14345e	-0.0005653555
55	0xbdb19318	-0.08670634
56	0xbe5e7c10	-0.21727014
57	0xbf6c3099	-0.92261654
58	0xba96dbb8	-0.0011509573
59	0xbf42a1f5	-0.76028377
60	0x3ec7040d	0.38870278
61	0x3f77c352	0.9678241
62	0x3eb229a4	0.34797394
63	0xbeac6ec1	-0.3367825
64	0x3e7b1149	0.24518313
65	0xbeaf554c	-0.34244764
66	0xbeff8f8c	-0.49914205
67	0xbe09aa29	-0.13443817
68	0x3e93a6a6	0.2883808
69	0x3e807348	0.25087953
70	0xba1fb02f	-0.0006091622
71	0x3e99cbd9	0.30038336
72	0xbf982c3e	-1.1888502
73	0xc02345ee	-2.5511432
74	0xbba94906	-0.005166176
75	0xb8081a88	-3.2449636e-05
76	0x3e3e9aa1	0.18613674
77	0x3f2e00c5	0.67969924
78	0xbf1f1824	-0.6214621
79	0xbec7ffa5	-0.3906223
80	0xbea9892a	-0.3311246
81	0xc002f960	-2.0464706
82	0x3fa96cb1	1.3236295
83	0xbf28dc28	-0.6596093
84	0xbf2f80b2	-0.6855575
85	0x3fad9729	1.3561755
86	0xbe821bc3	-0.25411806
87	0x3e7395fa	0.2378768
88	0xbac7699a	-0.0015213967
89	0x3e7165b3	0.23573951
90	0x3f3245b8	0.6963763
91	0x3e71d26a	0.23615423
92	0x3eefe404	0.4685365
93	0x3e6a5509	0.22884001
94	0xbf3ce660	-0.73789024
95	0x3e716350	0.23573041
96	0xbe38b3d0	-0.18037343
97	0x3f8d32cf	1.103113
98	0x3e3ed8f5	0.1863745
99	0x3f7eb2f3	0.99491805
