scripts/distance/100-100/250k_nn_ssm_distance.pt (torch, 50943 bytes, 5 tensors)

weight f4 [100, 15]
-0.36309752 -0.49704707 -0.1391131 -0.008071964 -0.08861735 -0.05450544 -0.036308892 -0.13546711
-0.050485536 -0.0926791 -0.02113027 0.02231156 0.42327628 -1.204648 1.3585991 -0.25269458
0.048791666 0.15853827 0.35454968 -0.38797608 -0.18059511 0.00020326847 -0.24890591 -0.013012377
0.6043775 -0.20134124 -0.18675946 0.10157623 -1.3807498 -0.039312366 0.53389865 0.5589844
0.49784803 -0.26301736 0.027355114 0.084245466 -0.3161212 -0.09255526 0.20506623 -0.25099546
0.15586671 -0.02122217 0.9070324 -0.9914371 0.22192457 -0.20852561 -0.035669714 0.034502722
0.25508887 0.23720875 0.21108904 -0.0101631675 0.7757827 0.9734916 -0.09360926 0.7777665
0.4798498 -0.20492858 -0.7316643 -0.24409094 -1.7533296 0.6639389 0.23751047 -0.54025394
-0.057246678 -0.07259663 1.5338489 -2.2117338 -1.2776144 0.66859424 -0.6182018 -0.1289346
0.21969967 -1.6489267 0.07412554 -4.36481 1.1479535 0.6932039 -0.7656885 0.35309896
0.15070108 4.5362115 -0.85668814 -0.53105044 0.85041577 -0.29607722 -0.09882155 -0.04357956
0.078609355 0.0132406 -0.1197213 0.14696765 0.45533702 -0.019124703 0.7162699 0.9685444
0.06632944 0.17096893 0.06253959 -0.077320956 0.5988052 0.7967243 0.027568882 -0.64555675
0.1923523 0.10607853 1.1990921 0.8847226 0.37502936 0.12736903 -0.021118985 -0.13261555
0.39416263 0.3489418 0.395407 -0.08643226 -0.060607664 0.13381265 1.4204578 0.0060757627
0.009471554 -0.15144706 -0.12348756 -0.64490956 -1.051317 -0.43788648 0.09750091 0.08700137
0.23318808 -0.38596275 -0.38156763 -0.1822685 -0.08996417 -0.43319488 -0.065767564 0.3105488
-0.49603906 0.09339368 -0.06554746 0.09873682 0.008276589 0.7002518 -0.81403494 -0.017064981
0.030002547 -0.064391136 0.0059790136 -0.7166042 -0.015900018 -0.17414089 0.15460615 0.21533209
0.3756878 0.0889009 0.31102347 0.06618791 0.6844902 0.07354428 0.019345324 0.17251809
-0.047625557 0.021240879 1.4854597 -0.4557305 -0.32435134 0.01695995 -0.18779154 0.09480841
-0.3995755 0.25628495 0.14113903 -0.52216095 -0.17150104 0.014517024 0.009195611 0.24541827
0.13035539 -0.9339523 -1.7369558 -0.23427504 0.6793573 -1.3954663 -0.9669381 0.24197133
-0.3259827 -0.021875711 0.2894359 -0.6055523 -0.38989168 0.1477806 0.069085464 0.024420416
-0.9930457 -2.184443 -0.3690693 0.05644258 -0.16788101 -0.059383538 -0.0074574915 -1.0333679
-0.4036963 0.03254139 0.20632769 0.3002889 0.095493756 -0.6336951 -0.21896233 -0.034488585
-0.4760538 -0.0071724975 -1.0704614 0.128897 0.23072977 -0.52985746 0.049423136 -0.0033365875
-0.5477914 0.09011231 -0.07172035 -0.64058965 0.0100280335 -0.031986993 0.65749264 0.14137046
-0.7924727 0.3085133 -0.3237011 -0.1624919 0.060197067 -0.06148596 -0.015171906 0.39219287
0.32758364 0.19006206 -0.019149538 0.0907087 0.0042815367 0.486832 -0.6657836 -0.9768485
0.6029839 0.703261 -0.21257117 -0.036849774 -0.06495544 0.028425602 -0.26475585 0.70846176
0.10610469 -0.04225126 0.05396999 -0.031123688 0.71218836 -0.49322218 0.06907436 1.9657941
00000000: ebe7 b9be f47c febe aa73 0ebe 4540 04bc
00000010: 037d b5bd 1941 5fbd a2b8 14bd e4b7 0abe
00000020: ecc9 4ebd 8ace bdbd 6319 adbc bcc6 b63c
00000030: abb7 d83e e831 9abf 93e6 ad3f 2f61 81be
00000040: c5d9 473d db57 223e 8987 b53e cda4 c6be
00000050: eded 38be 7724 5539 31e1 7ebe dd31 55bc
00000060: 7cb8 1a3f 662c 4ebe df3d 3fbe 3307 d03d
00000070: 69bc b0bf 0106 21bd 95ad 083f 9a19 0f3f
00000080: f0e5 fe3e 36aa 86be d517 e03c e388 ac3d
00000090: a3da a1be 9d8d bdbd e2fc 513e 7a82 80be
000000a0: 869b 1f3e 1eda adbc 4633 683f d2ce 7dbf
000000b0: 3240 633e bd87 55be 681a 12bd ba52 0d3d
000000c0: 029b 823e dae6 723e ba27 583e 6a83 26bc
000000d0: b299 463f bf36 793f 36b6 bfbd b51b 473f
000000e0: dfae f53e ccd8 51be 5a4e 3bbf faf2 79be
000000f0: 1b6d e0bf e6f7 293f f235 733e 154e 0abf
00000100: 7e7b 6abd 8bad 94bd 2955 c43f 0c8d 0dc0
00000110: de88 a3bf fe28 2b3f 7942 1ebf 6f07 04be
00000120: f3f8 603e 0810 d3bf 22cf 973d 86ac 8bc0
00000130: 24f0 923f d075 313f 2904 44bf 63c9 b43e
00000140: 6251 1a3e a528 9140 ea4f 5bbf ecf2 07bf
00000150: d9b4 593f 6f97 97be f462 cabd 7b80 32bd
00000160: f1fd a03d 1aef 583c 7130 f5bd b07e 163e
00000170: ef21 e93e 69ab 9cbc 775d 373f 87f2 773f
00000180: bbd7 873d 7b12 2f3e c214 803d 735a 9ebd
00000190: 4c4b 193f 20f6 4b3f 23d8 e13c 3543 25bf
000001a0: 00f8 443e b33f d93d da7b 993f 2e7d 623f
000001b0: d903 c03e 076d 023e b901 adbc 5fcc 07be
000001c0: afcf c93e 80a8 b23e c972 ca3e 6603 b1bd
000001d0: be3f 78bd 2f06 093e 90d1 b53f 3117 c73b
000001e0: 942e 1b3c f014 1bbe 0ce7 fcbd cb18 25bf
000001f0: 8e91 86bf a832 e0be 8fae c73d c62d b23d
00000200: dbc8 6e3e e99c c5be d55c c3be 98a4 3abe
00000210: 223f b8bd b8cb ddbe 25b1 86bd 4100 9f3e
00000220: d5f8 fdbe 3045 bf3d bf3d 86bd 8836 ca3d
00000230: 889a 073c b443 333f 9864 50bf dccb 8bbc
00000240: e7c7 f53c 80df 83bd 9aeb c33b 5f73 37bf
00000250: c140 82bc fd51 32be 1351 1e3e 0480 5c3e
00000260: 275a c03e ad11 b63d 783e 9f3e 878d 873d
00000270: c03a 2f3f 629e 963d 167a 9e3c 95a8 303e
00000280: 0413 43bd 5a01 ae3c 8b23 be3f 8255 e9be
00000290: 6111 a6be 98ef 8a3c 6d4c 40be e92a c23d
000002a0: 2995 ccbe c837 833e c086 103e 57ac 05bf
000002b0: f89d 2fbe d0d8 6d3c 30a9 163c ed4e 7b3e
000002c0: e27b 053e 7f17 6fbf 9154 debf cce5 6fbe
000002d0: 5cea 2d3f a49e b2bf 4189 77bf 55c7 773e
000002e0: 34e7 a6be b134 b3bc f130 943e 7a05 1bbf
000002f0: e29f c7be cc53 173e ae7c 8d3d 530d c83c
00000300: 3e38 7ebf eacd 0bc0 a7f6 bcbe 5630 673d
00000310: 00e9 2bbe 273c 73bd f95d f4bb 6645 84bf
00000320: 48b1 cebe 1f4a 053d 9147 533e 77bf 993e
00000330: 3b92 c33d d839 22bf a937 60be e743 0dbd
00000340: 53bd f3be 4507 ebbb e104 89bf 93fd 033e
00000350: 6d44 6c3e bda4 07bf ea6f 4a3d a6aa 5abb
00000360: 0f3c 0cbf ce8c b83d 1ee2 92bd affd 23bf
00000370: 9f4c 243c cb04 03bd 7051 283f 6bc3 103e
00000380: 7edf 4abf 75f5 9d3e 27bc a5be 4764 26be
00000390: 3391 763d b4d8 7bbd 9693 78bc 81cd c83e
000003a0: 0bb9 a73e a19f 423e 7edf 9cbc 7cc5 b93d
000003b0: 224c 8c3b 0b42 f93e cb70 2abf be12 7abf
000003c0: 275d 1a3f ea08 343f 42ac 59be caef 16bd
000003d0: 5c07 85bd cfdc e83c 148e 87be c05d 353f
000003e0: 6a4d d93d a80f 2dbd a30f 5d3d 1bf7 febc
000003f0: fa51 363f 9e87 fcbe dc76 8d3d 249f fb3f

bias f4 [100]
-0.14455551 -0.04495906 0.023545016 1.6405997 0.059207514 -0.9200005 -1.3757586 0.007945571
0.3074793 -0.9024829 0.32788706 -0.09047869 0.39548284 0.08473635 -0.03055672 -1.0090936
-0.73587906 0.0068847616 1.44115 0.98935723 0.6710058 -1.6517394 0.70544285 -0.027728116
-0.69944304 -1.3195052 0.11780981 -0.37317124 -0.025055645 0.013445033 -0.47200882 1.0891632
0.9952606 -0.32372773 -0.06407206 -1.2828091 0.4122928 -0.8734502 0.015534528 2.9318576
0.036705974 -1.015384 0.59823763 -0.71575946 0.34012154 -0.6003801 -0.07244916 -0.06764847
0.31915584 -0.43204847 1.4631652 0.10083235 -0.75757307 -0.009852385 -1.0977081 -0.29395932
-0.6323472 0.72314435 -1.1295056 0.23913486 1.3001413 -0.076462045 -0.19140545 -0.32216078
-0.37078944 0.9149183 -0.18104361 -0.13297945 -0.5294477 3.148477 1.9378585 -0.785757
-0.7560007 -1.1174314 -1.6311083 -0.035754103 -0.6707166 0.5057766 -0.047233116 1.0371064
1.0100623 -0.8761034 0.14013278 1.1425658 -0.473984 -0.52851427 0.60737926 -0.27050012
-0.9144833 -0.91803557 -0.1062826 -1.4921868 1.0708332 -0.118421435 1.1647356 1.3675885
-1.0177349 0.11545681 -0.19140022 -0.19636619
00000000: 5c06 14be fe26 38bd 7ae1 c03c 2cff d13f
00000010: 9483 723d 2785 6bbf dc18 b0bf 242e 023c
00000020: ed6d 9d3e 1f09 67bf d0e0 a73e e44c b9bd
00000030: ba7c ca3e 408a ad3d 1652 fabc fb29 81bf
00000040: 9262 3cbf 9199 e13b 9a77 b83f 8446 7d3f
00000050: 09c7 2b3f 326c d3bf e797 343f 1326 e3bc
00000060: b30e 33bf 8ce5 a8bf 4546 f13d 4d10 bfbe
00000070: 7f41 cdbc 8e48 5c3c 24ab f1be b369 8b3f
00000080: 66c9 7e3f a4bf a5be 3638 83bd 1733 a4bf
00000090: 0b18 d33e 6f9a 5fbf 8884 7e3c 8ea3 3b40
000000a0: 0159 163d 1af8 81bf 1a26 193f 033c 37bf
000000b0: 6924 ae3e 83b2 19bf 3a60 94bd 488b 8abd
000000c0: 6568 a33e 7535 ddbe ff48 bb3f 3181 ce3d
000000d0: 4ff0 41bf e66b 21bc b381 8cbf d681 96be
000000e0: 82e1 21bf fd1f 393f a493 90bf c5df 743e
000000f0: 086b a63f 2298 9cbd caff 43be 42f2 a4be
00000100: 1dd8 bdbe 1638 6a3f 7f63 39be c42b 08be
00000110: e289 07bf a680 4940 bf0b f83f 5f27 49bf
00000120: 4389 41bf fe07 8fbf 28c8 d0bf e572 12bd
00000130: 15b4 2bbf 937a 013f 8377 41bd e7bf 843f
00000140: b949 813f 5048 60bf f87e 0f3e 993f 923f
00000150: 08ae f2be b64c 07bf 357d 1b3f fe7e 8abe
00000160: 941b 6abf 6104 6bbf b1aa d9bd faff bebf
00000170: 1011 893f f086 f2bd 0e16 953f 240d af3f
00000180: 2345 82bf 9f74 ec3d 6bfe 43be 3814 49be

weight f4 [100, 100]
-0.45567244 -0.50146574 0.52563095 0.45604706 0.39589456 0.013122753 -0.080469936 0.51506746
-0.34109372 -0.28774193 -0.3007681 0.07485512 0.4887613 0.3782356 -0.23892812 -0.1484005
-0.12466204 0.6113318 0.2151816 0.22395691 -0.04048587 -0.03359387 -0.14970508 0.11491662
0.12785304 -0.48554257 0.10439959 -0.0017348875 0.32740435 -0.11935428 -0.8369348 0.032483608
-0.09673296 -0.4638496 -0.62071306 -0.87032163 0.68111867 0.1520159 0.13323648 -1.1907172
0.0006654205 -0.093826026 1.2974695 0.21307519 0.566415 0.14939587 -0.43687224 0.6360882
0.18452854 0.045056205 0.5040423 0.27812883 -0.35429615 0.93908197 0.03243265 -0.7246614
-0.16048293 -0.13541299 -0.2746182 -0.48444915 -0.20044912 -0.09326546 -0.34649011 0.34473443
0.11554673 0.13048227 -0.63293177 0.7823189 -0.5476006 -0.78644425 0.13013503 0.31702307
-0.07581279 0.10219596 0.5178369 0.5126424 -1.2237394 0.41736096 -0.21137883 0.6976121
0.05309381 -0.92309326 0.7011814 0.09782263 -0.3172516 -0.07265958 -0.40956607 -0.37402886
-0.37732416 -0.1480115 0.2086139 -0.065582655 -1.2146367 -0.09191124 -0.47687274 0.6510895
-0.4971986 0.33652592 -0.08084771 -0.19777675 -0.05670183 0.61546725 -0.7860489 0.8106666
0.24237154 -0.7497842 -0.34674874 0.15618595 1.0429031 -0.09144197 -0.8152258 0.70089847
0.10289923 0.3812914 -1.0778731 -0.53639436 -0.23541826 -2.3632102 -0.22233585 0.07693388
0.10654998 -0.232495 0.3574334 -0.5677427 0.08041827 0.5750622 0.6409849 -0.2568341
-0.24458836 0.67247784 0.22246985 0.6004644 -2.126366 -2.8244169 -0.5745541 0.2467344
-0.5224311 -0.72356033 0.0039590052 -2.7581336 -0.9702755 -0.3229686 -0.2810791 0.5410938
0.46546707 0.073556155 -0.7524629 -1.248062 0.17300396 -0.1250677 -0.105435774 1.2297114
-1.536494 -0.3621105 0.032386463 0.01310074 -0.36968166 -0.63319457 -0.92584765 0.26101834
0.7036883 1.1211319 0.25038534 -1.2785993 0.61182153 0.12121283 0.72290474 0.5366196
0.23783472 -2.1960952 -0.11078224 0.01607587 -0.5563669 0.4995956 0.13541667 0.03462218
-0.41005072 0.7076685 -0.24944544 1.0963265 1.3576113 0.7566474 0.21964277 0.6001105
0.23542653 0.22188152 1.7460074 -0.122582525 0.7691606 -0.66976845 -0.68030185 -0.095715165
-0.099236205 1.320972 -0.84462535 0.20810029 0.6321216 0.2775299 -0.51543 -0.50921565
0.46063948 -1.2370079 -0.8314062 0.83064175 0.13444102 1.1546005 -0.5455658 0.44048685
0.31888866 -1.1150066 -0.47135362 -0.27747178 -0.19891497 1.0939014 1.1099163 -0.5462201
0.073876835 0.18450052 0.0891842 -0.03116356 2.177217 0.2346476 0.26075587 -0.023328947
-0.5373612 -1.7120388 1.0002745 -0.3192204 0.38613135 -0.94224906 -1.0576435 -0.3487208
0.8912555 0.31771514 -0.05038123 -0.49117148 1.1993588 -1.0917599 1.1147783 0.7149118
0.29329073 -0.76930606 0.33211267 1.0565553 0.40842444 0.08718041 0.57854277 0.98389745
-0.6532517 0.4822432 0.39515886 -0.086921506 -0.48227036 1.7786767 -1.0939714 0.31219766
00000000: e64d e9be 0f60 00bf c08f 063f 007f e93e
00000010: b1b2 ca3e d100 573c 6ccd a4bd 76db 033f
00000020: d6a3 aebe e952 93be 47fe 99be a44d 993d
00000030: ec3e fa3e 19a8 c13e 93a9 74be 4df6 17be
00000040: d04e ffbd 3e80 1c3f 9158 5c3e f654 653e
00000050: 83d4 25bd ba99 09bd 4a4c 19be 6859 eb3d
00000060: e8eb 023e 0999 f8be 74cf d53d 2a65 e3ba
00000070: 8ba1 a73e 0470 f4bd 5c41 56bf 880d 053d
00000080: ee1b c6bd b27d edbe 0de7 1ebf 66cd 5ebf
00000090: cb5d 2e3f 0eaa 1b3e 256f 083e 6c69 98bf
000000a0: 9d6f 2e3a dc27 c0bd 7b13 a63f 6230 5a3e
000000b0: 9300 113f 3bfb 183e b8ad dfbe add6 223f
000000c0: 0df5 3c3e db8c 383d eb08 013f e766 8e3e
000000d0: 4e66 b5be ad67 703f 19d8 043d 6983 39bf
000000e0: a355 24be b4a9 0abe c29a 8cbe b809 f8be
000000f0: 8942 4dbe f601 bfbd 2767 b1be 0881 b03e
00000100: c4a3 ec3d 259d 053e d107 22bf 0d46 483f
00000110: 8e2f 0cbf 6954 49bf 1e42 053e d950 a23e
00000120: bc43 9bbd 1e4c d13d f690 043f 883c 033f
00000130: 7ea3 9cbf 56b0 d53e b173 58be b596 323f
00000140: e578 593d d74f 6cbf a080 333f 3b57 c83d
00000150: cd6e a2be 8cce 94bd a5b2 d1be b680 bfbe
00000160: a230 c1be 5490 17be e29e 553e 3350 86bd
00000170: 3779 9bbf f63b bcbd aa28 f4be cdad 263f
00000180: d190 febe 204d ac3e 7c93 a5bd fd85 4abe
00000190: 2e40 68bd 438f 1d3f 803a 49bf d987 4f3f
000001a0: 3f30 783e dbf1 3fbf 0d89 b1be 36ef 1f3e
000001b0: d97d 853f ed45 bbbd a3b2 50bf 156e 333f
000001c0: d5bc d23d a038 c33e bff7 89bf 2451 09bf
000001d0: 7c11 71be d63e 17c0 02ac 63be 838f 9d3d
000001e0: e036 da3d 2b13 6ebe 8301 b73e 9657 11bf
000001f0: 55b2 a43d 4737 133f 9617 243f c27f 83be
00000200: 5f75 7abe 8227 2c3f 23cf 633e 09b8 193f
00000210: 6116 08c0 3fc3 34c0 fa15 13bf f1a7 7c3e
00000220: 0bbe 05bf 403b 39bf 8bba 813b 4385 30c0
00000230: fa63 78bf 245c a5be 9ae9 8fbe 2085 0a3f
00000240: b351 ee3e 9ca4 963d 69a1 40bf 7fc0 9fbf
00000250: f327 313e bf11 00be b6ee d7bd 2f67 9d3f
00000260: d6ab c4bf 8c66 b9be aba7 043d 7ca4 563c
00000270: ea46 bdbe 0a19 22bf 5a04 6dbf 32a4 853e
00000280: eb24 343f 4081 8f3f 8232 803e 24a9 a3bf
00000290: 56a0 1c3f 6f3e f83d 4910 393f e75f 093f
000002a0: f28a 733e d38c 0cc0 cde1 e2bd 8bb1 833c
000002b0: 106e 0ebf ffca ff3e abaa 0a3e fdcf 0d3d
000002c0: 2bf2 d1be c329 353f a06e 7fbe 6d54 8c3f
000002d0: 35c6 ad3f a5b3 413f 09ea 603e d7a0 193f
000002e0: a713 713e e934 633e 2c7d df3f 8c0c fbbd
000002f0: b6e7 443f f275 2bbf 4328 2ebf 5006 c4bd
00000300: 5a3c cbbd 9c15 a93f 5e39 58bf 3e18 553e
00000310: b9d2 213f 6618 8e3e 38f3 03bf f55b 02bf
00000320: f0d8 eb3e 4656 9ebf 09d7 54bf f0a4 543f
00000330: e8aa 093e f3c9 933f 33aa 0bbf 7e87 e13e
00000340: 6045 a33e 89b8 8ebf 4355 f1be c810 8ebe
00000350: 5eb0 4bbe f604 8c3f bd11 8e3f 15d5 0bbf
00000360: bd4c 973d b4ed 3c3e 35a6 b63d b94a ffbc
00000370: 8657 0b40 7647 703e cb81 853e 591c bfbc
00000380: 8190 09bf 1624 dbbf ff08 803f db70 a3be
00000390: 02b3 c53e 3c37 71bf dd60 87bf 888b b2be
000003a0: 5229 643f 8fab a23e 8c5c 4ebd d47a fbbe
000003b0: 9784 993f cabe 8bbf 0eb1 8e3f 7604 373f
000003c0: 342a 963e 3ef1 44bf ac0a aa3e 343d 873f
000003d0: 021d d13e a58b b23d 611b 143f b4e0 7b3f
000003e0: 813b 27bf 95e8 f63e 4352 ca3e e703 b2bd
000003f0: 24ec f6be aeab e33f 4107 8cbf 5fd8 9f3e

bias f4 [100]
-1.4361706 -3.6489606 1.5107915 -0.4405485 0.70181376 1.6332443 0.10976879 0.67366177
0.25927043 -0.7133908 1.3867539 0.5148761 0.7862609 0.11933197 -0.5104833 -0.051910616
0.013502668 -1.2123139 -0.07499647 -1.3588299 -0.70855725 -0.738717 1.3699303 -0.5167174
1.69657 -0.15608002 0.5199004 -1.3291715 -0.012748641 1.2521315 1.0701888 2.987302
-1.0548849 -0.044958156 -0.7453742 -0.021677634 -0.11507218 -3.1990156 0.24648234 -1.5578504
0.31547493 0.3510513 1.3847833 -0.7532449 3.687776 0.5986598 -0.25194454 -0.6328582
0.44778532 1.327334 1.0810875 2.1858788 -1.2952343 1.1770426 0.10558864 -0.058399685
0.014098739 1.9201043 -0.16444193 -1.0065365 -2.5223632 0.11331962 0.28249148 -0.96083575
-0.97196573 0.5643684 -0.3366957 0.5014621 0.9883218 1.1969032 1.910779 -3.0698783
1.8491793 0.15032475 -0.8787699 2.6927435 -0.0041879835 0.88369995 1.4511 3.6840105
0.014231772 0.045404736 1.0654373 1.3258661 2.5096624 -1.4724816 -0.34905672 0.5432872
-0.0022439982 -0.2805279 -2.79105 -1.7508428 0.8070582 -0.29508924 0.38138 0.8295476
0.5339917 1.1327853 -1.2348928 0.32989687
00000000: 70d4 b7bf 9288 69c0 9e61 c13f 938f e1be
00000010: 11aa 333f 260e d13f 76ce e03d 1975 2c3f
00000020: 18bf 843e c8a0 36bf 2781 b13f ecce 033f
00000030: 6548 493f 5264 f43d 09af 02bf 3aa0 54bd
00000040: 4b3a 5d3c 1a2d 9bbf c097 99bd 23ee adbf
00000050: 0264 35bf 8f1c 3dbf e059 af3f 9747 04bf
00000060: 3529 d93f 71d3 1fbe 3118 053f 4b22 aabf
00000070: addf 50bc d845 a03f f2fb 883f f52f 3f40
00000080: 7806 87bf 0b26 38bd d8d0 3ebf 4b95 b1bc
00000090: f7aa ebbd acbc 4cc0 de65 7c3e a467 c7bf
000000a0: ee85 a13e ffbc b33e 9440 b13f a8d4 40bf
000000b0: 8604 6c40 c541 193f e0fe 80be ff02 22bf
000000c0: 1e44 e53e 15e6 a93f 1361 8a3f 70e5 0b40
000000d0: 3dca a5bf 55a9 963f db3e d83d 8234 6fbd
000000e0: 66fe 663c fac5 f53f 7763 28be 30d6 80bf
000000f0: 666e 21c0 1e14 e83d b9a2 903e 55f9 75bf
00000100: bfd2 78bf 737a 103f 6163 acbe d25f 003f
00000110: a802 7d3f 2034 993f 6894 f43f e378 44c0
00000120: e8b1 ec3f bbee 193e 10f7 60bf e955 2c40
00000130: 5a3b 89bb 293a 623f a5bd b93f d4c6 6b40
00000140: 612c 693c 51fa 393d 4060 883f fbb5 a93f
00000150: 4f9e 2040 477a bcbf 90b7 b2be df14 0b3f
00000160: 0b10 13bb 5aa1 8fbe 90a0 32c0 9e1b e0bf
00000170: 5e9b 4e3f f015 97be 3d44 c33e 3b5d 543f
00000180: aeb3 083f 1cff 903f f810 9ebf 3ee8 a83e

weight f4 [1, 100]
-0.1569217 -0.19905141 0.29934067 -0.2722213 -0.16135998 0.16295414 0.1734396 0.09890564
0.22424388 -0.025877336 0.33222264 0.15002948 0.14313926 1.346695 -0.32333085 -0.0006130593
0.0024706782 -0.21089938 0.0019373606 -0.25897926 -0.21983404 -0.13439016 0.053503998 -0.19259892
0.28640532 0.19863665 0.16562839 -0.09846852 0.0022965726 0.232369 0.26037616 0.28630114
-0.4560904 -0.00086215 -0.095014274 0.0042057587 -0.095689446 -0.26534197 -1.6014513 -0.46026233
0.24043767 -1.7649252 0.05415749 0.18594043 0.22644664 0.38142455 -0.20818889 -0.18435958
0.1485513 0.19857028 0.19654459 0.3585131 -0.19508682 0.20276101 0.0029384138 0.0010549299
0.0005848725 0.07605073 -0.26408145 -0.05816938 -0.3415178 1.4489996 0.22251862 0.17527118
-0.06012324 0.17363268 -0.12099028 0.22741638 0.51916033 0.54969853 0.1930714 -0.25328973
0.29504663 0.43937135 -0.1705246 0.14396851 -0.084726796 -0.102792814 0.33002788 0.23459819
-0.15834185 0.0019033519 0.39538318 0.2132983 0.12112919 -0.09677372 0.088232815 0.37178496
-0.0028002379 0.19053935 -0.10833657 -0.12070442 0.06472414 -0.094184935 0.11324932 0.12035719
0.21086884 0.079984635 -0.26073617 0.14238492
00000000: 15b0 20be 22d4 4bbe 2e43 993e 9760 8bbe
00000010: 8d3b 25be 73dd 263e 279a 313e 0a8f ca3d
00000020: 30a0 653e b5fc d3bc 1619 aa3e 54a1 193e
00000030: 1993 123e 8060 ac3f 9f8b a5be b7b5 20ba
00000040: 1aeb 213b 02f6 57be 09ef fd3a ee98 84be
00000050: 2d1c 61be 939d 09be 0227 5b3d a738 45be
00000060: b8a3 923e 6867 4b3e 7d9a 293e dda9 c9bd
00000070: 1882 163b 24f2 6d3e 0650 853e 1096 923e
00000080: ae84 e9be e801 62ba d896 c2bd 76d0 893b
00000090: d4f8 c3bd e7da 87be 5bfc ccbf 81a7 ebbe
000000a0: 4b35 763e 12e9 e1bf 3fd4 5d3d 2b67 3e3e
000000b0: a1e1 673e 144a c33e 782f 55be c2c8 3cbe
000000c0: d51d 183e 0256 4b3e fc42 493e 078f b73e
000000d0: d7c4 47be 95a0 4f3e 6792 403b 9345 8a3a
000000e0: 2152 193a 7cc0 9b3d af35 87be 0443 6ebd
000000f0: 6cdb aebe d278 b93f ecdb 633e 4a7a 333e
00000100: c943 76bd c4cc 313e c0c9 f7bd d7df 683e
00000110: b1e7 043f 0bb9 0c3f 82b4 453e 31af 81be
00000120: 5a10 973e 48f5 e03e 009e 2ebe 7b6c 133e
00000130: 3e85 adbd 0a85 d2bd 6af9 a83e 823a 703e
00000140: 5e24 22be e479 f93a aa6f ca3e df6a 5a3e
00000150: 9512 f83d 4d31 c6bd 68b3 b43d 995a be3e
00000160: 3284 37bb bf1c 433e 90df ddbd e133 f7bd
00000170: 178e 843d 08e4 c0bd 42ef e73d d57d f63d
00000180: 00ee 573e fcce a33d 367f 85be 5acd 113e
