scripts/distance/200-200/nn_ssm_distance.pt (torch, 178071 bytes, 5 tensors)

weight f4 [200, 15]
000000 ad a7 8f be f4 0c ab bf 22 3d 73 bf 59 1e 1c bf
       -0.28057614 -1.3363328 -0.95015156 -0.60983807
000010 c6 9f 16 bd 66 9d 89 3d ca a6 c6 3d 33 7b a0 be
       -0.036773466 0.067194745 0.09699781 -0.31343994
000020 13 89 b8 be bf d2 f4 be 13 1e de 3d de c3 55 3d
       -0.3604208 -0.47817037 0.1084558 0.052188747
000030 18 7a 0b 3d 0a f2 a3 bf 6a cc eb 3d 0a f5 04 3d
       0.034051985 -1.280824 0.11513598 0.03246025
000040 df 30 38 3e 9d b2 5b 3d a5 bb 3f bb 68 44 7b 3f
       0.17987393 0.053637136 -0.0029256132 0.98151255
000050 a4 bc 34 3f d6 30 23 3d d9 52 89 be 86 4a c4 be
       0.7060034 0.039841495 -0.2682102 -0.38338107
000060 95 f8 59 bd c9 7e 16 3f 4f 60 ea 3e 32 a1 6c bd
       -0.053215582 0.5878721 0.45776603 -0.057770915
000070 2b f3 1d 3f f3 5e c9 bc 2b 8c 0e 3c 94 a8 6e 3b
       0.6169917 -0.024581408 0.008700411 0.0036416398
000080 cc ff 17 bb 4d 4d 8b 3b ac 97 1b ba 6c 36 52 3c
       -0.0023193238 0.0042511583 -0.00059353816 0.012830358
000090 93 c2 fd 3b 0f 37 f8 bb 2c 11 95 bb 0b 81 a0 bb
       0.0077441423 -0.007574923 -0.004549166 -0.0048981956
0000a0 4e a7 dd bb f5 ae 5b 3c 95 66 9a ba a3 59 ae bb
       -0.006764329 0.013408412 -0.0011779839 -0.005320744
0000b0 2e 7b c7 3b 4c ce df bd e6 e0 8d bc e3 49 6f bd
       0.006087682 -0.1092802 -0.017319154 -0.058420073
0000c0 62 a5 7f 3e b3 df 8c bf 05 4a 7b be 70 de 26 3c
       0.24965432 -1.1005768 -0.24539955 0.010184869
0000d0 7a 7e 4e 3d 77 7b 9c 3e f3 2b 93 bc 7d 05 ce be
       0.050413586 0.30562946 -0.017965293 -0.40238562
0000e0 4c ba bd bd e1 38 88 bd b2 d1 d8 be f2 76 17 3b
       -0.09264049 -0.06651474 -0.42347485 0.0023111668
0000f0 32 00 f9 bd 38 a2 30 bf ee 01 01 bf 68 93 1b 3f
       -0.121582404 -0.68997526 -0.5039357 0.607718
000100 70 d9 5c 3e 1f e7 82 3d f4 a1 43 3d 21 0e 68 be
       0.21567321 0.06391739 0.047761872 -0.2266164
000110 4b c6 92 be df 6e 11 3f 90 cf 22 3f 6e bc 88 3e
       -0.2866691 0.568098 0.63597965 0.2670626
000120 46 3c 1f 3e 48 91 09 bf 9b ac f2 3c 40 8f a7 be
       0.15550336 -0.53737307 0.02962332 -0.3272648
000130 ce 0e 04 3e b3 ed 6a 3d 2b 5c 99 bd 42 e3 dc bc
       0.12896273 0.057355594 -0.07488283 -0.026963834
000140 64 87 22 be 75 a3 51 be f0 b6 8e bf 03 50 49 bf
       -0.1587196 -0.2047251 -1.1149578 -0.78637713
000150 d8 7a 98 bc 38 c6 4e bf b0 af 01 bf 24 06 42 bf
       -0.018613264 -0.8077121 -0.506587 -0.7579062
000160 b7 21 7e bf 3e d4 55 3d 6f 72 92 3e a6 6a 4f 3f
       -0.99270195 0.052204363 0.2860293 0.8102211
000170 c8 f1 fa 3e 2a 8e 5b 3d e7 5a 35 bd ac 82 ca 3c
       0.4901259 0.053602375 -0.044276144 0.024720512
000180 24 79 a6 be b1 96 4a 3e 71 d7 93 bd b4 ff ac be
       -0.32514298 0.19784047 -0.072188266 -0.33788836
000190 9a 0c 27 3d 3f 3c c5 3c 9c 76 21 3f a1 4b 1a bf
       0.040783502 0.02407658 0.6307161 -0.6027165
0001a0 93 61 d3 3d b6 65 8b 3e fb 59 39 3f e8 79 ca 3e
       0.10321345 0.27226037 0.72402924 0.39546132
0001b0 14 c1 0f be 92 73 0c 3f 7e 27 ff 3e 06 41 9e 3e
       -0.14038497 0.54863846 0.49834818 0.30908984
0001c0 22 94 1f be 0c 0e c8 3c e5 ad 6e be 52 8b af 3e
       -0.15583852 0.02442076 -0.23308523 0.3428598
0001d0 b6 2e 10 3f ef 05 77 be fd c8 43 3f 33 b8 35 3d
       0.56321275 -0.24123357 0.7647856 0.04436512
0001e0 d9 84 d5 3d 66 a8 81 bd 6b b0 5c 3e 6a 65 76 3f
       0.10425729 -0.063309476 0.21551673 0.96248496
0001f0 82 2c 15 bf 21 3f 49 be 4a 99 e7 bc 23 9d 64 3d
       -0.5827104 -0.19652988 -0.028271336 0.05581392
000200 3c 7c 94 bd 78 59 8c bf 6f d1 50 3f 99 8e 72 3e
       -0.07250258 -1.0964804 0.8156957 0.23687209
000210 93 49 5e bd 85 5f 99 3d 38 03 75 bc 56 76 2c bc
       -0.054269385 0.07488922 -0.014954381 -0.01052626
000220 2f 4f a4 be 75 d8 b9 bd 67 57 8c be 26 d7 fd be
       -0.32091662 -0.09074489 -0.27410433 -0.49578208
000230 11 18 bb bd b3 37 e5 3d 4e 84 7a bd a8 a7 22 3e
       -0.0913545 0.111922644 -0.06116133 0.15884268
000240 31 af 84 3d 69 a5 34 3e 45 0c 93 3d ad cb e0 be
       0.064787276 0.17641224 0.071800746 -0.43905392
000250 39 25 0b 3f 06 e5 40 3e 33 92 b2 bf 1d eb f7 bf
       0.5435367 0.18837366 -1.3950866 -1.9368626
000260 15 8e a2 3e bf b9 84 ba 20 4b 6e 3e 34 1f d4 3d
       0.31749025 -0.0010126157 0.23270845 0.10357514
000270 88 64 b7 3f 81 2f de 3f 6b 33 18 bf c9 87 82 bd
       1.4327555 1.7358247 -0.5945346 -0.06373555
000280 ed 48 9f be 5f 60 d5 bd a7 bb c1 3e cd ba f1 be
       -0.31110325 -0.10418772 0.3783848 -0.4721283
000290 36 6f 45 bd d5 a6 6a 3f ba 9b 01 3f 0a 07 24 3f
       -0.048201762 0.91660815 0.50628245 0.6407324
0002a0 38 f6 0c 3c 0a 4b aa 3e 99 c5 08 3e 7f 4b 85 3e
       0.008603625 0.33260375 0.13356628 0.2603416
0002b0 b1 4f d6 3e e5 aa fb 3e 94 43 20 be a6 08 f9 3d
       0.41857675 0.4915382 -0.15650779 0.12159853
0002c0 ab 79 15 bd 37 ae 34 bf 7a 82 0d bf 76 16 d0 be
       -0.036492985 -0.7057833 -0.55277216 -0.40642136
0002d0 41 82 83 be f8 a2 8a bf 77 61 a5 bf 61 da c7 bd
       -0.25685313 -1.0830984 -1.2920369 -0.09758449
0002e0 d5 ba 98 bf b5 e3 0c bf ea e4 03 be 1e b0 23 3d
       -1.1932017 -0.55034953 -0.12880293 0.03996288
0002f0 6c a6 c0 bd 27 cb 45 be 0f 08 90 be 38 d2 df bd
       -0.094067425 -0.19315778 -0.28131148 -0.10928768
000300 65 11 9e bf 77 2e 88 3f 77 ee 07 bf 05 5b 4b 3f
       -1.2349058 1.063918 -0.53098243 0.7943576
000310 95 56 08 3f d4 a7 1a 3f 63 00 79 3e 21 da 31 3e
       0.53257114 0.60412335 0.24316554 0.17368366
000320 97 8c d4 3d 13 2e 44 3f 82 c0 89 3f 6c 0f 3b 3f
       0.10378378 0.76632804 1.0761874 0.73070407
000330 ff 2b eb bd 85 96 68 3d 97 70 b0 bd ca 6c 61 bf
       -0.11483001 0.05678417 -0.08615225 -0.88056624
000340 dd fc 2c 3f ee 76 56 be 60 de 49 3c e5 5b 06 3b
       0.6757334 -0.20943806 0.012321085 0.002050155
000350 26 df 11 3f 9d 72 d3 be 73 c5 1a bf 88 bb c3 bd
       0.5698112 -0.4129838 -0.60457534 -0.09557253
000360 44 0e 13 bd e8 78 cc bc 6f 37 2d bf 45 29 13 3f
       -0.035902277 -0.024959996 -0.6766271 0.5748485
000370 6a 78 32 3f f5 4d 05 3e f5 65 0c bd 9c c1 07 bd
       0.6971499 0.1301802 -0.03427692 -0.033143625
000380 ea 11 48 3d 48 85 65 bf 02 37 be be 50 da 15 bf
       0.04884521 -0.89656496 -0.37151343 -0.58536243
000390 ea d4 f2 3d 34 8a 6f be 5b 46 f6 bb a9 7f c2 be
       0.118570164 -0.23392564 -0.0075157112 -0.37988022
0003a0 b5 8e 19 bf db 22 06 bf a2 94 ad bd f7 31 a1 be
       -0.5998338 -0.52396935 -0.08475615 -0.31483433
0003b0 58 18 28 be 4e 07 7a 3f 2d 21 15 3f 8b 03 de be
       -0.16415536 0.97667396 0.5825375 -0.43362078
0003c0 22 86 c3 be e9 9e d5 3f c0 c5 98 3f d9 eb 89 bd
       -0.38188273 1.668912 1.1935349 -0.067344375
0003d0 b7 28 d5 3e 23 d8 9f 3d b5 49 28 be 9c 08 67 3e
       0.41632625 0.07804897 -0.16434367 0.22561878
0003e0 e0 37 40 3e 4d df 27 bd 1f dc 34 3e 3b 59 b9 3c
       0.18771315 -0.04098444 0.17662095 0.022625556
0003f0 53 86 5f 3f e3 33 da 3f e0 8c 59 bf 02 f6 a8 ba
       0.8731434 1.7047085 -0.84980583 -0.0012890699

bias f4 [200]
000000 bd 8c 68 be c4 7a 67 bd 2c fc 02 3b c8 27 0c bf
       -0.22709937 -0.056513563 0.0019986732 -0.547482
000010 b4 19 e6 3a 1b c0 2b be d9 9c 29 be 5f ce 1e 3f
       0.0017555268 -0.16772501 -0.16563739 0.6203365
000020 ec 9d f7 3c 93 10 a4 3e aa a9 95 bd 4c 1e 0f bf
       0.03022667 0.32043895 -0.073077515 -0.55905604
000030 0f 57 f8 3f 1c 86 95 be 2d 1b 2e bb 99 76 39 bf
       1.9401568 -0.2920388 -0.002656649 -0.7244659
000040 46 f4 81 bc e3 70 24 39 42 90 9d 3a c7 9a 8a 3d
       -0.015863549 0.00015682312 0.0012021142 0.06767803
000050 ec 9a 13 3d ef 74 47 c0 8d 0f f3 bd 45 7b 68 3f
       0.036036417 -3.116512 -0.118682005 0.90813094
000060 c2 08 9a be 85 14 a2 bd 1f 52 13 bf 71 7d a8 bf
       -0.30084807 -0.0791407 -0.5754718 -1.3163282
000070 9a 3d ba 3e c1 7d 86 3a f0 13 9c bf 85 34 78 bf
       0.36375123 0.0010260866 -1.2193584 -0.9695514
000080 0a 68 84 3f 4c 2a 06 bf 3b 79 a5 3e a0 b6 39 bf
       1.034425 -0.5240829 0.32319054 -0.7254429
000090 a0 2e 5a 3d 19 c9 4d bf 85 0d 18 3f fe 36 41 be
       0.05326712 -0.80384976 0.5939563 -0.18868634
0000a0 c3 4f ce 3e 63 c1 03 3f 8a 86 b3 3c 9b ea 83 bf
       0.40295228 0.5146696 0.02191474 -1.0305971
0000b0 57 a5 e9 bd 72 92 a2 bf 8d c5 58 b9 67 6e d5 3e
       -0.11408489 -1.2700942 -0.00020672959 0.41685793
0000c0 0a f5 f7 3d 81 46 9f ba 47 59 2f bd 86 da 1c 3f
       0.12107284 -0.0012151749 -0.04280975 0.6127094
0000d0 14 03 45 bf c3 4a 87 bf 13 c1 ad be fd 41 20 3f
       -0.7695782 -1.056969 -0.33936366 0.6260069
0000e0 fa 82 fd 3f 94 96 2e 3b 61 73 09 3f 2a d6 d8 be
       1.9805596 0.0026640045 0.5369168 -0.42350894
0000f0 95 b9 cd 3e 6f f7 eb 3e 5c e1 a7 3f e1 5c ad 3d
       0.4018065 0.46087214 1.3115649 0.08464981
000100 8a 19 e5 bb db a3 a5 be 29 d9 05 3f 1a 16 d4 3d
       -0.00699157 -0.32351574 0.52284485 0.10355778
000110 94 74 9c be db 94 84 bb 87 db 4d bf dc 1c 53 be
       -0.30557692 -0.0040460653 -0.804131 -0.20616478
000120 5a 85 18 3f 6e f8 db be 7a f8 63 3f fb 25 55 3e
       0.5957848 -0.42962974 0.8905102 0.2081527
000130 fd d1 a3 3d 90 1f 94 3e fc 8e a7 bf 19 f8 40 bd
       0.079990365 0.2893033 -1.309051 -0.047111604
000140 a4 cf 66 3a e5 66 61 3e 07 b0 eb be 62 e1 98 bf
       0.00088047446 0.22011907 -0.46032736 -1.1943781
000150 71 0b 75 be 68 80 23 3f bc fa 67 3a 60 b6 99 3e
       -0.23930146 0.6386781 0.0008849313 0.30021954
000160 2c 86 6a 3f 90 de de 3e 03 45 27 be cd 06 0a bd
       0.9161098 0.43529177 -0.1633492 -0.033697892
000170 c1 e6 fa 3e 01 af eb bf 03 2b 65 bf 56 42 80 3d
       0.49004176 -1.8412782 -0.89518756 0.062626526
000180 a0 36 ea be e3 a1 6f bf 92 4c fe be 33 4e 93 bf
       -0.457448 -0.93606395 -0.49667794 -1.150824
000190 b0 fc 8f 3f 78 0c 22 38 1f ce 8b bf 0e 84 b3 3e
       1.1248989 3.8635422e-05 -1.0922278 0.35061687
0001a0 55 5c b5 bf 8a 7e f5 3e 45 df 15 be 2a 0b 87 bb
       -1.4168802 0.47948104 -0.14635952 -0.004121204
0001b0 c0 36 5c 3f ed f4 2f 3f 91 a9 da b7 57 a7 e3 3c
       0.8602104 0.687331 -2.6066586e-05 0.027789755
0001c0 cf de 5d be e8 6d ab bc 45 5c 16 3d a1 ea 8d be
       -0.21667026 -0.02092643 0.03670909 -0.2771807
0001d0 18 eb 9a 3a 4b 4c fe 3b f6 93 18 bf ad f9 9d bf
       0.0011819331 0.0077605597 -0.5960077 -1.234182
0001e0 b4 fb 8b bf ce da 8a 3f 61 12 9b bd d6 1e 7e 3f
       -1.0936189 1.0848024 -0.07571865 0.992658
0001f0 de 0f 51 bb 8a 90 80 3b c9 f4 84 bf ef 68 b5 b9
       -0.0031900327 0.0039234804 -1.0387203 -0.00034601192
000200 40 5c 38 3f 65 58 c8 3e 5c d8 a1 bf 2a 7f 53 3e
       0.7201576 0.3912994 -1.2644153 0.20653978
000210 78 6a fd bd ea 03 53 ba ce b1 e5 3f eb 03 42 c0
       -0.12373823 -0.00080495945 1.7944887 -3.0314891
000220 39 75 22 bf 3a 76 f4 bd 81 e2 91 bb 9c 9b eb ba
       -0.6346012 -0.119366124 -0.00445205 -0.0017975452
000230 a0 d4 30 3f 06 bf 79 3e 1c 6d 1e 3b 2b a9 7a bf
       0.6907444 0.24389276 0.002417392 -0.9791438
000240 86 8a d9 bf 76 2b 83 bf fa 53 83 be ef dd 53 3f
       -1.6995399 -1.0247638 -0.25650007 0.8276052
000250 20 5a 4d be b9 80 f7 be 0e e2 57 bb 72 d9 a1 3f
       -0.20053911 -0.48340395 -0.0032941136 1.2644484
000260 94 e3 fb 3e c0 70 7f 3b 90 91 86 bf dd 34 92 3f
       0.49197066 0.0038977116 -1.0513172 1.1422383
000270 b3 6c 64 3f b3 bc 89 3f 02 36 de be a3 5c 10 bb
       0.8922836 1.0760711 -0.4340058 -0.0022027872
000280 c0 e0 6a bf 8c e1 a9 be 12 4d ce 39 40 72 0a 3d
       -0.9174919 -0.3317989 0.00039348804 0.033800364
000290 b2 40 94 bf d9 63 66 3e 6c 87 22 bf 2d a5 4a bf
       -1.1582243 0.22499026 -0.6348789 -0.7915829
0002a0 6a 0d 28 bf 0e db 87 be d0 ef 29 bf cf 39 1e 3b
       -0.6564547 -0.26534313 -0.6638155 0.0024143343
0002b0 0e 2a e2 be 59 d0 7d bb 9d d7 a3 bf 5b 3d 22 bf
       -0.4417271 -0.0038728921 -1.2800175 -0.6337487
0002c0 c0 f1 07 bd 52 f2 46 bf 06 67 14 3f 61 0a 87 bf
       -0.033189535 -0.777135 0.579697 -1.0550042
0002d0 98 a9 76 3b ac d4 29 be e1 e1 6b bf 94 6c ac 3e
       0.0037637707 -0.16585034 -0.9214154 0.3367659
0002e0 4b 13 d5 3c c2 db ad be cd 99 ca 3c c7 0b 4a bf
       0.026010176 -0.33956724 0.024731541 -0.7892422
0002f0 04 14 83 3f 21 e0 7b bf 93 0f 9d 3d 2a c4 a1 bf
       1.0240483 -0.9838887 0.07668986 -1.263799
000300 36 c8 79 bf b6 18 da bd 64 b8 af ba ca 1b db 3d
       -0.9757112 -0.106492445 -0.0013406393 0.1069866
000310 ba 0b 00 3f d3 51 12 be e3 aa ee 3a 32 c6 a2 be
       0.50017893 -0.14289026 0.0018208887 -0.31791836

weight f4 [200, 200]
000000 70 a7 73 bf af 7a 64 3e f1 8d a5 bc d8 81 7c bf
       -0.95177364 0.22312425 -0.020209284 -0.98635626
000010 8a f1 26 3f 3d ab f5 3e 35 14 23 3f 1e 36 d0 bf
       0.6521231 0.47982207 0.6370271 -1.6266515
000020 dd 24 85 3d 4e 45 cd 3e 20 00 1f bf 4e 56 cd bf
       0.06501172 0.40091938 -0.62109566 -1.6041963
000030 40 d7 2d bf 7e eb c2 3e fe 64 a0 3c 2f d7 4a bf
       -0.6790657 0.3807029 0.019579407 -0.79234594
000040 6b 1d e5 be fa 8f c5 3a 12 0b 62 be ac d9 e4 3e
       -0.44749007 0.0015072816 -0.22074535 0.4469732
000050 28 0d b5 bf 89 44 de 3e c2 ba 2e bd ff 96 26 be
       -1.414464 0.43411663 -0.042658575 -0.16268538
000060 66 e7 c1 3e b4 81 2f 3f c7 aa a4 3e a6 2a 10 3f
       0.37871855 0.68557286 0.32161543 0.56315076
000070 0b bf 00 40 67 c8 a1 3a 11 ca 6e bf 53 1f cd be
       2.0116603 0.001234305 -0.9327708 -0.4006296
000080 f1 a0 89 be 99 c3 be 3d d0 3a c5 bf 12 d4 e1 3b
       -0.268806 0.09314651 -1.5408573 0.006891736
000090 b3 0e af be 18 59 02 bf 71 1f 39 3f 2e 95 8f bd
       -0.34190902 -0.50917196 0.723136 -0.07010876
0000a0 8a 46 a5 3f 85 df b1 bf a1 94 4e bf d6 dc 95 3f
       1.2912152 -1.3896338 -0.8069554 1.1708019
0000b0 30 31 60 3d 3f 6c c9 3d 85 31 98 3c d3 b1 4a 3f
       0.05473441 0.098350994 0.0185783 0.7917759
0000c0 41 54 ea 3d f1 5b 1e 3c 96 69 a2 bc 36 db 31 bd
       0.114418514 0.009665475 -0.019825738 -0.043421946
0000d0 82 aa 99 3f b6 87 32 3f f7 b2 7d bf fd b4 12 bf
       1.200516 0.6973833 -0.99101204 -0.57307416
0000e0 cd b9 41 3f c2 64 37 3b 8e 05 37 3f a0 42 2b be
       0.75674134 0.002798364 0.7149285 -0.16724634
0000f0 fc 32 b5 3d 67 f5 c6 3c 55 43 64 bf 91 00 ce bf
       0.08847615 0.024286939 -0.8916524 -1.6093923
000100 d5 f2 9f bd 6e ba 8c 3e 6a 97 59 be 90 83 fb bd
       -0.078099884 0.27485985 -0.21249166 -0.12280953
000110 1b f4 d0 be ef f0 ad bc cc ce ba 3e 84 85 8e bf
       -0.40811238 -0.02123305 0.36485898 -1.1134496
000120 cf 73 96 bd 59 62 33 3d 2b 44 a4 3f 12 9a cf 3e
       -0.073463075 0.043794964 1.2833303 0.40547234
000130 38 3e 42 bf 0b f7 ed be 1e 9e 5b be a9 02 1f be
       -0.7587619 -0.4647754 -0.21447036 -0.15528359
000140 90 fb 8c 3c 36 40 05 bf b5 81 5c be 80 14 8e 3e
       0.017209798 -0.52051103 -0.21533854 0.27750015
000150 6c a7 87 3f 34 94 d5 3d c5 b3 41 bc 63 98 ae 3e
       1.0597968 0.10428658 -0.011822646 0.34100637
000160 ed e4 55 bf 3f c9 5d be a8 61 1f bf 32 98 0d bf
       -0.8355244 -0.216588 -0.62258387 -0.55310357
000170 36 7f 9f 3f 6b 75 76 3e 52 1f 91 bd ad 52 a0 3f
       1.2460697 0.24068229 -0.07086052 1.2525231
000180 ed 68 4f 3e fc 48 81 be e2 1c 79 3e b7 29 17 3f
       0.2025487 -0.25250995 0.24327424 0.59048027
000190 c6 c6 ae bf 2c c9 07 bd 5d eb b7 be 2f 9d 55 3f
       -1.3654411 -0.033150837 -0.35921755 0.8344297
0001a0 92 da 33 3f 5c 75 ee 3e f0 cf 2b bf 90 6d 4e 3b
       0.70255387 0.46573913 -0.6711416 0.003149841
0001b0 0a a5 0a 3f f1 2a 10 bf 20 06 9d 3c 2c 04 64 3d
       0.5415808 -0.56315523 0.01916796 0.05566804
0001c0 e6 ff 90 be 7d 51 fb 3e bf 13 13 bd 6e 03 0e 3c
       -0.28320235 0.49085608 -0.035907503 0.00866781
0001d0 8c d1 86 bb 27 d7 80 3e 8a ec b7 bf 39 77 6a bf
       -0.0041143354 0.25164148 -1.4369061 -0.9158817
0001e0 e9 ec ae be 42 78 9f 3e 23 ff 5f bf 0b e1 8f be
       -0.34165123 0.31146437 -0.8749868 -0.28101382
0001f0 79 ae 49 3c e9 d1 40 b9 80 dd e9 bc 8c e8 d1 b7
       0.012309664 -0.00018388745 -0.028548002 -2.502303e-05
000200 67 09 34 bf d5 37 c3 bf be b1 05 bf c4 dc 52 3e
       -0.70326847 -1.5251414 -0.5222434 0.20592028
000210 7f 9a ce 3e bb 19 31 3c 31 27 53 bf 22 26 1e 3f
       0.40352246 0.010809357 -0.82481676 0.61776936
000220 4a 93 10 bf 3c 46 59 3f d7 ea 33 3c fb 15 87 bc
       -0.56474745 0.84872794 0.010981283 -0.016489973
000230 2b 4a 41 bf d9 34 86 be ac 1d d0 3c ed a3 3c bf
       -0.75503796 -0.26212195 0.025404774 -0.7368763
000240 cd 7d 83 be 0b 4e 1c bf 22 a9 10 bf 8e c1 08 bf
       -0.25681916 -0.61056584 -0.56508076 -0.5342034
000250 48 87 9e 3b 91 df d7 be 37 67 01 bf c3 ad 82 bd
       0.004837904 -0.42162755 -0.5054812 -0.06380799
000260 c0 21 e7 3d 8d fe ba be 03 3e 6e 3f f7 ca 60 3f
       0.11285734 -0.36522332 0.9306337 0.878097
000270 f2 d1 8d bf 31 33 06 3e 74 6f 02 c0 b4 c8 7f 3c
       -1.1079695 0.13105465 -2.0380526 0.015611816
000280 fc ac f1 3f 19 08 e2 3e ad 37 cb bb 2d a2 5b 3e
       1.8880916 0.44146803 -0.0062017054 0.21448584
000290 de c7 26 3f a1 91 05 3d 88 ad 89 3d c4 92 d7 bc
       0.65148723 0.032609586 0.067225516 -0.0263151
0002a0 fc c4 1f 3f 26 7b 42 bf f1 6f 1d 3f 17 29 90 3c
       0.6240995 -0.7596916 0.61498934 0.017597718
0002b0 30 bf 52 3e 9b c7 a5 bb 85 b2 c7 3f 07 1f 3e bf
       0.20580745 -0.005059195 1.5601355 -0.74266094
0002c0 e1 92 06 bf 4d 04 6b 3f 67 57 a0 bf 9b c1 10 bf
       -0.5256787 0.9180344 -1.2526673 -0.5654542
0002d0 2c b3 61 3b d1 4a a3 3f f6 b1 9e be 98 97 c1 be
       0.003443907 1.2757207 -0.30995148 -0.3781097
0002e0 ac 51 a2 3f e9 e7 2c bf c0 cf 8f 3e 62 cf b5 3e
       1.2681174 -0.67541367 0.28088188 0.35509783
0002f0 74 ea 6f bf 91 54 0c bf e8 84 e3 3e 8f 5f 15 be
       -0.9371712 -0.5481654 0.44437337 -0.14587234
000300 ce c4 c6 3e 7d f7 aa bd c2 a6 fa 3b 60 68 29 3f
       0.38822025 -0.08347986 0.0076492736 0.6617489
000310 50 35 23 3f 03 ef 4f 3e f2 17 88 3c d5 ad 6f be
       0.63753223 0.2030602 0.01661298 -0.23406155
000320 5c fd 48 bd bb fe 10 bc 68 fd 13 3d e8 b9 6a 3d
       -0.049069747 -0.008849795 0.03613034 0.0573062
000330 35 9a b6 bc 55 2e 13 3d c3 54 80 3d 43 1b 9e 3c
       -0.022290329 0.035932858 0.06266167 0.019300109
000340 09 b9 02 bd 50 a3 11 3d 64 82 5b 3b 56 85 65 3d
       -0.031914745 0.035556138 0.0033494467 0.056035362
000350 8e a3 5e 3b f5 8e 01 bd 44 01 2f 3d 09 aa 3f 3d
       0.0033971998 -0.031630475 0.042725816 0.046793018
000360 32 5a 23 3d 5a 25 30 bc 16 d6 cb 3d 47 d2 92 3d
       0.03988094 -0.010751093 0.09952943 0.071690135
000370 e4 1b 0b 3b ba ef 53 bd aa 34 46 bd f7 c0 81 bc
       0.002122634 -0.051742293 -0.048390068 -0.015839083
000380 c3 14 8f bd b2 df 10 3d 1d 75 14 3b 9f 01 0a bc
       -0.06986382 0.035369582 0.0022652813 -0.008423238
000390 75 82 26 3d 31 ef 13 3d 91 c8 35 3c 4c 61 0c bd
       0.040651757 0.036116783 0.011095182 -0.034272477
0003a0 f0 3d 4c 3d 60 ec 75 3d 51 0b 4e 3c 74 cd 48 3b
       0.049863756 0.060039878 0.01257594 0.0030640038
0003b0 2e 47 0c 3c cf 52 87 3c 7f 9c 9e 3b 8d b1 a9 3c
       0.008561892 0.016518978 0.004840433 0.020714546
0003c0 04 30 8c 3c 95 a2 21 bc 23 d7 0e 3c 2b 44 8b 3c
       0.01711274 -0.009865423 0.008718285 0.017000278
0003d0 bd 7b cb 3c 00 a3 f5 3c c9 e4 e7 bb 7a 43 85 3b
       0.024839276 0.029984951 -0.007076834 0.0040668817
0003e0 0c 59 eb bc 44 d1 46 3d 8e 6e 07 bd e3 2e 63 bd
       -0.028728984 0.048539415 -0.033064418 -0.055464637
0003f0 c3 2f fa b9 37 65 f1 3b ca f4 10 3d 78 41 3d 3c
       -0.000477193 0.007366802 0.0353897 0.0115512535

bias f4 [200]
000000 19 17 30 bf f9 bd c2 bc 98 a6 46 bf 95 d7 70 bf
       -0.68785244 -0.023772227 -0.7759795 -0.9407895
000010 9a e7 96 bf 32 af 1c 3f 85 01 7f bf c2 33 83 3f
       -1.1789429 0.61204827 -0.99611694 1.025017
000020 28 39 ec 3e aa 77 35 3d 6c 5f 87 3f b8 63 83 3f
       0.46137357 0.044303574 1.0575995 1.0264807
000030 ca 5e db be 65 2f c6 3c 65 81 c0 bf f2 46 8f 3f
       -0.42845756 0.024192521 -1.5039488 1.1193526
000040 59 13 06 c0 b0 1f 8d 3b bd ea 91 bc b6 a2 0c 3d
       -2.094931 0.004306756 -0.017812127 0.03433486
000050 d1 53 0f 3d c4 e5 fa 3e e7 f9 78 3b 99 fc 08 40
       0.034992043 0.49003422 0.003799075 2.1404173
000060 d3 b5 9b 3d f1 e3 58 40 e1 bc 98 bf cc b9 92 bf
       0.076030396 3.3889124 -1.1932641 -1.1462951
000070 b1 fe 3b bf 3d 46 8d 3f ce 4b d8 3f 88 ea d0 bc
       -0.73435503 1.103706 1.6898134 -0.025502458
000080 77 7c a4 bf c7 07 34 3d f1 06 d4 3e e9 db d3 bf
       -1.2850484 0.04395273 0.41411546 -1.6551486
000090 e0 06 98 bc ae f5 0f bc 23 1f b7 3f 93 d8 61 3f
       -0.018557966 -0.008786602 1.4306377 0.8822109
0000a0 a6 37 eb bf 54 09 95 bf 10 ed 77 c0 8b 88 87 bb
       -1.8376358 -1.1643472 -3.8738441 -0.0041361502
0000b0 5d 5f 3a c0 78 89 23 3d f0 f1 4e 3e 0c 7e 4c 3f
       -2.9120705 0.039926022 0.2020948 0.7987983
0000c0 cb af 0c c0 22 68 56 3d 08 bd 4f bf 85 36 87 bc
       -2.1982296 0.052345403 -0.81147814 -0.01650549
0000d0 7f 8f ab be 66 2e 8b bf 0a ba ae bd 57 64 bd bf
       -0.33507916 -1.0873535 -0.08531578 -1.4796246
0000e0 13 88 1e bf 5d f6 69 3f a0 69 1d 3f b8 b1 50 40
       -0.6192638 0.91391546 0.61489296 3.260847
0000f0 6b 29 db be c2 21 9c 3b af 6a bd 3f 2f 7e e9 3e
       -0.42805037 0.0047647664 1.4798182 0.45604083
000100 e0 c5 9b bf e7 32 92 bb c1 56 ea bf 50 46 d6 3e
       -1.2169762 -0.0044616344 -1.8307725 0.4185052
000110 a7 1a 89 3d b3 9d 0c bf b6 ff 2f 40 7d 1c 84 be
       0.06694537 -0.5492813 2.7499824 -0.25802985
000120 0b 24 2f 40 09 72 fd 3b da 87 9e 3d 26 1c 86 bf
       2.736575 0.0077345413 0.077407554 -1.047734
000130 82 d0 2a 3f 45 84 85 bf 80 df e3 3e df af 81 3c
       0.6672441 -1.043099 0.44506454 0.015830932
000140 d8 96 0e 3d f6 0b 02 3e 5c 7f 26 3f b4 9c 29 bd
       0.034811825 0.12699875 0.65038085 -0.04140921
000150 14 d7 36 be 8b e4 a9 bf ff 72 2f bf c7 b2 66 3f
       -0.17855483 -1.3272871 -0.68534845 0.9011654
000160 4c ca 04 bd ac 47 54 c0 5a f4 9e 3f 19 2f 34 3e
       -0.032419488 -3.3168745 1.241832 0.17596091
000170 2a e2 18 3f 24 2e 5b c0 79 7c 46 40 24 14 c2 be
       0.597201 -3.4246912 3.1013472 -0.3790599
000180 61 d4 70 bf 42 ec 51 bf 81 09 96 3f 1b ac 05 bf
       -0.94074064 -0.82001126 1.172165 -0.5221574
000190 ea f9 aa bc e1 04 a6 3d eb e6 81 bf 5f e0 a1 bf
       -0.020871121 0.08106399 -1.0148596 -1.2646598
0001a0 2d 24 a2 be ba 60 93 3d 74 48 af 3d dc a9 3d 3f
       -0.31668225 0.071961835 0.08558741 0.7408731
0001b0 fc 59 91 bf 76 24 34 bf 05 5c dd 3f 14 d4 62 40
       -1.1355586 -0.70368135 1.7293707 3.5441942
0001c0 9d d9 0a c0 a5 16 30 3f fe d7 29 be 06 12 17 3e
       -2.169532 0.6878455 -0.165863 0.14752969
0001d0 89 f7 82 3f e2 e6 d5 3f ac b3 be bd 74 39 18 bf
       1.0231792 1.6711085 -0.093116134 -0.59462667
0001e0 bc dc e6 bc ec 1e 78 bf ed 04 d4 bd a7 66 28 bf
       -0.028181426 -0.96922183 -0.10352502 -0.65781635
0001f0 c5 06 5d bf 59 e1 0d bf 58 7f 1c 40 24 6b 83 3f
       -0.86338454 -0.5542198 2.4452724 1.0267072
000200 92 ec 03 bf 95 ad 06 bc bd 53 8a bf 6e c4 2e 40
       -0.5153285 -0.008220096 -1.0806805 2.730739
000210 ec ea 5f 3b 23 25 43 bd f9 f3 b4 3c b2 e7 11 bf
       0.0034167124 -0.04764284 0.022088991 -0.56994164
000220 0d 44 c9 3f 61 41 5d 40 5e 90 7e 3f c0 5c 35 be
       1.5723892 3.4571154 0.99439037 -0.17711163
000230 7b 43 57 3c 1d c3 6a 3f 64 e2 71 bf ca 6d a5 3c
       0.013138647 0.9170397 -0.9448607 0.020193953
000240 89 93 c9 bf a9 8a 92 bf 16 43 cc 3f 1f 7b 80 bd
       -1.5748149 -1.1448566 1.5957973 -0.062734835
000250 8f fc 69 3f 7e a2 50 bf 24 53 11 be 33 82 18 3e
       0.91401 -0.81497943 -0.14191872 0.14893417
000260 40 25 0e bf c9 5a cf be 05 d8 b0 bf 3d 50 5a 3e
       -0.5552559 -0.4049895 -1.3815924 0.21319671
000270 3b 66 5e 40 d6 be e6 3f 0e 9d 60 bf ae 32 e4 3c
       3.4749897 1.8026989 -0.87739646 0.027856197
000280 fe 82 39 bd 96 04 82 c0 58 8c c0 bf a2 df 4a bf
       -0.04529094 -4.06306 -1.504283 -0.79247487
000290 75 b8 e9 3f 68 c7 fe 3e cf ee 03 40 ca 7e fd be
       1.8259417 0.4976151 2.0614507 -0.49510795
0002a0 4c 47 81 3c 38 2d 8e 3f 6c e7 2c c0 aa 31 6c bf
       0.015781067 1.110755 -2.7016249 -0.9226328
0002b0 6a 5b 95 3f 4d 95 60 3c 39 3a 66 3f 3d 9f 62 bc
       1.1668522 0.013707471 0.8993259 -0.013831911
0002c0 39 99 d1 be 00 2c cc 3f de 05 a5 3f c2 2c 09 3f
       -0.40937212 1.5950928 1.2892416 0.5358392
0002d0 80 dd 66 c0 00 67 64 3f 8d 57 ba bf b9 41 93 3e
       -3.6072693 0.89219666 -1.4557968 0.2876108
0002e0 d0 e4 48 3f cb 9e 13 3c 00 aa 4e 3d f0 4e 8b 3f
       0.7847414 0.009010027 0.050455093 1.0883465
0002f0 4d 91 af bf 6e 88 36 c0 bf 15 9a 3e cf 34 a7 bf
       -1.3716217 -2.852077 0.30094716 -1.3062991
000300 bb ec 1d 3d 38 b3 d1 bb 04 98 17 3f 6f 7c 70 3d
       0.038555842 -0.0063995384 0.5921633 0.05871242
000310 c9 60 3d bf df cc 58 bf d2 0e 9a 3f 0a ce 84 3e
       -0.7397581 -0.8468761 1.2035773 0.25938445

weight f4 [1, 200]
000000 a0 e3 c5 bd 37 36 72 bb 64 7f b4 bc 93 0d 6b bd
       -0.09662557 -0.0036958584 -0.0220334 -0.057385992
000010 6e 0e 3c be ac 59 81 3d d7 42 80 bd 3a f1 8a 3e
       -0.1836488 0.06315932 -0.06262749 0.27137166
000020 2b fe c2 bd d2 1a 58 be a9 76 12 3e bd d8 98 3d
       -0.09521135 -0.21103981 0.14303078 0.074632145
000030 b3 19 7f bd c5 ae f8 3a b5 80 1f be c8 4e a9 3d
       -0.062280368 0.0018972984 -0.15576442 0.082669795
000040 37 b9 e5 bd f0 86 2e 3e 5a 08 fc 38 a7 3c 0a 3b
       -0.112169676 0.17043662 0.00012017852 0.002109328
000050 d4 71 5e ba 5f c0 4e 3e 7e 5f 49 3b 43 7f 9f 3d
       -0.00084855896 0.20190571 0.0030727084 0.07787945
000060 4a dc 38 ba a2 c4 f0 3d 86 13 3b bd 32 44 44 be
       -0.00070518686 0.11756255 -0.045672916 -0.1916664
000070 42 73 22 be 3e b3 62 3e fe 77 d1 3d bf 54 5d 3a
       -0.1586428 0.22138688 0.10227965 0.0008443109
000080 aa f0 0a be b0 22 93 bb e3 91 85 bf 2c 9a 1c be
       -0.13568369 -0.004490219 -1.0435146 -0.15293187
000090 eb b7 03 3a dd be 22 3a 22 65 40 3d 9e 75 35 3e
       0.00050246593 0.00062082504 0.046971448 0.17720649
0000a0 0a 3b de bd 8e e3 11 be 53 ea 00 be ea 4d 1c ba
       -0.108511046 -0.14246961 -0.12589388 -0.0005962538
0000b0 7b f7 95 be 97 41 8c ba c9 c1 12 be 74 e6 42 3d
       -0.29290375 -0.00107007 -0.14331736 0.04758306
0000c0 37 45 ae bd 4f 8f bb ba d4 e6 25 be db ca f5 39
       -0.085092954 -0.0014309677 -0.16201335 0.0004688118
0000d0 01 bb a3 bf 29 82 30 bd 96 d8 64 bb a2 82 fc bd
       -1.2791444 -0.04309288 -0.0034919134 -0.12329604
0000e0 c4 37 1c be 62 ac 8b 3e 89 5f 54 3d 26 4c b3 3d
       -0.15255648 0.27279955 0.051848922 0.087547585
0000f0 0b 94 7e bd 63 ce 0e bb 29 e8 23 3e 3a 7a 5b 3d
       -0.062152904 -0.0021790497 0.16006531 0.05358336
000100 d1 6d 9a bd 67 9a 25 bb 1d f7 47 be 89 e5 c5 3d
       -0.07540477 -0.0025269033 -0.1952786 0.09662921
000110 d9 f6 0b 3b 48 c2 85 bd b4 97 be 3d 80 1b 37 be
       0.002135685 -0.06531197 0.09306279 -0.17881584
000120 cf 44 10 3e 20 d0 85 bb 01 a9 93 39 f2 d8 a7 3f
       0.14088748 -0.0040836483 0.00028163943 1.3113081
000130 20 b6 97 3c 45 e7 f9 bd 28 cf 6d 3e f7 a2 63 ba
       0.018519461 -0.12202314 0.23223555 -0.00086836464
000140 a0 75 e7 3a a9 5d c1 3d af c1 4d 3d 49 fa b5 37
       0.0017658956 0.094416924 0.05023354 2.169343e-05
000150 cf 48 5a bd 40 14 28 be b6 fc 43 bd 83 e6 63 3e
       -0.053292092 -0.16413975 -0.047848426 0.22255902
000160 17 68 17 39 74 1b b2 bd 88 a5 65 3e 9c 11 74 bd
       0.00014439259 -0.086966425 0.22426426 -0.059587106
000170 0b 1b 39 be 7d f9 18 be c6 17 cd 3d 4d 4c 49 3d
       -0.18076722 -0.14938922 0.100143 0.04914503
000180 67 e3 4b bd ea 69 2b bd d7 e4 a1 3d 5a da 3a 3e
       -0.049777415 -0.041849054 0.07904976 0.18247357
000190 c3 46 93 38 ce ce ae ba 29 be 69 be 5d c8 32 bd
       7.0226866e-05 -0.0013336779 -0.22826447 -0.043648113
0001a0 a3 4c 0f be 89 16 48 3a b7 b1 bb 3a d6 9a c7 3d
       -0.13994078 0.00076327525 0.0014319931 0.097463295
0001b0 30 db 5c be 2a 42 0b be 57 77 40 3e b1 f3 2f 3e
       -0.21567988 -0.13599458 0.18795525 0.17182805
0001c0 b5 25 d6 bd ca be d4 3c f8 b4 79 bd 07 2c b3 3d
       -0.10456411 0.025969882 -0.0609636 0.08748632
0001d0 7e 7d 23 3e 1d 67 6c 3e e9 70 7b bd 0a dc e3 bd
       0.1596584 0.2308621 -0.061386976 -0.111259535
0001e0 89 70 e1 39 0e fb 16 be f0 e0 cd bd 2a 93 a7 bd
       0.0004299919 -0.14744207 -0.10052669 -0.08182366
0001f0 71 31 bc bd ce d0 f4 bc 43 76 2a 3e da 62 04 3e
       -0.09189118 -0.029884722 0.16646676 0.12928334
000200 a3 ce 31 be fe 9d 07 3e d8 0a 1e be 2c 66 aa 3d
       -0.17363982 0.13243863 -0.15433824 0.08320269
000210 10 9d 39 bb e5 f4 b3 3a 9b 23 9c 39 56 5a ad be
       -0.0028322376 0.00137296 0.00029781167 -0.33857983
000220 f4 ae f5 3d e9 e4 7c 3d 0f a6 1a 3e 72 8a 3a be
       0.1199626 0.061741743 0.15102409 -0.18216875
000230 33 9d ee 3a 69 08 f6 bd 1b 02 4e bd a5 7b 79 ba
       0.0018204808 -0.12013323 -0.050294977 -0.00095170207
000240 9e 3e 34 be 81 1b 48 be 9e eb 42 3e e5 3c 13 3b
       -0.17602012 -0.19541742 0.19035193 0.0022466716
000250 d2 04 a3 3d e8 92 dd bd a6 15 a1 3d 3f 73 18 3e
       0.07959904 -0.10819036 0.07865457 0.14887713
000260 f1 58 50 bd c7 45 1a be 53 8b 25 be 55 30 a8 3f
       -0.05086607 -0.1506568 -0.16166429 1.313975
000270 94 2e 2f 3e fc e1 71 3d 75 ae a5 bd 20 b7 31 3a
       0.17107612 0.059053406 -0.08089916 0.0006779302
000280 9e ca 5a 39 43 d1 00 bf b6 fa 4e bd 12 f7 ad 3f
       0.00020865581 -0.5031931 -0.050532065 1.3591025
000290 f1 69 51 3d a3 fa 4f 3d 77 3e 1a 3e 95 b0 a9 be
       0.051126424 0.050776135 0.15062891 -0.33142534
0002a0 5d 57 f4 39 71 3b a8 3d 54 2f 06 be e6 2a 08 be
       0.00046604397 0.082144625 -0.13103992 -0.13297614
0002b0 4b b9 f7 3d ce 05 5f 3a fc 57 17 3e 93 a6 10 ba
       0.12095889 0.000850764 0.14779657 -0.00055179856
0002c0 1f e7 a8 bd 82 cf 79 3d 42 f8 52 3d 59 40 2c 3e
       -0.08247208 0.06098891 0.05150629 0.16821422
0002d0 b7 15 de bd bc 4d 5b 3e ff 76 53 bd 22 4b 91 bd
       -0.108439855 0.21416372 -0.051627155 -0.070944086
0002e0 48 76 8b 3d ca 27 4d 39 70 7d 1e bb 82 30 b9 3d
       0.0680967 0.00019565146 -0.0024183653 0.09042455
0002f0 41 69 ca bd 48 0f 16 be bf 26 fe 3d 42 19 c5 bd
       -0.09883357 -0.14654267 0.12409734 -0.09623958
000300 36 68 c4 ba f2 1d 84 ba f2 1e 5b 3d e1 a6 00 be
       -0.001498467 -0.0010079725 0.05349631 -0.12563659
000310 80 63 80 be 30 33 7c be f7 32 13 3e f1 15 a6 3e
       -0.25075912 -0.24628901 0.1437491 0.32438615
