scripts/distance/150-150-150/500k_nn_ssm_distance.pt (torch, 196049 bytes, 7 tensors)

weight f4 [150, 15]
00000000: 9300 443d ba32 b1bf bba7 97bf 7c5f bdbf
00000010: 221d 6b3f 9b08 cb3e 9fdf 823b 6b96 3d3f
00000020: 3349 0f3f ed84 3a3f f6ed bfbe 6196 32be
00000030: 9312 6cbe b34e f5be a6de b13c 27ba 1dbf
00000040: c86e 7dbe ca2a 56bd 0d65 45be f10a 82bc
00000050: 82ae 693d 4525 b4be 2f95 423e 01b6 b93d
00000060: fcc3 05be d905 113d 7046 bdbd 070d 65bf
00000070: 82cc 0ebf 3db6 f3be 090d 5cbd d278 59be
00000080: f6f5 b7bc e904 fc3b 1b22 1ebe 2f20 9dbd
00000090: 46ba 35bf 4a33 713e 5c19 96be 8c00 88be
000000a0: 2f70 2bbe ee5c afbd 1a16 d43e fe09 833f
000000b0: 7dd1 763e 7740 c5be 8b33 903e 5406 343d
000000c0: f287 b7bb afad aabd 83f6 b33e 1de6 cc3e
000000d0: 3506 e33d c633 1f3d 4ab6 94be 7c82 b83d
000000e0: b9e3 22be 876d 9a3d f5d1 8dbe b1ec fdbd
000000f0: a6b7 913e 2eec d4be ef87 1ebf 7579 0fbd
00000100: b8e9 5ebf 2d37 e8be 1cf3 8bbe 54ff 303f
00000110: 0a6a 693f 6e5f 1e3f b990 703f eb98 c63e
00000120: 4c7f e3bd 4144 a6bd 472d 93bb a989 a7be
00000130: 4534 243e e5b3 9ebd 334e 4ebe 5cca 21bd
00000140: bd58 57bc b04d 4cbd 67aa 20be 4bce 67be
00000150: 9f64 f6bc ab6e d3bd 73fb 98bd c401 a5bf
00000160: 565e a43f af2f d63e faf1 5cbf 9eb1 9c3e
00000170: ed9b 2abe 7adb 833e e904 78bd 641a 03be
00000180: 36b7 443f f910 0abf fdfb 763c 6899 a1be
00000190: 9dde 4f3e 0015 71bc ab4f 93be c9dc 20bf
000001a0: 43ef 3e3c cef7 203f eb23 dc3e c8f1 2d3e
000001b0: 8f40 acbe 6aa9 6ebc a420 7ebb c209 4abd
000001c0: 73aa f33d 28a3 e03e d1d2 12be d275 d43d
000001d0: 3aa6 0dbc 34b1 2cbe 5da3 74bf 0e0f 6ebc
000001e0: 00c3 18be fe51 e5be fe52 8cbe c3d6 b2bc
000001f0: 90bd c7bd 671d 65bc 3a9b 3b3e a28b 74bf
00000200: 9ecb 31bf 8340 113d aeb4 91be 4837 e1bd
00000210: c3c8 1dbd 01f1 b8bf cec3 973e e82c e7be
00000220: 26d3 0c3f a76e 933d 6fc3 95b9 9cc5 f93c
00000230: a6aa 4dbc 293e 0dbf 439f 293f 8efb 823d
00000240: 8961 d33d 9ff6 db3c 4cdd 083c 59e1 5a3e
00000250: 5f7a fbbe 5907 853e 9400 893d b22b 783c
00000260: a979 ea3d 914a c83d 477e 4e3d d771 933b
00000270: ce9e aebd 47e5 863e d75d 263d 6280 f4bd
00000280: 515d 183c 5353 ce3c 30b6 e4be 1370 123f
00000290: 62bf 7e3f 0995 a2bd 0fc6 c0bf 0977 003e
000002a0: cb9f a6bd d4af c93d d4c2 023d dd77 a13d
000002b0: 0f8b 853e 031b cc3e 6def b43c 813d 633e
000002c0: b2b6 d03d de06 203e 376a bebe fc3d fcbd
000002d0: d2e6 933d b829 c0bd 8fae ab3e 1cc9 1b3d
000002e0: b73f 9bbe d814 5bbe bb46 cfbd 62c6 ee3d
000002f0: 948c d8be 2921 2bbd 101e b93e 7cf0 8e3e
00000300: 4282 7fbc 68c1 1d3b 3747 98bb ef77 22bf
00000310: e70f a7bf 0a12 64bf 32b3 433e b9a9 9d3d
00000320: e26e 5d3d 3841 573f aa79 0040 93e6 bd3f
00000330: ea31 5abe 0059 d23d 5b63 45bc 414b c6be
00000340: 8fa4 273f 2230 d83b c051 95bd e3e2 393e
00000350: 4d0f 9a3c 525c 1e3f 09ac df39 6312 883c
00000360: 5752 583e cea7 1dbe 25d9 983c f32b 603f
00000370: c4eb 5f3e 44d6 9b3d 4784 bebd 7b11 b53d
00000380: 5618 f23d 4f1d d4be bf06 83bf 9b2a 62bf
00000390: 4bd9 b2be 8179 ccbf cd7c 63bf c0b6 c13e
000003a0: f166 7c3f 7965 583f 4ecf 8abe 2dee 953f
000003b0: d4d9 163f c80f 3a3e 4e6d 60be 7ab2 84bd
000003c0: 08c6 51bf 11af 22be 6786 f03d 0a00 cbbe
000003d0: 3789 d3be c215 8bbe 4155 dc3e 6dd8 1f3f
000003e0: df8d 143f 33df 47be 57e4 a2bd ce84 d93d
000003f0: e2d6 063e 55ae 4cbf bd41 203d f313 f03e
0.04785211 -1.3843606 -1.1848062 -1.4794765 0.9184133 0.39655003 0.003993943 0.74057645
0.5597107 0.7285908 -0.37486237 -0.17440178 -0.2305396 -0.47911605 0.021712612 -0.6161217
-0.24749291 -0.0522869 -0.19276829 -0.015874358 0.05705119 -0.35184684 0.19002222 0.090679176
-0.13063043 0.035405967 -0.092419505 -0.89473003 -0.55780804 -0.47599974 -0.05372337 -0.21237496
-0.02245615 0.007691015 -0.15442698 -0.07672154 -0.70987356 0.23554721 -0.29316223 -0.26562917
-0.16742013 -0.08562647 0.41423112 1.0237424 0.24103351 -0.38525745 0.28164324 0.043951347
-0.0056009227 -0.08333909 0.3514901 0.40019313 0.11085168 0.038867734 -0.29045326 0.09009263
-0.15907182 0.07540422 -0.27699247 -0.12398661 0.28460425 -0.4158644 -0.6192617 -0.03502794
-0.87075377 -0.45354596 -0.27333915 0.691396 0.9117743 0.61864364 0.9397083 0.38788542
-0.11108264 -0.08118487 -0.0044914815 -0.32722214 0.16035564 -0.07749156 -0.20147018 -0.039499626
-0.013143715 -0.049878776 -0.15690003 -0.22637288 -0.030077277 -0.103238426 -0.07469835 -1.2891164
1.2841289 0.41833255 -0.86306727 0.3060426 -0.16661043 0.25753385 -0.060551558 -0.12803036
0.7684206 -0.5393215 0.015074727 -0.31562352 0.20299764 -0.014714479 -0.2877172 -0.6283689
0.011653724 0.6287812 0.42996153 0.16986763 -0.33643004 -0.014566759 -0.003877678 -0.049325712
0.11897745 0.43874478 -0.14338233 0.10374035 -0.0086455885 -0.16864473 -0.9556177 -0.0145299565
-0.14918137 -0.44789118 -0.27407068 -0.021830922 -0.09752953 -0.013984061 0.18320933 -0.9552556
-0.6945132 0.035461914 -0.2845816 -0.10996872 -0.03852154 -1.4448549 0.29641575 -0.45151448
0.55009687 0.0719884 -0.00028565104 0.030489735 -0.012552893 -0.55172974 0.6625864 0.063956365
0.10321338 0.026850997 0.008353543 0.21375026 -0.491168 0.25982168 0.066895634 0.0151471365
0.11448986 0.097798474 0.050413396 0.0044996548 -0.08526383 0.263468 0.040616836 -0.119385496
0.009299592 0.025186216 -0.44670248 0.5720226 0.99510777 -0.079385825 -1.5060443 0.12545408
-0.08135947 0.0984799 0.031924084 0.0788419 0.26082656 0.39864358 0.022086823 0.2219143
0.10191096 0.1562762 -0.3719041 -0.1231651 0.0722176 -0.09382957 0.33531615 0.03803359
-0.30322048 -0.2139467 -0.10120913 0.11658932 -0.42294753 -0.04177967 0.36155748 0.2791785
-0.015595021 0.0024071578 -0.0046471613 -0.63464254 -1.3051728 -0.89090025 0.19111326 0.07698388
0.054060824 0.8408389 2.0074258 1.4835991 -0.21308103 0.10270882 -0.012047614 -0.3872929
0.6548547 0.0065975348 -0.07290983 0.18152957 0.018806124 0.6185962 0.0004266205 0.01661033
0.2112516 -0.15396044 0.01865823 0.8756706 0.21867281 0.07609227 -0.09302574 0.08841225
0.11821048 -0.4142861 -1.0236434 -0.8834626 -0.34931406 -1.597458 -0.88862306 0.3783474
0.98594576 0.84529835 -0.27111286 1.171331 0.5892613 0.18170083 -0.21916696 -0.06479354
-0.81942797 -0.15887095 0.11744385 -0.39648467 -0.41315624 -0.27165037 0.43033794 0.62439615
0.5802898 -0.19518737 -0.079537086 0.106210336 0.13167909 -0.7995351 0.039125193 0.4689022

bias f4 [150]
00000000: a997 8e3d c90d 4cbf 801d cabe 67e1 82bc
00000010: 749d 12bc 20d3 2ebf a74e 293e 2231 223e
00000020: 24a3 65bf 9ff3 043f c115 33bf 3b2b 2a3e
00000030: e786 f23a 3b72 11be b7b4 65bf 0c9b fb3c
00000040: 0309 af3c 40dc 99bd e4a0 413a f84e 1e3f
00000050: c98e e43d 24f7 6dbb 4c9a 0abf a271 843f
00000060: 72a5 36bc 87c9 513f 2dd8 223d 6737 18bd
00000070: 01ac edbc d017 91bf fd86 063d e6b4 173f
00000080: c8d8 f53c af9a 3abb 19d5 cebe 29d3 e7bd
00000090: eaff 25bf 550c 10bf 94a2 3c3f f4e7 2ebe
000000a0: 2a51 9dbf e036 0bbf bba2 58bf 11f7 32bf
000000b0: f191 6f3f 7f07 753e b961 843b 7e28 9cbe
000000c0: 53fc fabd 8b5a be3a 83ec 293b ca7f b83c
000000d0: 3080 79ba 0178 0a3f 5071 39bd 257b 233e
000000e0: af76 bf3e 7d56 913d 99a2 8f3b 9401 ddba
000000f0: c444 0c3f 181f c73d 5500 13bd 13c3 183e
00000100: 0fdd af3b ab42 073f f31d 003e 00df d93e
00000110: cb0d abbc 9a66 95be 362f 21bf 7501 0abb
00000120: a2e9 023e 91e3 dd3d f50e 1ebe 46b5 8bbf
00000130: c22b a6bd 998d 743f d6b2 563f 06e6 e2be
00000140: c39c 913e 3203 443f 8446 103f bacf 29bf
00000150: ccbb 1cbf b35f 83bf 9797 793f 8a96 0f3f
00000160: 59f2 a5bb 06a4 193f 9644 48bf f658 ab3a
00000170: a0d7 edbd 1d5c 683f 90a7 803c 26c3 1ebe
00000180: b411 85be b943 8f3e 80e2 3d3e 06ab 9b3c
00000190: 020e 053f 73a7 edbe 588d dd3e 7465 c8be
000001a0: 8b96 833d 5d22 2c3f 34b5 35bb fd9a 84bf
000001b0: aa4f 2f3b 0af1 d93a 0b93 2fbf ee2f ffbb
000001c0: 08e4 11bf 3438 b1bb 58a4 6d3f 1cef 403d
000001d0: ee0b 513f 0e3f 183f 7339 55bd 2422 4e3f
000001e0: 902f 0c3e 3ce2 343f 1394 b83c 7646 b03e
000001f0: 1e07 dd3e 32e8 353f 46c7 1dbd 9707 e13d
00000200: 5346 15be 3e42 1d3b 884e d8bd 0d71 1f3f
00000210: 08cb 9bbd 1a3d 4f3f 856f ed3e 504e 9bbc
00000220: 8bf9 973f 1839 003c 5671 343e d9f1 bfbe
00000230: 3b8e e6be 3d50 51be b4a4 79bf 43fe 8ebf
00000240: 5666 a63a 5ac6 b53d 9d7e 253f b8fa c43d
00000250: a3c8 313b bb84 bfbe
0.06962521 -0.79708534 -0.39475632 -0.01597662 -0.008948673 -0.682909 0.1653391 0.15839055
-0.8970206 0.51934236 -0.6995507 0.16618054 0.0018503339 -0.14203732 -0.89728874 0.03071358
0.021366602 -0.075127125 0.00073863403 0.61839247 0.111600466 -0.0036310637 -0.5414169 1.0347178
-0.011147844 0.8194813 0.039756943 -0.03716221 -0.029012682 -1.1335392 0.03284358 0.59260404
0.030010596 -0.0028473546 -0.40396956 -0.113195725 -0.6484362 -0.5626882 0.73685575 -0.1708067
-1.2290394 -0.5438061 -0.84623307 -0.69908243 0.93582064 0.23928641 0.0040399698 -0.30499643
-0.12255158 0.0014522834 0.0025928325 0.022521872 -0.00095176976 0.5408936 -0.04527408 0.15964945
0.37395236 0.070965745 0.004383397 -0.0016861432 0.5479243 0.097227275 -0.03588899 0.14918165
0.0053669284 0.528361 0.12511425 0.42552948 -0.0208806 -0.2917984 -0.62962663 -0.0021057997
0.12784436 0.108344205 -0.15435393 -1.0914695 -0.08113815 0.9552856 0.8386663 -0.4431612
0.28439912 0.76567376 0.563576 -0.6633259 -0.61224055 -1.026358 0.9749693 0.5608908
-0.0050642905 0.60015905 -0.78229654 0.0013072777 -0.11613393 0.90765554 0.0157049 -0.1550413
-0.2599007 0.27981356 0.18543434 0.019002449 0.519745 -0.46416816 0.432719 -0.39139903
0.06425198 0.67239934 -0.0027726414 -1.0359799 0.0026750364 0.0016627621 -0.68583745 -0.007787696
-0.56988573 -0.0054083113 0.92828894 0.047103032 0.8165883 0.59471214 -0.05205674 0.80520844
0.13690019 0.70657706 0.022531545 0.34428757 0.43169492 0.71057427 -0.03852012 0.10987776
-0.14577608 0.0023995782 -0.10561854 0.62281877 -0.076070845 0.8095261 0.46374145 -0.01895824
1.187303 0.007826112 0.17621359 -0.37489203 -0.45030388 -0.20440765 -0.9751694 -1.1171345
0.0012695293 0.08875723 0.6464632 0.09618133 0.0027127645 -0.37405953

weight f4 [150, 150]
00000000: 7005 053d 0670 2cbf 8705 c2bd f7dc 9ebe
00000010: 62ee da3d 2e86 a9be f2f9 6dbf 5de4 0bbf
00000020: 6b96 073f 1ddd fb3d cba3 263e 50a0 f0be
00000030: 5381 5abd cfa9 c43e 57a5 3cbd 88b1 04bc
00000040: a140 56be f166 3f3d c1b7 6b3b 5f24 653d
00000050: 21ca 6bbf f31d 8abb 51c0 9bbe 6567 8c3d
00000060: 6193 bf3a c661 dcbe 62a5 03bd 5968 583e
00000070: 919d b23e 25bf 483e b166 b6bd 40fa 84bd
00000080: 3d64 7a3e dae9 03be 0b18 60bd 690a 293e
00000090: a35f 5c3e 3e3e 7abe b6b1 913e 2d34 a73e
000000a0: aa68 843e b589 50be da69 203e bf02 3e3e
000000b0: f1d6 af3f ba55 99be 05f3 a8bd b1a6 cb3e
000000c0: 8a09 da3d 893c b5bb e7d7 80bc d6b2 3f3e
000000d0: 9304 1bbb eca9 9f3c 38a3 0c3e 72ca bbbe
000000e0: 87db 283d 5b8d 0c3d 7c52 e83b 3290 b9be
000000f0: e2a9 5d3f 092b 35be ff75 aebd e6a8 d4be
00000100: efa2 d23c 3e94 d13e aa50 4ebe 5b40 bcbd
00000110: dad5 69be e291 d93c 3e9e 6abf e0f8 dc3c
00000120: b8c6 18be 2466 80be 8216 553f b695 3bbe
00000130: 4547 33bf 6b66 e6bc 589a d5ba 7f90 82be
00000140: e2f4 fe3e 6d47 403f 535e 09bf 1e41 5f3d
00000150: 952f 71bf 01e0 de3e dde6 323f 8e8d 04be
00000160: b37d 59be cf59 bd3e cdf9 6cbe efc2 2b3c
00000170: 3899 abbd 2b7b 87be f5a9 4dbd 9360 b83e
00000180: f403 d13e 0575 af3d 078d 243f 0294 88be
00000190: b8b8 5d3e 5b5b 773e ba88 44bd 2dab 7c3f
000001a0: c099 cbbe 7729 66be 654b b03c f9e9 103d
000001b0: ecae c8bc b86c 9ebb 9e04 6c3e 0493 64ba
000001c0: ea4e fabd 2f3c 8cbc 021c de3d 5afc 593d
000001d0: 981e 1c3e ac74 d9be fe39 43be 4bbe 3bbe
000001e0: 9652 04be 8a48 3ebf 0cfe e5bc d83f 17be
000001f0: 9ec5 a73e b7ab 193f e060 d1bd f90f ed3e
00000200: efab b7be e1eb 05ba 5d99 953e a4eb 16bb
00000210: 5422 033f a445 c4be 4b2b e53e a83b 6bbc
00000220: f4d3 b43f 04a5 2b3f 0514 6f3e b326 32bf
00000230: b072 cb3e f362 20be f345 083d 56b5 c23f
00000240: a024 0cbd 6674 e4bd ab7a 373f 3d6a bd3c
00000250: 656f 02bb beac 31be 2dce 85be 24ed 51bf
00000260: 78eb 033f 44dc febe 522c 313f 42e4 9abf
00000270: 1f23 99bf 4ea5 cbbc 9b74 d7be 5589 813e
00000280: 47a7 313f f5e2 80be 4d77 15be 2495 5abe
00000290: 16f9 07bf 22ec bcbe e71f 073f 77e0 8dbf
000002a0: b7d1 ff3c cc4d 97bf 0a38 f8be 15fb df3c
000002b0: 127a aebf e38c a2bd 559a 033f 440f b13e
000002c0: 3fa1 1fbe 96b6 1d3e eace 83be 4a29 af3d
000002d0: 36ab 173e 1f22 033e cfd1 39bf 36e5 42be
000002e0: 21ae 5d3e c542 8bbe 24a0 173f 8c46 22be
000002f0: 0a55 133f c9c4 423f 7c7b 313f 4e17 5b3b
00000300: 365e 9b3a 2996 a4be 043b 6f3f 7454 753e
00000310: dc3c c8be 04b6 dbbe ea7c c43f e13b 72ba
00000320: e00d 05bd 4cf2 163e a2e2 c23b a67a dfbe
00000330: c4b5 d6be 8b4b 6bbe f5f3 a33f b0b5 67bf
00000340: fbb6 f9bc 8fb6 a9be 6f87 e23e e52e 3f3f
00000350: b334 9d3f e48a c8bd fa9d 4b3b d8e9 213f
00000360: 96c2 40bf c38e f63d c3ba 6e3e 5645 e5be
00000370: 94a9 bfbe f0fb 643b 541c aabe a7cf 94be
00000380: 9016 513f a206 2e3e 45bc 4c3e a118 24bf
00000390: ceea b2be f4f4 14be 1212 4ebd cc68 9a3e
000003a0: 23da b73c 4398 38bf 84c5 2cbf bf46 843c
000003b0: 66fc 573d 73dc 45bf a37b 4fbf a05f 563f
000003c0: 26cd d73e e0c0 d8bc dadc 073f d9c6 1fbf
000003d0: 8d6b dabe c3a5 5f3f e417 cbbe d49e 6cbe
000003e0: ab70 123f 9f01 b4bd 73a0 b7bd 48b2 eabd
000003f0: 751c 533d aaa6 2c3f 8680 a4bf 85be 27bf
0.03247589 -0.67358434 -0.094737105 -0.31027958 0.10689999 -0.33110183 -0.9295951 -0.5464533
0.52963895 0.122980334 0.1627342 -0.4699731 -0.05334599 0.38410804 -0.046056118 -0.008098967
-0.20923091 0.046729032 0.003596768 0.05594289 -0.921053 -0.004214996 -0.30420163 0.068556584
0.0014616066 -0.43043345 -0.032140143 0.21133555 0.3488584 0.19604166 -0.089063056 -0.06493044
0.244523 -0.12882176 -0.05471043 0.16507877 0.21520858 -0.24437806 0.28455895 0.32656994
0.25861102 -0.20365031 0.15665379 0.18555735 1.373747 -0.29948217 -0.08249477 0.39775613
0.10646351 -0.005530898 -0.01572795 0.18720564 -0.002365385 0.019490205 0.13734138 -0.3667789
0.041224983 0.034314495 0.007089911 -0.36242825 0.86587346 -0.17692198 -0.085186 -0.4153511
0.025712458 0.40933412 -0.20147958 -0.09191962 -0.22835484 0.02655882 -0.9164771 0.026974142
-0.14919555 -0.25077927 0.8323747 -0.18318829 -0.70030624 -0.028125009 -0.0016296608 -0.25500867
0.49796206 0.7510899 -0.5365955 0.05450546 -0.9421323 0.43530276 0.6988352 -0.12944624
-0.21239357 0.3698258 -0.23142166 0.0104834875 -0.083788335 -0.26461157 -0.05021091 0.3601118
0.40823328 0.085672416 0.6427769 -0.2667542 0.21652496 0.24155943 -0.047981955 0.98698694
-0.3976574 -0.22476755 0.021520326 0.035379384 -0.024497472 -0.0048347376 0.23048636 -0.0008719417
-0.12222083 -0.017118542 0.10845186 0.053219177 0.15246046 -0.42471826 -0.19065091 -0.1833431
-0.12922129 -0.74329436 -0.02807524 -0.14770448 0.32767957 0.6002764 -0.102235556 0.4630125
-0.35873362 -0.0005108696 0.2921857 -0.0023028636 0.51224256 -0.38334382 0.44759592 -0.014357485
1.4127183 0.6704867 0.2334748 -0.695903 0.39735937 -0.15662746 0.033269834 1.5211589
-0.034214616 -0.11155014 0.7167155 0.023121947 -0.0019902822 -0.17351052 -0.26133862 -0.8200247
0.5153117 -0.49777424 0.6920825 -1.2100909 -1.1963843 -0.024859097 -0.4208115 0.2530009
0.6939587 -0.25173154 -0.14596291 -0.21345955 -0.5311445 -0.36898905 0.52783054 -1.1084126
0.03122793 -1.1820617 -0.48480254 0.027341405 -1.3631003 -0.07937028 0.51407367 0.3458196
-0.15588854 0.15401682 -0.257438 0.08552797 0.14811406 0.12805985 -0.7258577 -0.1903275
0.21648456 -0.2719938 0.5922873 -0.15847224 0.57551634 0.7608152 0.6932905 0.0033430639
0.0011853639 -0.32145813 0.93449426 0.23957998 -0.39108932 -0.42912304 1.5350621 -0.000924049
-0.032483935 0.14740866 0.005947427 -0.4364826 -0.4193555 -0.22978036 1.2808825 -0.9051161
-0.03048276 -0.33147094 0.44243953 0.7468093 1.2281708 -0.09792116 0.0031069503 0.6324744
-0.75296915 0.120389484 0.23313431 -0.44779462 -0.37434065 0.0034940206 -0.33224738 -0.29064676
0.8167505 0.16994718 0.19993694 -0.6410008 -0.34944767 -0.14546567 -0.050310202 0.3015808
0.022442883 -0.7210733 -0.67488885 0.016147016 0.05273094 -0.77289504 -0.8104803 0.8373966
0.42148703 -0.026459157 0.5307137 -0.6241279 -0.4266018 0.8736231 -0.39666665 -0.23107463
0.5720317 -0.08789372 -0.0896615 -0.11459786 0.05154081 0.6744181 -1.2851722 -0.65525085

bias f4 [150]
00000000: ff8a 90bf 1c61 92bf d643 adbf 28be 87bf
00000010: fc77 073e 4cb1 753f 526e 303f e955 943f
00000020: f147 323f d76b 813d efbc e13f 760d eebe
00000030: d689 8abf facb da3e 3b03 e8be 3adf e3be
00000040: 8adf 27bf 4dce 433f 63f0 e93e 3d64 763f
00000050: 6437 31bf aba9 bfbd ee09 dd3e a187 b3be
00000060: c6bd 793f 4f68 e53d 3d86 75bf 0671 493d
00000070: 01bf 9b3f e031 33bf ec18 8a3f da2a 003f
00000080: 0424 f8bf b861 f7be b77d 5e3f 2545 183f
00000090: 8778 963f 3d8c 223f 34ca 81bf f57d c7be
000000a0: 555b 2f3f ac0f 2cbe ca0b 103f 9eb6 a13e
000000b0: 5ae2 b3bf 9890 43be d5d8 93be 46cf 25bf
000000c0: 0ab0 213e de1b 663e 4372 243f b165 8c3e
000000d0: 23f9 813e 647f 20be c5e4 f6be 265c 5dbf
000000e0: 7e5c cabe 0506 efbe 476c 953e 6c01 713f
000000f0: 4f97 673e 1086 803f 486c 87be 8d62 ca3f
00000100: 2719 de3d 7e47 0c3f 73c3 b9bf f5c0 c5bd
00000110: 95f7 86be 7bc7 a53e e000 873e 1908 b0bd
00000120: ed85 1c3e bce8 c5bf 09cb bf3d 8e97 10bf
00000130: a9a4 243f 8e04 a83f 5fb7 843f c897 143e
00000140: 46bf 90bd abda 6d3e 0f98 2cbf 0b45 a2be
00000150: 38a3 be3e 1537 563c d41d 46bd 3262 b6bf
00000160: 12c4 23be 7dc7 49bd dbf3 673f fa26 cbbf
00000170: 0f4c 41bd 738b 503f dab5 0fbf 8623 ff3e
00000180: f1d9 f2bd 85dd 81bf cb62 23bf cf47 173f
00000190: e354 bcbe d989 29bf ecb5 38be b98a 3cbf
000001a0: 85a1 e6be 0ef4 aa3e a69c 763f 7ed3 7a3d
000001b0: e841 27bf 715b b03f 3c28 f6be 0fd6 92bf
000001c0: 91b3 68be 15ab b5be 2077 b53e a741 903e
000001d0: 6e0c 933d ea38 babe 786e 76be de90 d5bf
000001e0: e138 de3d bf13 a8bf b32e 93bf 7551 68be
000001f0: 3549 edbd eee2 4b3f ea77 cc3f 7378 b73e
00000200: ce36 8e3e ae6b d2be 8b7d 84be a1c3 4fbf
00000210: 1826 96bf 80a9 363f 7718 acbf 7541 34be
00000220: a255 47bf d406 43be f3c6 c4bf 244f fcbe
00000230: 3c78 47bf 14b4 083f 7b76 cc3e 78b6 75bf
00000240: 280e 7c3e 8775 8a3b c09e ea3e 6077 09be
00000250: d1e2 943e cfb5 863e
-1.1292418 -1.1435885 -1.3536327 -1.0604906 0.13229364 0.9597366 0.68918335 1.1588718
0.69641024 0.06319397 1.7635783 -0.46494645 -1.0823314 0.42733747 -0.45314965 -0.44506246
-0.6557547 0.76486665 0.45691213 0.962467 -0.69225144 -0.093585335 0.43171638 -0.35064414
0.97555196 0.11201536 -0.95907956 0.049180053 1.2167665 -0.6999798 1.0788856 0.50065386
-1.9385991 -0.4831674 0.86910576 0.59480506 1.1755532 0.63495237 -1.0139832 -0.38963285
0.68498737 -0.16802853 0.5626799 0.31584638 -1.4053452 -0.19098127 -0.28876367 -0.647694
0.1578981 0.22471568 0.6423685 0.27421334 0.2538539 -0.15673596 -0.48221412 -0.8646873
-0.3952369 -0.4668428 0.29184172 0.94142795 0.22616313 1.0040913 -0.264498 1.5811325
0.10844641 0.5479659 -1.4512771 -0.09655944 -0.26360765 0.32378754 0.26367855 -0.085952945
0.15285464 -1.546165 0.09364898 -0.56481254 0.6431375 1.312639 1.036846 0.14511025
-0.070677325 0.23227946 -0.67419523 -0.316933 0.372339 0.013074656 -0.04836829 -1.4248717
-0.15992764 -0.049262512 0.9060647 -1.587127 -0.047191676 0.8146278 -0.5613686 0.4983179
-0.11857975 -1.0145727 -0.6382262 0.59093946 -0.36783513 -0.66225964 -0.18038148 -0.73649174
-0.45045105 0.33389324 0.96332777 0.06123685 -0.6533494 1.3777906 -0.4807757 -1.1471575
-0.22724749 -0.35482088 0.35442448 0.2817509 0.07180105 -0.36371547 -0.24065578 -1.6684835
0.108506925 -1.3131026 -1.1498626 -0.22687323 -0.11586229 0.7964314 1.5974095 0.35834083
0.27776188 -0.41097778 -0.25877032 -0.8115788 -1.1730375 0.71352386 -1.3444966 -0.17603095
-0.7786504 -0.19045573 -1.5373214 -0.4927913 -0.7791784 0.5339978 0.39934143 -0.9598155
0.24614775 0.004225436 0.45824242 -0.13424444 0.29079297 0.26310584

weight f4 [150, 150]
00000000: ff19 45be 6f03 a6be 944a 3bbd 4d8e c6ba
00000010: 64fa ab3e 5352 da3d 7990 093e 6e2c 9abc
00000020: 225e 733d afa9 febe 9e05 27be 26f6 aa3e
00000030: da1a a7bd fd0e b1ba 4397 bfbe cf00 43bd
00000040: 5612 48be a8f5 0fbd 511e 45be a7eb 00bf
00000050: 5130 09be a6fd 10bd 3e9b ac3e 36a1 2f3e
00000060: 3d05 3e3e 5f9d ab3e 1345 1dbe 9f10 8f3e
00000070: 000b 3b3d eb3a 04bf 867e 9e3c b942 e4bd
00000080: 4d66 8dbe 386d dfbd 510e b8be 2536 b63d
00000090: afa4 1a3e be13 1abf 5dd5 a0be 5c64 40be
000000a0: f0c8 c4bd 151f ab3e 7a31 adbd ce06 7f3c
000000b0: 7819 cd3d 7720 4dbe cda0 5dbf 7922 543d
000000c0: ee07 82bf a546 22be 60e8 a7ba 0281 fabc
000000d0: 2b5c 553c 46f5 2cbd 16af a73d ac84 e2be
000000e0: 6963 513d 2889 29be b9b1 88bd 442e 493e
000000f0: aa9f c6be c600 33be 149a 283c da67 c0bd
00000100: a0ed a8be e8d9 373e 12b0 44be 751d 283e
00000110: 5b24 80be 709b 153e d0bc 8f3b 7e5a 53be
00000120: 2640 febd 9b53 debe 6f1d 503e 7593 bc3d
00000130: 00ea 113f 6a20 8f3e c430 263e ff99 913e
00000140: 4580 353e 8127 5dbe e91b d73e c2b8 d23d
00000150: cf52 aa3d 8da3 5e3c be08 84bd 79df 9e3e
00000160: 2180 d63c 01a1 84bd ab26 04bf 4b14 e53d
00000170: 7dc3 823e 9b20 d63d cf86 63be 46b8 f93e
00000180: 38e6 c8be b3f3 fe3e f9d0 cebd 89e3 e43d
00000190: 3f05 98bb 95cd 383e 0dd1 c73c e63a 523e
000001a0: b16d 213e 1a10 163f 5997 713e 22a6 833e
000001b0: 5913 903e 7578 d23c f600 cd3d 05cc 2ebe
000001c0: 17d2 8abc 2f0f 583e 774a 923e f0de 113e
000001d0: 32e9 3cbe c7b5 36be 0d34 1dbe 88b6 49bd
000001e0: fe7a 3fbe 5ad6 00be 10be 853d e36e 9e3d
000001f0: 9960 0cbe 17a3 553e d2ce 253e 2efe 37bb
00000200: 077e d4bc c5ba 553e c129 c6bd 548a 6bbe
00000210: 6640 0e3f 842e 2f3e 0bc3 5fbe df6e 0abe
00000220: f6a5 c8bd 080c 2bbc 589f 6e3e 0da8 193d
00000230: 659c 48be c729 5d3d 3520 a3be e600 953d
00000240: adc3 12be 8677 aebd 4395 8c3e dea5 943d
00000250: 7162 653e 50fb ddbe 674b e53e ee6b 8ebd
00000260: a0d5 753d 3f04 9bbd 7a62 07bf 77ee 10bf
00000270: 8e10 913d c69a 07be 5f84 903d eb83 b03e
00000280: 1fdd 5fbe c2e8 98bd d745 95bc 524e 4ebe
00000290: 73a9 443e d65a 6c3d 23e9 30bd a295 0c3f
000002a0: d037 1f3c 940c 9c3e ed62 a9bb 9540 ec3d
000002b0: 4367 373e 799b 61be 77be d43d 93ed c8be
000002c0: 16ac 9fbd f6fb 8f3e 5982 083e 577f 1f3f
000002d0: 1800 98be 998b ae3d bb1c 3b3d 7fc6 16bc
000002e0: 3760 713e 7896 4abd 9a37 303e 66fd 903e
000002f0: 8c6a 81bd 2b3b 0f3d f727 a1be 2912 64be
00000300: 7567 b4bc 6937 833d dc30 263d 8aed 043e
00000310: 1dc5 7fbd 6a45 0e3e a357 af3c 1012 69bc
00000320: dd70 1d3e 37fc b4bd c70a 233e f5f6 55be
00000330: f912 55be 78ea 8d3e f579 833e 3eb1 f03c
00000340: 0687 f2bc b334 56be 45ce 173e 7576 a6bd
00000350: 0f53 68bb 361d 81be 044d afbe 7cbf c7bc
00000360: e835 29be c207 833f 0706 1d3d 748a dc3b
00000370: db56 333e 14c7 653e 4ee8 51bd 4a51 8aba
00000380: 6584 56bc 5f07 07bc 58f7 85bd bdf2 b1bd
00000390: 0449 153d 2bbe 4bbe 4d24 3d3d c8f3 43be
000003a0: 4be8 953e abfe 593e 101c a03e 9d43 31be
000003b0: 1a6f 68be 5488 2abe 081c ddbc 92fa 9cbe
000003c0: c17b 8c3e ecd1 343f 1693 6b3d c211 fb3e
000003d0: fae5 e8bd 120d 6e3d bac7 d33d 922f 96bd
000003e0: e1ab be3c 44f4 213d 1649 8e3d 461c 10be
000003f0: 8120 bb3e c42b 753d 0cd1 f93e 8739 0d3c
-0.19248198 -0.32424495 -0.04572542 -0.001514861 0.3358947 0.10660233 0.13434018 -0.018820014
0.059415944 -0.49738833 -0.16310737 0.3339092 -0.081594184 -0.0013508495 -0.3742009 -0.047608193
-0.19538245 -0.035146385 -0.19249846 -0.50359577 -0.13397337 -0.035398148 0.3371219 0.17151341
0.18556686 0.33518502 -0.15358381 0.27942368 0.045664787 -0.516524 0.01934744 -0.11145539
-0.27617112 -0.10909504 -0.35948423 0.08897046 0.15101884 -0.60186374 -0.31412783 -0.18788284
-0.09608638 0.3342215 -0.084567025 0.015565587 0.100146234 -0.20031916 -0.8657349 0.05179069
-1.015867 -0.15847261 -0.0012810342 -0.030579094 0.013022463 -0.0422261 0.08187692 -0.44241846
0.051120196 -0.16556227 -0.06674523 0.19646555 -0.3879369 -0.17480764 0.010290641 -0.09394808
-0.32993793 0.17954218 -0.1920779 0.16417487 -0.25027737 0.14610076 0.004386522 -0.20639989
-0.12414579 -0.4342316 0.20323728 0.09207813 0.5699768 0.27954417 0.1622954 0.28437802
0.17724712 -0.21597101 0.4201348 0.10289146 0.08316576 0.013588798 -0.0644698 0.3102987
0.026184143 -0.064760216 -0.516215 0.11185511 0.2553977 0.10455438 -0.22219394 0.48773402
-0.39238143 0.49795303 -0.10098452 0.111762114 -0.0046392973 0.18047173 0.024391675 0.2053028
0.157645 0.5861832 0.23592891 0.25712687 0.2813976 0.025692204 0.10009949 -0.17070015
-0.016945882 0.21099542 0.28572437 0.142452 -0.18448332 -0.1784278 -0.15351887 -0.04924634
-0.18699262 -0.12581769 0.06530392 0.07735994 -0.13708724 0.20862995 0.16192177 -0.0028075087
-0.025939 0.20872028 -0.09675933 -0.23001987 0.55567014 0.17107588 -0.21851747 -0.13518856
-0.097972795 -0.01043988 0.23302972 0.03751378 -0.1959091 0.05399492 -0.3186051 0.07275562
-0.14332457 -0.08518891 0.27457628 0.07258199 0.22400834 -0.433558 0.4478409 -0.0695418
0.06001818 -0.07569169 -0.5288464 -0.5661387 0.07083236 -0.13242635 0.07056498 0.34475645
-0.21861695 -0.0746627 -0.018221779 -0.20147064 0.19205265 0.057703815 -0.043191087 0.5491582
0.009717897 0.30478346 -0.0051692636 0.115357555 0.17910485 -0.22031964 0.10387891 -0.39243755
-0.07796495 0.28121918 0.13330974 0.6230368 -0.29687572 0.0852272 0.045681696 -0.009202599
0.2357186 -0.049459904 0.1720871 0.28318328 -0.0631915 0.034968536 -0.31475803 -0.22272553
-0.022021988 0.06407053 0.04057394 0.12981239 -0.06244384 0.13893667 0.021404093 -0.014225498
0.15375085 -0.08837169 0.1592208 -0.20894988 -0.20808019 0.27717948 0.25678983 0.02938139
-0.0296054 -0.2091854 0.1482478 -0.08128063 -0.0035449897 -0.252176 -0.34238446 -0.024383299
-0.1652447 1.0236742 0.038335826 0.006730372 0.17513601 0.22439224 -0.051246934 -0.001055279
-0.013093089 -0.0082415035 -0.06541318 -0.08688877 0.036446586 -0.19896762 0.046177197 -0.19135964
0.29278788 0.21288554 0.3127141 -0.17310949 -0.22698632 -0.16653568 -0.026990905 -0.3065992
0.27438167 0.70632815 0.05751332 0.49036986 -0.113719895 0.058117934 0.10340829 -0.07333292
0.023275318 0.03953959 0.06947534 -0.14073285 0.36548236 0.05985619 0.48792303 0.008619673

bias f4 [150]
00000000: e376 a33e 339b cfbd f6e1 43be 4965 b7bc
00000010: 5970 0fbf e821 cb3e 539e 0fbd 83e1 ee3e
00000020: 653a 803e 05ca 22be 3800 26be 3d7f 10be
00000030: 1c0c a5be 9062 743e eaff cf3e a3de 053f
00000040: 56f4 c03e 5625 7f3c 67ad 413f 04ea 313f
00000050: 2024 293e 6f46 03bd 7de3 99be 1dd9 51bf
00000060: f7a6 99be 2452 d63d f6e2 14bd a444 b4be
00000070: 452f 9c3e 747d 60bc c5c2 493f fa84 0e3f
00000080: fe24 f4bd d881 b03d d0ef 283e 4815 4b3f
00000090: 602d 953e 432b 46bd 7c9d 043f a06a 823e
000000a0: 9eab fd3e bdb8 82bf d73e b83e 0f7f 1bba
000000b0: 0579 453f bb0b c4be 05fc 453c 7f40 39be
000000c0: 78bd 953e 4f60 f13e 8a00 ee3b f9a6 2d3e
000000d0: 9c05 16be 9eff dfbe f683 a13e 23bc ca3e
000000e0: 61af c9be 49cb a23e 6cae 2c3e 3515 72be
000000f0: 545e 1f3e c4a0 153e aa5c 9fbd 3281 e6be
00000100: 3a45 ebbe a5b8 903f 153a 35bd f0c9 55bf
00000110: da3c 993e a8dd f33c c54d acbe 660a 82bf
00000120: 4b69 0e3e f550 ca3b 6aec 42be 7ee7 14bd
00000130: 48e2 5dbe a97a 11bf 850d 9bbe 112a edbe
00000140: 5035 96bb 7c7d e03e 1942 81be ec6c 39bf
00000150: f30e 393d 9798 ae3e 0a5b 92bf 5c35 e63e
00000160: 9622 d2bd 8278 ae3c e9d9 fe3e 40bc 163e
00000170: e6fb 953e 7bc6 32bd ad69 a5bd 172e 2f3e
00000180: 9ebd be3e 2a27 1bbf e475 6abe e146 5d3d
00000190: 6197 cdbe 9175 f03c 6449 c23e 4feb 0abf
000001a0: 6197 9f3e 3c36 27be 01eb acbe 1d75 70be
000001b0: 2553 5d3e fa93 c6bd b4a6 96be ee3e fa3d
000001c0: 1dfa bb3e edfb 30be 27ba 40bf c569 da3d
000001d0: 6aee 14bd cbbe c1bc 9002 91be 2771 083f
000001e0: 303f bdbe d5ac 90bd 37f4 423c fb9a 2fbe
000001f0: 3b5d 3fbe 000c 8dbd f7b8 99be 7c32 77be
00000200: f61c b93e 5420 cd3e f9c0 09bd 9a56 743e
00000210: f0d1 d2bc f471 ecbe ff15 d83e 4c75 a2be
00000220: 9754 36be 1250 63bd 608b a33e 3811 e6be
00000230: 817a 1fbd 94f4 bd3e bb92 813e b037 82be
00000240: fedd 06ba 7522 b2be da3f ccbe 3f03 c0be
00000250: 6170 72be f7da 5b3f
0.3192664 -0.10137024 -0.19129166 -0.022387164 -0.56030804 0.39674306 -0.0350631 0.46656427
0.25044551 -0.15897377 -0.16211021 -0.14111038 -0.322358 0.23865724 0.40624934 0.5229284
0.37686414 0.015572866 0.75655216 0.69497705 0.16517687 -0.032049593 -0.30056372 -0.81971914
-0.30010197 0.10464886 -0.03634926 -0.3520862 0.30504814 -0.013701785 0.7881282 0.55671656
-0.11921118 0.08618516 0.16497731 0.7932935 0.2913618 -0.0483811 0.518028 0.25471973
0.49544996 -1.0212628 0.35985443 -0.0005931714 0.77137786 -0.382902 0.012084012 -0.1809101
0.29246116 0.4714379 0.007263248 0.16958226 -0.14650577 -0.43749708 0.3154599 0.39596662
-0.39391616 0.3179572 0.16863412 -0.23640902 0.15563327 0.14612108 -0.07781346 -0.45020443
-0.45951253 1.1306349 -0.044244844 -0.8351126 0.2992924 0.02976878 -0.33653083 -1.0159423
0.13907354 0.0061742016 -0.19035497 -0.03635358 -0.2166835 -0.5682779 -0.30283752 -0.46321157
-0.004583992 0.43845737 -0.2524574 -0.72431827 0.045180272 0.34100792 -1.1434033 0.44962585
-0.10260503 0.021297697 0.49775627 0.14720249 0.29293746 -0.043646317 -0.08076797 0.17107426
0.3725404 -0.60606635 -0.22896534 0.054022674 -0.40154555 0.029352935 0.37946618 -0.542653
0.3117018 -0.16329283 -0.33773044 -0.23482175 0.21613748 -0.09696193 -0.2942406 0.12219034
0.3671426 -0.17283602 -0.75284046 0.10664705 -0.036360182 -0.023650547 -0.28322268 0.53297657
-0.3696227 -0.07064215 0.011899046 -0.17148964 -0.18687908 -0.068870544 -0.3002393 -0.24140352
0.36154908 0.40063727 -0.0336313 0.23861161 -0.025734872 -0.4618069 0.42204282 -0.31730115
-0.17805706 -0.055496283 0.31942272 -0.44935012 -0.03893519 0.3710066 0.2530726 -0.2543311
-0.0005144774 -0.34791914 -0.39892465 -0.37502477 -0.23675682 0.8588099

weight f4 [1, 150]
00000000: d973 4f3d 2837 97bd 9e18 7ebd e9a4 f83a
00000010: cb60 e1bd 6c41 b33c fc5d ddb9 785c 063e
00000020: f774 803d f154 bfbc a272 78be 771f cbbd
00000030: e230 95bd 1106 d33d b143 863d f556 883d
00000040: 23fb ca3d fa31 a7ba 8279 073e 2467 143e
00000050: 1a83 e03d a5e7 b23a 208d 76bd c54b 3bbe
00000060: 627a 8abd c930 88ba 3cc4 553b b8c6 4cbd
00000070: 6f31 dd3d b832 b9b9 14c0 303e 4a8d 1d3e
00000080: b2c9 3fb9 9147 273d 9459 433d 421c 673e
00000090: f53b 203d 9ad7 663a e535 503d 9c95 223e
000000a0: 4aa1 393e c2e2 eebd 7437 673d 045c b2bd
000000b0: 8e22 863d 129b 8cbd 9499 0a3d fbcc 74bd
000000c0: 3f94 833d 473d 2b3e ebaf f03a 26d0 953d
000000d0: cf41 99bd d8cf 2bbd fa6f d33c 235f 7f3d
000000e0: 2a53 88be 85b8 843d 492e 503d 66d2 a2bd
000000f0: 6de9 be3d bff6 a7be 3313 61bb 0f1c 86bd
00000100: 4cf7 e1bd 458a 693e e5a1 4eb8 9523 8ebd
00000110: 0357 f53c 0357 d639 2553 74bd 2704 10bf
00000120: 22ea 793d 5854 6c3b 965f b6bd dec2 8138
00000130: c695 2b3f c266 09be 7b8c cbbd 5bed a2bd
00000140: 2019 99ba a16b a63d b439 8fbd 33f2 1dbe
00000150: ea55 0aba d4a2 843d 94d1 4cbf 0972 143e
00000160: a318 a6bd bd5a 8cbd d413 3d3e ea5f 603d
00000170: 4151 3e3d 2067 e638 4739 20bb 83ef 463d
00000180: 2bb1 3a3d 29f6 0e3f 39b2 0bbd b986 f0b9
00000190: 78b2 fdbd 3629 b9bd 1af9 d43d 315a 8fbd
000001a0: 0d38 9f3d 290b d53e b363 efbc 24bf a4bd
000001b0: 21e9 ca3c 347c dbbd 3e58 a9bc 2e32 0d3e
000001c0: a28a 333e de52 39bd 5c73 9fbd 0f42 be3d
000001d0: da4b 443a d5df 7a3a 259d 76bd b2ae bb3d
000001e0: 4f9c b2bd 55aa 993a e102 b6ba 6720 56bd
000001f0: 8893 283f 0498 333a 97c4 6cbd 40dd 2cbd
00000200: 740e e33d cad7 963d 9167 00bb 965a aa3d
00000210: 42f4 3bba 4f62 9fbd e389 293d 3db5 62bd
00000220: e2f5 8bbe 47de 4d3b 03b9 df3d f643 9fbd
00000230: a358 7fbd 6116 983d 6ab1 223d 81a1 5b3f
00000240: 0aee 9bb9 13ad 7ebd af14 2d3f 792a c9bd
00000250: c1f1 6ebd 1675 c63d
0.05064759 -0.07383567 -0.062035196 0.0018970045 -0.1100479 0.021881782 -0.0004222243 0.13121212
0.06272309 -0.023355933 -0.24262479 -0.09918111 -0.07284714 0.103038915 0.0655588 0.06657211
0.09911182 -0.0012755983 0.13229945 0.1449247 0.10962506 0.0013649358 -0.06019318 -0.18290623
-0.06761624 -0.0010390516 0.0032618186 -0.0499942 0.10800444 -0.00035323738 0.17260772 0.15385929
-0.00018290317 0.040839735 0.04769285 0.22569373 0.03911968 0.0008805931 0.050832648 0.15877384
0.18127933 -0.11664344 0.05644937 -0.08708957 0.065495595 -0.06865515 0.03383787 -0.059765797
0.0642476 0.16722594 0.0018362975 0.07315092 -0.07483255 -0.041946262 0.02581023 0.06234659
-0.2662595 0.06480507 0.05082539 -0.079502866 0.09321866 -0.3280544 -0.003434372 -0.065483205
-0.11033496 0.22806652 -4.9265003e-05 -0.069403805 0.029948717 0.0004088209 -0.059649605 -0.56256336
0.061014302 0.0036061015 -0.0890495 6.187496e-05 0.6702541 -0.13418105 -0.09938904 -0.07955428
-0.0011680461 0.08125997 -0.06993428 -0.15424423 -0.00052770844 0.064763695 -0.8000729 0.14496626
-0.08110168 -0.068532445 0.18464595 0.05477897 0.04646421 0.00010986463 -0.0024448202 0.04856826
0.045579117 0.5584436 -0.034105513 -0.00045876743 -0.12387556 -0.090410635 0.10399075 -0.069996245
0.07774363 0.41610077 -0.029222345 -0.0804427 0.024769368 -0.10717049 -0.02067196 0.13788673
0.17533353 -0.045245044 -0.07785675 0.092899434 0.00074881094 0.0009570097 -0.06020846 0.0916418
-0.0872122 0.0011723737 -0.0013886356 -0.052276995 0.65850115 0.000685096 -0.05780467 -0.042203188
0.11086741 0.07365377 -0.001959298 0.08318059 -0.0007169881 -0.07782423 0.041391265 -0.055348624
-0.2733603 0.0031413005 0.1092396 -0.077766344 -0.06234039 0.074261434 0.039719976 0.8579331
-0.00029741257 -0.062176775 0.67609686 -0.09822554 -0.058336023 0.09690301
