scripts/distance/100-100-100/500k_nn_ssm_distance.pt (torch, 92305 bytes, 7 tensors)

weight f4 [100, 15]
0	0xbef6a4e4	-0.48172677
1	0xbe514aa8	-0.20438635
2	0xbe92f571	-0.28702882
3	0x3bd11c2a	0.0063815312
4	0xbe2261ff	-0.15857695
5	0xbde58c5c	-0.11208412
6	0xbd98c9c5	-0.074603595
7	0xbee6319a	-0.44959718
8	0xbeb65ab9	-0.3561609
9	0x3de8bd93	0.113642834
10	0xbdff83cc	-0.1247631
11	0x3c0785bc	0.008271631
12	0xbf4527e8	-0.7701402
13	0x3e8ec733	0.27886352
14	0x3ee455cd	0.4459671
15	0xbe6de5d7	-0.23232208
16	0xbd0ad4fa	-0.033894517
17	0xbe4aa875	-0.19790824
18	0x3eace5ef	0.33769175
19	0xbecba0fa	-0.39771253
20	0x3c98ca8a	0.018651266
21	0x3e86a7d7	0.26299927
22	0x3e5218a3	0.2051721
23	0x3ebc50a7	0.36780283
24	0xbda16cf4	-0.07882109
25	0x3f1a29c0	0.60219955
26	0x3d855726	0.06510763
27	0xbf05e155	-0.52296954
28	0x3b0b741b	0.002127892
29	0x3d1c1e81	0.03811503
30	0xbfb9efd3	-1.4526314
31	0x400605c0	2.094101
32	0x3ff2ff1e	1.8984106
33	0x3a31aed5	0.0006778066
34	0x3f7d03fd	0.9883421
35	0x3e841920	0.2580042
36	0x3f96c5f5	1.1779162
37	0xbf9c9a90	-1.2234669
38	0xbf94bc12	-1.1619895
39	0x3e4e0850	0.20120358
40	0xbf00d2e4	-0.50321794
41	0xbdcefff5	-0.10107414
42	0x3e12dc08	0.14341748
43	0x3e7ebd30	0.24876857
44	0x3d9a1fdc	0.07525608
45	0xbe8846c3	-0.26616487
46	0x3e94ef85	0.2908899
47	0x3e9c0313	0.30471095
48	0x3eb0c657	0.3452632
49	0x3e19a726	0.15005168
50	0x3c9054a8	0.017618492
51	0xbd5d8cf9	-0.05408952
52	0x3e54bd21	0.20775272
53	0x3e9657c2	0.2936383
54	0x3ec38182	0.38184744
55	0x3e0499e6	0.12949333
56	0x3e04f1b9	0.12982835
57	0xbda3f5bb	-0.08005854
58	0xbef90043	-0.48633012
59	0x3c8fc013	0.017547643
60	0xbee39d9c	-0.44456184
61	0xbe39c2ee	-0.18140766
62	0xbe0f2298	-0.1397804
63	0xbd533b50	-0.051570237
64	0xbdb75c84	-0.08953193
65	0xbcc7e827	-0.024402691
66	0xbf1be672	-0.60898507
67	0xbe7fa9b1	-0.24967076
68	0xbe074687	-0.13210498
69	0xbd869e7d	-0.06573198
70	0xbd0920e8	-0.033478647
71	0xbb4c5aa1	-0.0031181949
72	0xbf64473f	-0.8917121
73	0xbf1404d9	-0.57819897
74	0x3e7ef382	0.24897578
75	0xbe81ace3	-0.25327215
76	0x3ee97d5f	0.45603463
77	0x3f0bf8b5	0.5467637
78	0x3f1092bd	0.56473905
79	0xbed842f3	-0.42238578
80	0xbdffd3e3	-0.12491586
81	0x3c9859f1	0.018597575
82	0x3ead49c9	0.33845356
83	0x3e2ed6d1	0.17074133
84	0x3f1d3ab3	0.6141769
85	0xbec94560	-0.3931074
86	0xbe616c3f	-0.22013949
87	0x3e6bbc43	0.23021035
88	0x3e8fb062	0.28064257
89	0xbca3b52a	-0.019983847
90	0x3e004acd	0.12528534
91	0x3e8305e3	0.2559043
92	0x3ea0ae23	0.31382856
93	0xbe9e4d61	-0.3091841
94	0xbf9ce85c	-1.225841
95	0xbf85192b	-1.0398306
96	0xbe0c2c4c	-0.13688773
97	0xbe46cf52	-0.19415024
98	0xbdfcb370	-0.123389125
99	0x3d80eb54	0.06294885
100	0x3e2e9fe8	0.17053187
101	0xbd8bcc63	-0.06826093
102	0xbd44edc6	-0.04807832
103	0xbe9f3770	-0.31096983
104	0xbc2233a7	-0.00990001
105	0x3edbe5fe	0.42948908
106	0x3e85af8e	0.261105
107	0x3eade9bf	0.33967397
108	0x3d287de7	0.041135695
109	0x3da783c8	0.08179432
110	0x3cb1778e	0.021663453
111	0x3f3d8764	0.74034715
112	0x3f21cc46	0.6320232
113	0x3f011b57	0.5043234
114	0xbe29f0a7	-0.16595708
115	0x3e0b2a84	0.13590437
116	0x3c0445e3	0.008073303
117	0xbf6c24c4	-0.922436
118	0x3e5284df	0.20558499
119	0x3e52f73d	0.20602126
120	0x3e5ab561	0.21358253
121	0x3f34a5ba	0.7056538
122	0x3f5d856e	0.8653172
123	0xbe232585	-0.15932281
124	0xbeb7a7a1	-0.35870078
125	0xbda6c268	-0.08142549
126	0xbe3af423	-0.18257193
127	0xbe35c715	-0.17751725
128	0xbd4cec42	-0.05003
129	0xbdcbdfa2	-0.09954764
130	0xbead3751	-0.33831266
131	0xbdd70631	-0.10499228
132	0x3e48be3d	0.1960382
133	0xbf109787	-0.5648121
134	0xbd97564a	-0.07389505
135	0x3ea4deb4	0.3220116
136	0xbd99837f	-0.07495784
137	0xbd969347	-0.0735231
138	0x3c091214	0.008366127
139	0xbde849ee	-0.11342226
140	0xbc1835ba	-0.009290153
141	0x3dcab649	0.098980494
142	0xbe6073ab	-0.21919124
143	0xbeab2741	-0.33428386
144	0x3db95a3b	0.09050413
145	0xbe1d87c7	-0.15383826
146	0xbd4c3912	-0.049859114
147	0x3f95ec38	1.1712713
148	0x3f7038a8	0.9383645
149	0x3eb70e59	0.35753134
150	0x3e0961a4	0.13416153
151	0xbd451e6f	-0.048124727
152	0xbcbf56af	-0.023356764
153	0x3ec94c7a	0.3931616
154	0x3edf8f40	0.4366398
155	0x3e0cd9c0	0.1375494
156	0xbda48002	-0.08032228
157	0xbea26be6	-0.31722945
158	0xbe938801	-0.288147
159	0x3f3c4a87	0.7355122
160	0x3f55befa	0.8349453
161	0x3ea2ad00	0.31772614
162	0xbd01a0a9	-0.031647358
163	0xbe4538f6	-0.1926001
164	0xbca7d780	-0.0204885
165	0xbdf32565	-0.11872367
166	0x3d765c0c	0.060146376
167	0x3c928bbe	0.0178889
168	0xbd3c7056	-0.04600557
169	0xbbcc5faa	-0.00623699
170	0xbcd754d7	-0.026285572
171	0xbe8fdbfe	-0.28097528
172	0x3c9408af	0.018070547
173	0x3d068bfe	0.03284835
174	0xbd3ce1f6	-0.04611393
175	0x3d58910e	0.05287271
176	0x3c9fc7df	0.019504486
177	0xbfbd81e6	-1.4805267
178	0x3e3c7d30	0.1840713
179	0x3e88df25	0.26732746
180	0x3ea7b5cf	0.32755896
181	0xbee0fa9f	-0.4394121
182	0xbe92dc62	-0.28683764
183	0x3eac7d1b	0.33689198
184	0xbf11db83	-0.56975573
185	0x3cdf9864	0.027294345
186	0x3d2bcbcc	0.041942403
187	0xbd995a8c	-0.074879736
188	0xbb2a1401	-0.0025951865
189	0x3ebac99f	0.3648195
190	0xbe5e52ba	-0.21711245
191	0x3d6bc509	0.057560954
192	0xbea126ad	-0.3147482
193	0xbf471656	-0.77768457
194	0x3c823bae	0.015897598
195	0x3eaeae2a	0.34117252
196	0xbf5ff902	-0.8748933
197	0x3e2be467	0.16786347
198	0xbd92fd8c	-0.071772665
199	0x3d93f292	0.07224001
200	0x3b575871	0.0032859112
201	0x3b950968	0.0045482405
202	0xbe3e465a	-0.18581524
203	0x3e8dbb89	0.2768214
204	0xbdabbedb	-0.08386012
205	0x3e0de150	0.13855481
206	0x3d57873b	0.0526192
207	0xbdd2b238	-0.10287899
208	0xbe145795	-0.14486535
209	0xbceeebb8	-0.029165134
210	0xbf243c22	-0.64154255
211	0xbee35bd6	-0.44406003
212	0xbeb3fd5a	-0.3515423
213	0x3daa6956	0.083208725
214	0xbe42fd1b	-0.19041865
215	0xbd324f48	-0.04353264
216	0x3e559168	0.2085625
217	0xbe9b3cb7	-0.3031976
218	0xbdfab1e8	-0.12240964
219	0x3e42c0df	0.19018887
220	0xbcd6b967	-0.026211454
221	0xb90c57d3	-0.00013384158
222	0xbee1597b	-0.4401358
223	0x3e16b78d	0.14718457
224	0xbe84fa56	-0.2597224
225	0x3c0e0a6f	0.00866948
226	0x3ec86375	0.3913838
227	0x3eaf120d	0.3419346
228	0x3d4c8294	0.049929217
229	0x3ecbc767	0.3980057
230	0x3dc78284	0.09741691
231	0x3d3345c9	0.043767724
232	0xbe8e87e0	-0.2783804
233	0xbec5a8e8	-0.38605428
234	0xbb18f1e4	-0.0023337537
235	0x3f51c1f3	0.8193657
236	0x3ec3b8be	0.38226885
237	0xbd1f46b3	-0.038885783
238	0x3ea39b3b	0.3195437
239	0x3d1e87d8	0.03870377
240	0xbe034886	-0.12820634
241	0x3cd60431	0.026125045
242	0x3bcf1797	0.006319951
243	0xbecd1ce2	-0.40061098
244	0xbef333b4	-0.47500384
245	0xbe1f8fb5	-0.15582164
246	0x3d6ef69d	0.058340658
247	0x3e7f6b60	0.24943304
248	0x3e799175	0.24371894
249	0xbf2ba78b	-0.67052525
250	0xbf4ade54	-0.79245496
251	0xbe994d0f	-0.29941604
252	0x3c97dbaf	0.01853737
253	0x3e0f9ccc	0.14024657
254	0x3cf65677	0.030070527
255	0x3e09da8f	0.1346228

bias f4 [100]
0	0x3f2b8588	0.6700063
1	0x3dfa953b	0.12235495
2	0x3ccecc06	0.02524377
3	0x3f3b4ed7	0.73167175
4	0x3d956b02	0.07295801
5	0xbd2900ca	-0.041260518
6	0x3d541a52	0.051782914
7	0xbf1b69c3	-0.60708255
8	0xbd93272d	-0.071852066
9	0x3f659877	0.8968577
10	0xbf321019	-0.69555813
11	0xbf82c6c5	-1.021691
12	0xbe0eba69	-0.13938297
13	0xbda7e5f2	-0.081981555
14	0xbd43c2a8	-0.04779306
15	0x3f2ae6b2	0.66758263
16	0xbf1d1a29	-0.6136804
17	0xbe58cc4e	-0.21171686
18	0xbd7afb85	-0.061275024
19	0x3d861010	0.065460324
20	0x3f610c00	0.87908936
21	0xbf231c25	-0.6371482
22	0x3d0a20c5	0.033722658
23	0xbd7eef93	-0.062240195
24	0xbea13ce9	-0.31491783
25	0x3dbabe4d	0.09118328
26	0x3d98c147	0.0745874
27	0xbf155a96	-0.5834135
28	0x3f784f95	0.9699643
29	0x3d04ca90	0.03241974
30	0xbe884275	-0.26613203
31	0xbd496b6f	-0.049174722
32	0xba154d37	-0.0005695405
33	0x3f4bfc32	0.79681695
34	0x3f2ef57b	0.68343323
35	0xbcce5ad3	-0.025189793
36	0x3f3f4f5a	0.74730456
37	0xbd906f30	-0.07052457
38	0xbf29bcbc	-0.6630361
39	0x3f2bf31c	0.6716783
40	0xbce559b0	-0.027996868
41	0xbe7adb9d	-0.24497838
42	0xbdefc512	-0.1170751
43	0x3de7770c	0.11302003
44	0xbf484018	-0.782228
45	0xbdefb778	-0.11704916
46	0xbdc76e61	-0.0973785
47	0xbc91c721	-0.017795147
48	0x3d090c62	0.033459075
49	0x3e150cab	0.14555614
50	0xbd6dfeda	-0.058104374
51	0x3ceb4264	0.028718181
52	0xbf4fd5ff	-0.8118591
53	0x3f757096	0.9587492
54	0xbf4f4c09	-0.80975395
55	0xbf6d4561	-0.9268399
56	0xbf8ac4ff	-1.0841368
57	0xbf97d9be	-1.1863325
58	0xbc8ed511	-0.017435582
59	0xbd120fc3	-0.035659563
60	0x3e41473c	0.1887483
61	0x3dca951a	0.0989172
62	0xbf5c4c55	-0.86053973
63	0xbe18ee2f	-0.1493461
64	0x3f13ca93	0.5773098
65	0xbbab1fea	-0.0052223103
66	0xbad31b5e	-0.0016106179
67	0xbc15288d	-0.009103906
68	0xbf44aee8	-0.76829386
69	0x3e8e5b64	0.278041
70	0x3d8410fa	0.064485505
71	0x3f818046	1.0117271
72	0x3f87db7b	1.0613855
73	0xbca1cc5a	-0.019750763
74	0x3f4a8f6b	0.7912509
75	0xbd14bd41	-0.0363133
76	0x3fb62fbf	1.4233321
77	0x3fea3a39	1.8299018
78	0xbc32f77c	-0.010923263
79	0x3d61645a	0.055027343
80	0x3f31fffe	0.6953124
81	0x3e50e108	0.20398343
82	0x3d13aad4	0.036051586
83	0xbf0b251e	-0.5435351
84	0x3ea24a59	0.31697348
85	0x3d3ab572	0.045583196
86	0x3f80512f	1.0024775
87	0x3cff9c86	0.031202566
88	0x3e884930	0.26618338
89	0x3f8fc089	1.1230632
90	0x3cd35e3d	0.025801772
91	0x3f63223a	0.887241
92	0x3f11be2a	0.5693079
93	0xbe07f432	-0.13276747
94	0x3fa642e0	1.2989159
95	0xbf3f5e0f	-0.747529
96	0xbfa2e65d	-1.2726551
97	0x3d599c5d	0.053127635
98	0x3de28bc3	0.11061814
99	0x3f152593	0.5826046

weight f4 [100, 100]
0	0xbe37acdf	-0.17937039
1	0xbf9b6df8	-1.2142935
2	0x3f4d6ba5	0.8024238
3	0x3e67debf	0.22643565
4	0x3ec5d7b5	0.38641134
5	0xbd9ea6a9	-0.07746632
6	0xbefd63b5	-0.49490133
7	0x3e86670d	0.26250497
8	0x3e580a76	0.2109774
9	0xbd77d820	-0.060508847
10	0x3eb1b462	0.34707934
11	0x3e6bafe1	0.23016311
12	0x3e658b49	0.22416414
13	0x3dc9b1f3	0.09848394
14	0x3c14bad9	0.009077751
15	0x3ec0a752	0.37627655
16	0xbd34b0d2	-0.04411394
17	0xbe2a6e57	-0.16643654
18	0x3fcaa500	1.5831604
19	0x3e803556	0.25040692
20	0xbf2bccfa	-0.67109644
21	0xba763289	-0.00093916856
22	0x3f55d785	0.8353198
23	0xbf40a971	-0.7525855
24	0x3c1ddedd	0.009635654
25	0x3f2e83d7	0.6816992
26	0x3f17b35c	0.59258056
27	0xbf2e7a48	-0.68155336
28	0xbfc87f66	-1.5663879
29	0xbe26add2	-0.16277245
30	0xbf8ab61c	-1.0836825
31	0xbe29b07b	-0.16571228
32	0xbd0181b8	-0.03161785
33	0x3cfb2ca1	0.03066093
34	0x3ea35f9b	0.3190888
35	0xbbaaaa8e	-0.00520832
36	0xbcb8f4b5	-0.022577623
37	0x3ef42fc1	0.47692683
38	0xbd41c3c9	-0.047305856
39	0x3f05a9cc	0.52212214
40	0x3c1320a2	0.008979948
41	0xbe63d2d5	-0.22248395
42	0xbefc337a	-0.49258024
43	0x3ec4ebff	0.384613
44	0x3ebd6710	0.36992693
45	0xbcabe947	-0.020985259
46	0xbe375de9	-0.17906918
47	0xc056ec7c	-3.3581839
48	0xbc63b1c6	-0.013897365
49	0x3fba04f2	1.4532759
50	0xbe83c8c1	-0.257391
51	0x3f6aa188	0.9165273
52	0x3d8d4c65	0.06899337
53	0xbd2efa74	-0.04271932
54	0xbeacce91	-0.33751348
55	0xbe33ba90	-0.17551637
56	0x3e31cafe	0.17362592
57	0xbe8c3f4f	-0.2739205
58	0xbe6f9fb7	-0.2340077
59	0x3df001fb	0.11719128
60	0x3f29f81c	0.6639421
61	0xbe95f340	-0.29287148
62	0x3d83ed94	0.06441799
63	0xbecbe9a8	-0.39826703
64	0x3c516a00	0.01278162
65	0xbeb4f4f7	-0.35343143
66	0x3e581c51	0.21104552
67	0xbf39e220	-0.72610664
68	0xbeb4f81c	-0.35345542
69	0xbf937733	-1.1520752
70	0xc0061543	-2.0950477
71	0xbe8e1d38	-0.27756667
72	0xbe1e1d0a	-0.15440765
73	0xbe87d995	-0.2653319
74	0xbe94df3a	-0.29076558
75	0x3f5b9aab	0.8578288
76	0xbdc17f8d	-0.094481565
77	0xbf0373a4	-0.5134833
78	0x3ef5512d	0.47913495
79	0xbf0b893a	-0.54506266
80	0xbd680ce9	-0.056652937
81	0xbfa4d01f	-1.2876014
82	0x3f9be873	1.2180313
83	0x3d88b6eb	0.06675514
84	0xbda5a1a7	-0.08087473
85	0xbf7cb83f	-0.9871864
86	0x3d8a063c	0.0673947
87	0xbe8e87ba	-0.27837926
88	0xbe40cecd	-0.18828888
89	0x3e0f9a7b	0.14023773
90	0x3eac099f	0.3360109
91	0xbd962e68	-0.0733307
92	0xbe96d6e3	-0.2946082
93	0x3d88dcb6	0.06682722
94	0x3e82a001	0.25512698
95	0x3e01c4e8	0.1267277
96	0xbe70da6a	-0.23520818
97	0x3e109372	0.14118746
98	0x3d06ddae	0.032926254
99	0x3e1ccd2c	0.15312642
100	0x3fa3b735	1.2790285
101	0x3e48e375	0.19618018
102	0xbec3b63b	-0.38224968
103	0xbf69c602	-0.9131776
104	0x3f94ab5a	1.1614792
105	0xbec6bf55	-0.3881785
106	0x400a6eb6	2.1630073
107	0x3fc304a4	1.5235791
108	0x3eb2e58d	0.34940758
109	0xbef760fe	-0.48316187
110	0x3ea6283a	0.32452565
111	0x3fa13881	1.2595369
112	0xbfb62472	-1.4229872
113	0x3e3329d0	0.17496419
114	0x402d29b1	2.7056696
115	0xbdbf0859	-0.09327764
116	0x3f12c6d7	0.57334656
117	0x3e6a543b	0.22883694
118	0xbe18f7ea	-0.14938322
119	0xbf44b03e	-0.76831424
120	0xbe108687	-0.14113818
121	0xbee33df2	-0.44383198
122	0x3f4dd041	0.80395895
123	0x3e6e0963	0.23245768
124	0x3fcba271	1.5908948
125	0xbff69cd0	-1.9266605
126	0x3ea570dc	0.32312667
127	0xbfe01e6f	-1.7509288
128	0xbf2c8ff4	-0.67407155
129	0x3ded24ce	0.115792856
130	0x3f27022e	0.652377
131	0x3fb2e3f0	1.3975811
132	0x3ea3a3e3	0.31960973
133	0xc019f539	-2.4055922
134	0x40206ea0	2.506752
135	0x3fb5a8be	1.4192121
136	0xbc8b968e	-0.017039564
137	0x3f271412	0.65265
138	0x3f31d17a	0.6946026
139	0xbf94afb6	-1.1616123
140	0xbfa44c58	-1.2835798
141	0xbf5c5897	-0.8607268
142	0xbf79ab4f	-0.9752702
143	0xbe71d6e8	-0.23617136
144	0x3fbf0676	1.4923847
145	0x3f0768c1	0.52894217
146	0x3e82ddff	0.25559995
147	0x3b326958	0.0027223434
148	0xbea8f016	-0.3299567
149	0x3fd82800	1.6887207
150	0x3e0e28a6	0.13882694
151	0xbf7f78d7	-0.9979376
152	0x3ec8a8e6	0.3919136
153	0xbf132c16	-0.57489145
154	0x3e8b833c	0.2724856
155	0x3f2c80f3	0.6738426
156	0x4023de5a	2.5604463
157	0x3f8b75a4	1.0895276
158	0xbea40152	-0.32032257
159	0xbe819236	-0.25306863
160	0xbe87b527	-0.26505396
161	0x3ec6de4d	0.38841477
162	0xbfc41a9d	-1.5320622
163	0x3ee81228	0.45326352
164	0xbf70ef59	-0.94115216
165	0xbf46b10d	-0.7761391
166	0xbef0ee9a	-0.4705704
167	0x3ffb931f	1.9654273
168	0x3f2b6c29	0.66961914
169	0x3e68546c	0.22688454
170	0xbd78ce20	-0.06074345
171	0xbf787a9b	-0.9706208
172	0x3f9da297	1.2315243
173	0x3ec3349a	0.3812607
174	0xbf0ed7c7	-0.55798
175	0x3de85121	0.11343599
176	0x3f43f67d	0.76547986
177	0x3d94f414	0.07273117
178	0x3e34b672	0.17647722
179	0xbf52a160	-0.8227749
180	0xbf3fc8e0	-0.74915886
181	0x3e9db4aa	0.30801898
182	0x3bbc7fd5	0.0057525435
183	0x3f2e438d	0.68071824
184	0xbee70c73	-0.45126686
185	0xbf263d76	-0.6493753
186	0xbf056761	-0.5211087
187	0xbf886229	-1.0654956
188	0xbf8e4e81	-1.1117707
189	0x3f8450cb	1.0337156
190	0x3ebd5d0a	0.36985046
191	0xbd876c75	-0.066124834
192	0x3f876e69	1.058057
193	0x3fc7d8ce	1.5613039
194	0x4008eb12	2.1393476
195	0xbe243108	-0.16034329
196	0xbf03886c	-0.5138004
197	0x3f2f2c10	0.6842661
198	0x3fc12e5b	1.5092272
199	0xbda1f073	-0.0790719
200	0x3f837481	1.0269929
201	0x3e4ad4e5	0.19807775
202	0x3c6c755c	0.0144322775
203	0x3ea9c352	0.3315683
204	0x3f0cbc26	0.5497459
205	0x3e1daa0b	0.15396897
206	0x3e9392ad	0.28822842
207	0xbf044430	-0.51666546
208	0x3eec2938	0.46125197
209	0x3f156dae	0.5837048
210	0xbf2c4682	-0.67295086
211	0x3edf7614	0.43644774
212	0xbf10c500	-0.565506
213	0xbe62aa26	-0.22135219
214	0x3d9e391f	0.07725739
215	0xbe2fe465	-0.1717697
216	0x3d9fdf5e	0.07806276
217	0x3e89f426	0.26944083
218	0xbd88575c	-0.066572875
219	0x3fa51977	1.2898396
220	0x3fd2bf8a	1.6464703
221	0x3c9f2b7b	0.019429913
222	0x3ea28f14	0.31749785
223	0xbe20b8b7	-0.15695463
224	0x3f0fd37a	0.5618206
225	0xbf37f75c	-0.71861815
226	0xbdf8a6c8	-0.12141186
227	0xbece2522	-0.40262705
228	0x3f280b46	0.656422
229	0x3eac3cb6	0.3364007
230	0x3e272224	0.16321617
231	0x3ee5c6b8	0.44878173
232	0xbecd1228	-0.40052915
233	0x3f0ca196	0.5493406
234	0x3e191cda	0.14952412
235	0xbf0739aa	-0.52822363
236	0xbb7c594d	-0.0038505376
237	0x3f433108	0.7624669
238	0xbf7423b8	-0.95367
239	0x3e535c73	0.20640735
240	0x3e3fdb57	0.18736015
241	0x3d3033aa	0.04301802
242	0x3ed45600	0.41471863
243	0xbe545d7c	-0.20738786
244	0xbfb4da5e	-1.412914
245	0x3db5aa66	0.088703915
246	0x3fa1f1c8	1.2651911
247	0xbe8fa7eb	-0.280578
248	0x3f58f2b2	0.84745324
249	0x3f19725c	0.59940124
250	0xbe34d9bd	-0.17661186
251	0x3db053a2	0.08609702
252	0xbf6bd866	-0.9212707
253	0x3cd06305	0.025437841
254	0xbf8e036c	-1.1094794
255	0xbf348734	-0.70518804

bias f4 [100]
0	0x3e47d919	0.1951641
1	0xbf86eb71	-1.0540601
2	0xbf9a58b8	-1.2058325
3	0xbf181390	-0.5940485
4	0x3fdc47ac	1.7209373
5	0x3d02d974	0.03194566
6	0x3f5175ec	0.8182056
7	0xbf593fe1	-0.84863096
8	0xbf8c1d36	-1.0946414
9	0xbfd3f496	-1.6559017
10	0xbe17bcf8	-0.1481818
11	0xbe23ca64	-0.15995175
12	0xbfa4168e	-1.2819383
13	0xbd729d27	-0.059231903
14	0xbeea540d	-0.4576725
15	0x3f8f6c8f	1.1205004
16	0x3d027d34	0.031857684
17	0xbe493b9f	-0.1965165
18	0xbec7fd97	-0.3906066
19	0x403c1bb1	2.9391901
20	0x3fa7daa8	1.3113604
21	0xbf0b7f95	-0.5449155
22	0x3d8ee44a	0.069771364
23	0xbecbc3e7	-0.397979
24	0x3ef8e390	0.48611116
25	0xbccb2cd8	-0.024801657
26	0xbf06740e	-0.52520835
27	0xbdd38120	-0.10327363
28	0xbf186b50	-0.59538746
29	0x3ec980f3	0.39356193
30	0xbf935e2c	-1.1513114
31	0x3e121c7c	0.14268678
32	0x3fb2390b	1.3923658
33	0x3dfc28cc	0.12312469
34	0x3f9d607a	1.2295067
35	0x3f630bfa	0.8869015
36	0x3fa89293	1.3169731
37	0x3edf8555	0.43656412
38	0x3f47a038	0.7797885
39	0x3bfd2288	0.0077250637
40	0xbf2d9423	-0.67804164
41	0x3f16d793	0.5892269
42	0xbdc5728d	-0.096409895
43	0x3cd7cacc	0.026341818
44	0x3f2fc309	0.68656975
45	0xbbb4d493	-0.005518505
46	0xbd9727a8	-0.07380611
47	0x3c101d41	0.008796037
48	0xbf13613a	-0.5757023
49	0x3f2d4009	0.67675835
50	0x3dac25b3	0.08405628
51	0x40545604	3.31775
52	0xc002e63e	-2.0453029
53	0xbfcd3f91	-1.6035024
54	0x3d342bcd	0.043987084
55	0x3f85398c	1.0408187
56	0xbfae3625	-1.3610274
57	0x3ef8b2a2	0.48573786
58	0xbe98f70c	-0.29875982
59	0x40237186	2.553804
60	0xbfacd065	-1.3501097
61	0xbf1ddeb8	-0.61667967
62	0x3f34dae0	0.70646477
63	0x3faf453d	1.3693005
64	0x3e3385c7	0.17531501
65	0xbf34205a	-0.70361865
66	0x3fe362c7	1.776452
67	0xbf622afe	-0.8834685
68	0x3eda3651	0.42619565
69	0xbea145d1	-0.31498578
70	0xbfc4c970	-1.5373974
71	0xbeb5938f	-0.3546414
72	0x3f06373b	0.52428025
73	0xbf334760	-0.70030785
74	0xbfb9d9fd	-1.451965
75	0xbf3347f3	-0.7003166
76	0x3ef1b04c	0.47204816
77	0xbff4816e	-1.9101999
78	0xbf907237	-1.1284856
79	0xbfafae73	-1.3725113
80	0x3ef4f487	0.4784281
81	0x3ebf0437	0.37307903
82	0x3f2f66e0	0.6851635
83	0xbfaaf4ae	-1.335592
84	0xbf90588b	-1.1277021
85	0xbf2b4bd7	-0.669126
86	0x3f73d3d2	0.9524509
87	0x3e377751	0.1791661
88	0x3e492b8d	0.1964552
89	0x3fb54791	1.4162465
90	0xbfe47eee	-1.7851236
91	0xbd56039d	-0.05224954
92	0xbf291903	-0.6605379
93	0x3f125c26	0.5717186
94	0xc0627697	-3.5384881
95	0xbdfb3d20	-0.12267518
96	0x40091922	2.142159
97	0xbe702f1f	-0.23455475
98	0xbf66fae2	-0.90226567
99	0x3fb36cb0	1.4017544

weight f4 [100, 100]
0	0xbd86ca3b	-0.06581541
1	0xbd069573	-0.03285737
2	0x3e9ea613	0.3098608
3	0x3fb58c44	1.4183431
4	0x3d679d98	0.056546777
5	0x3f308300	0.6894989
6	0xbea64814	-0.32476866
7	0x3f2e8f80	0.68187714
8	0xbec410d2	-0.38294083
9	0xbe8050fa	-0.2506178
10	0xbddca479	-0.10773558
11	0x3e1dedec	0.15422791
12	0x3ee69430	0.45034933
13	0x3e645c23	0.22300772
14	0x3f42f018	0.76147604
15	0x3f1254f9	0.5716091
16	0xbd6515a4	-0.05592884
17	0x3e841b68	0.2580216
18	0x3d6cb1d8	0.057786793
19	0xbef4d9ac	-0.4782232
20	0xbec5fe19	-0.38670424
21	0x3d0e2aca	0.034708776
22	0x3d5c13d1	0.053729836
23	0x3d367673	0.044546556
24	0x3e81ebca	0.25375205
25	0x3e817334	0.25283206
26	0xbe0df732	-0.13863829
27	0xbcf58075	-0.02996848
28	0x3f05b8f6	0.52235353
29	0x3e0904e2	0.13380769
30	0x3f0b0a7b	0.54312867
31	0xbe31191b	-0.17294733
32	0xbd88e2af	-0.066838615
33	0x3b62f806	0.0034632697
34	0x3ef10b26	0.47078818
35	0x3d087056	0.033310257
36	0x3f53ae61	0.82687956
37	0xbe744ad5	-0.23856671
38	0xbf2ffee7	-0.68748325
39	0xbdc06088	-0.09393412
40	0xbf6fdf59	-0.93700176
41	0xbef2ee74	-0.4744755
42	0x3f2e5483	0.68097705
43	0x3db7a3cd	0.089667894
44	0x3e6f1b6b	0.23350303
45	0xbe8c3a70	-0.27388334
46	0x3e2e0e63	0.16997676
47	0x3d827d96	0.0637161
48	0xbe761479	-0.24031247
49	0xbdf6ee44	-0.12057164
50	0xbe6f2706	-0.2335473
51	0xbd0c2d8c	-0.034223124
52	0x3db67683	0.08909323
53	0xbdc3afba	-0.095550016
54	0x3da8441c	0.08216116
55	0xbea9354f	-0.33048484
56	0xbf2dea6a	-0.6793581
57	0x3f2e0cce	0.6798829
58	0x3e46571c	0.19369167
59	0x3d916b41	0.07100535
60	0x3f592488	0.8482137
61	0xbd9fd061	-0.07803417
62	0x3f5d4efe	0.8644866
63	0xbea6961c	-0.325364
64	0xbea524ef	-0.3225474
65	0xbc8d795c	-0.017269783
66	0x3de5a1bf	0.11212491
67	0xbed5899a	-0.41706544
68	0xbe80c5da	-0.2515095
69	0xbe17fc7b	-0.14842407
70	0xbdd13cd7	-0.102166824
71	0xbf0dce8a	-0.5539328
72	0x3df685c5	0.12037233
73	0xbe8bed5c	-0.27329528
74	0x3e68613d	0.22693343
75	0x3e80c017	0.25146553
76	0xbe6057ff	-0.21908568
77	0x3d83b7be	0.064315304
78	0xbdb88e9e	-0.09011577
79	0xbf6db934	-0.9286072
80	0x3d6c0508	0.057621986
81	0x3f9a0f58	1.2035933
82	0x3c2a3336	0.010388186
83	0x3e4c3554	0.19942218
84	0x3f59a1b1	0.85012347
85	0x3e952df4	0.29136622
86	0xbd1de0a2	-0.038544305
87	0xbf637314	-0.8884747
88	0xbebe35a8	-0.3715031
89	0xbe3e4a22	-0.18582967
90	0xbea88942	-0.3291722
91	0x3e0fc071	0.14038254
92	0x3def5057	0.116852455
93	0x3e91db16	0.28487462
94	0x3ebeb7a7	0.3724949
95	0xbecc72c8	-0.3993132
96	0xbdcabdae	-0.0989946
97	0x3f022f25	0.50853187
98	0x3ea98bfd	0.33114615
99	0x3dddb9c2	0.10826446
100	0xbd80597b	-0.06267067
101	0x3d2f14ce	0.04274445
102	0x3e7393e3	0.23786883
103	0xbe4a9aa9	-0.1978556
104	0x3ea311d6	0.31849545
105	0xbe76d01c	-0.24102825
106	0x3d74b09c	0.05973874
107	0x3eaf5352	0.34243256
108	0xbd699b91	-0.057033125
109	0xbd48003b	-0.048828345
110	0xbdfa1659	-0.12211294
111	0x3f3006e8	0.6876054
112	0x3e96ade8	0.29429555
113	0xbd34d657	-0.044149723
114	0x3e6db4c7	0.23213492
115	0xbd94fb9f	-0.072745554
116	0x3ebb52e6	0.36586684
117	0xbcac5711	-0.02103761
118	0x3ea98c8a	0.33115035
119	0x3e967d32	0.2939239
120	0xbde653d6	-0.11246459
121	0xbe9cbc11	-0.30612233
122	0x3e90fcb5	0.283178
123	0x3cdb6b6f	0.026784627
124	0xbe4115f9	-0.18856038
125	0xbe811b1b	-0.25215992
126	0x3e88031d	0.26564875
127	0x3ec1726d	0.37782612
128	0x3e1072ff	0.14106368
129	0xbec468bb	-0.38361153
130	0xbf1faa48	-0.62369204
131	0x3f0faf64	0.56127
132	0xbd5c42ad	-0.053774524
133	0x3cb3d461	0.021951856
134	0x3e9d0954	0.3067118
135	0xbee17463	-0.4403411
136	0x3e601860	0.21884298
137	0x3d42c929	0.047555123
138	0x3eb6cfd1	0.35705426
139	0x3f2f7f15	0.68553287
140	0xbe8fdb5f	-0.28097054
141	0x3e4a33db	0.19746344
142	0xbe0864f9	-0.13319768
143	0xbdddb922	-0.10826327
144	0x3db0272d	0.08601222
145	0xbe2f458d	-0.17116375
146	0x3eb6e768	0.35723424
147	0xbf333948	-0.7000928
148	0x3e8566ff	0.26055142
149	0xbf0419a5	-0.5160163
150	0xbe5642e9	-0.20923962
151	0x3de647d2	0.112441674
152	0x3f12660a	0.5718695
153	0x3ee18621	0.44047645
154	0xbf1138c3	-0.56727237
155	0xbec20655	-0.37895456
156	0x3b881853	0.0041532903
157	0xbe516d74	-0.2045191
158	0x3daddd1c	0.08489439
159	0xbdd9b86f	-0.10630881
160	0xbec1b1f8	-0.37831092
161	0x3f0b76ac	0.54477954
162	0xbe585b8c	-0.21128672
163	0xbf00e01a	-0.5034195
164	0xbe8aff50	-0.27147913
165	0x3f8da08c	1.106462
166	0xbec276a8	-0.37981153
167	0x3ddb9b49	0.10722978
168	0x3e34bee7	0.17650948
169	0x3f5e5e10	0.8686228
170	0xbea5db5e	-0.32393926
171	0x3d5c0a31	0.053720657
172	0xbd865d1f	-0.0656073
173	0xbeacb76e	-0.33733696
174	0x3ea34f84	0.31896603
175	0x3e6912ad	0.2276103
176	0x3e36cb16	0.17850909
177	0xbd93287b	-0.071854554
178	0xbead0b26	-0.33797568
179	0x3dad5208	0.08462912
180	0x3ea8ac64	0.32944024
181	0x3f1c543b	0.61066025
182	0xbd577436	-0.05260106
183	0x3eeb8aa4	0.46004212
184	0xbe29f0e2	-0.16595796
185	0xbe11c1d1	-0.14234091
186	0xbdb81b37	-0.08989566
187	0xbe2bddcc	-0.16783828
188	0xbe96ba03	-0.2943879
189	0xbe4bc2bf	-0.19898508
190	0xbf00f106	-0.5036777
191	0xbf067fa0	-0.5253849
192	0x3ecb20b9	0.39673403
193	0xbeb823b7	-0.35964748
194	0x3e44232b	0.1915404
195	0x3f3228bc	0.69593406
196	0xbcb7c97e	-0.022434946
197	0xbeb21cc4	-0.3478757
198	0x3f126179	0.5717998
199	0x3edcf949	0.4315894
200	0x3f292c98	0.6608367
201	0x3f15823a	0.58401835
202	0x3f1a58a3	0.602915
203	0xbf2237c1	-0.63366324
204	0xbf8af086	-1.0854652
205	0xbf17b424	-0.5925925
206	0xbf8bdd94	-1.0926995
207	0x3f2a1201	0.6643372
208	0x3fb15c27	1.3856248
209	0x3fd8d1ba	1.6939003
210	0xbe064c6d	-0.13115092
211	0x3fe5bdf5	1.7948595
212	0xbe821b30	-0.25411367
213	0xc02c53e9	-2.6926215
214	0xbf6c870f	-0.92393583
215	0xbf5cee99	-0.8630157
216	0xbeb3174f	-0.3497872
217	0x3f0e2ba1	0.5553532
218	0xbf0b6b5f	-0.5446071
219	0xbd4ab5c2	-0.049489744
220	0xbe3685d0	-0.17824483
221	0x3f70466b	0.9385745
222	0x3f2a153a	0.6643864
223	0xbeb1ef48	-0.3475287
224	0x3fa28caf	1.2699183
225	0x3e36e241	0.17859747
226	0x3eb77350	0.35830164
227	0x3fa588a4	1.2932324
228	0x3f3ef239	0.7458835
229	0xbee418e8	-0.44550252
230	0xbdc2c8af	-0.095109336
231	0x3fdbcf00	1.7172546
232	0x40078c80	2.1179504
233	0xbf801043	-1.0004963
234	0xbea7981f	-0.32733247
235	0x3eeb6d61	0.45981887
236	0xbc953842	-0.018215302
237	0xbc69d7eb	-0.01427267
238	0x3f2a7be5	0.665953
239	0x3d7b4d04	0.061352745
240	0xbfb907f7	-1.4455556
241	0xbff48725	-1.9103743
242	0xbea1db69	-0.3161271
243	0xbae59ced	-0.0017518081
244	0xbf79d04c	-0.9758346
245	0x3faacb4c	1.3343291
246	0x3f6027ce	0.8756074
247	0x3f4bd918	0.79628134
248	0x3e840c56	0.25790662
249	0x3f44893f	0.7677192
250	0xbf7d3d38	-0.9892154
251	0xbe31f6ad	-0.17379256
252	0x3f8d7299	1.1050597
253	0xbeefea30	-0.46858358
254	0xbe292cbf	-0.16520976
255	0xbe0ac92c	-0.13553303

bias f4 [100]
0	0x3d058641	0.032598738
1	0xbef3263c	-0.47490108
2	0xbffa86ec	-1.9572425
3	0xbf8a52c6	-1.080651
4	0xbf487aab	-0.78312176
5	0xbf762943	-0.9615671
6	0xbf511b12	-0.8168193
7	0xbfeb2ceb	-1.8373083
8	0x3f2c089b	0.6720063
9	0xbf96fe5d	-1.1796376
10	0xbf384313	-0.7197735
11	0xbd9130c3	-0.07089379
12	0xbc09de3d	-0.008414802
13	0xbfc6d99a	-1.5535157
14	0x3f16612d	0.5874203
15	0xbe9c6e6f	-0.30553004
16	0x401dc41b	2.4650943
17	0x3f5399f6	0.826568
18	0x3efe517d	0.49671546
19	0x3f3608b4	0.7110703
20	0x3e41f266	0.18940124
21	0xbf6bb43e	-0.920719
22	0xbff1cdda	-1.8890946
23	0x3f103d94	0.5634396
24	0xbf8f6727	-1.1203355
25	0xbde551dd	-0.11197255
26	0x3c065732	0.0081995
27	0xbea8cca7	-0.32968637
28	0x3c762607	0.015023715
29	0xbf0b97e2	-0.5452863
30	0x3fb8c297	1.4434384
31	0xbe973b09	-0.29537228
32	0xbfb1aeea	-1.3881505
33	0x3fb5d582	1.4205782
34	0x3f2c392f	0.67274755
35	0x3fb02229	1.3760425
36	0xbf779fc1	-0.9672814
37	0xbfb44f87	-1.408677
38	0x404ca283	3.197419
39	0x400e9396	2.227758
40	0x3f148692	0.5801784
41	0x3f4c5c5a	0.7982842
42	0x3ed37b89	0.41305187
43	0x3f58b21a	0.8464676
44	0xbfd4c671	-1.662306
45	0x3f1d0e64	0.61350083
46	0xbdbb3943	-0.09141781
47	0xc024c60e	-2.5745883
48	0x3f192ad1	0.5983096
49	0x3d7e569b	0.062094312
50	0x3f946329	1.1592761
51	0x3ec3ba2f	0.38227984
52	0xc00a166d	-2.1576188
53	0xbf50d360	-0.8157253
54	0xbf97e2dd	-1.1866108
55	0xbdc3b007	-0.09555059
56	0xbf211c20	-0.6293354
57	0x3d9110f9	0.070833154
58	0x3f6fd037	0.93677086
59	0x3ecb7e98	0.3974502
60	0x3f551ccc	0.83247066
61	0xbf8c00fd	-1.0937802
62	0xbf9d8235	-1.2305361
63	0x3ee05fcf	0.43823096
64	0x3fb93d96	1.447192
65	0x3f160705	0.5860446
66	0xbfb9475e	-1.4474905
67	0x3e3f2f0c	0.1867029
68	0x3e83dba7	0.2575352
69	0x3f217d5d	0.63081914
70	0x3f4fdbff	0.8119506
71	0x3edaa501	0.42704013
72	0x4022a3ca	2.541247
73	0xbf1aab2b	-0.6041743
74	0x3dece0c1	0.11566306
75	0x3e86f73d	0.26360503
76	0x3e70825a	0.23487225
77	0x3e15c0c3	0.14624314
78	0x3fdd382f	1.7282771
79	0x3f875c46	1.0575035
80	0x4015bf41	2.3397982
81	0xbfe3c0d8	-1.7793226
82	0x3f0fcc44	0.5617106
83	0x3f80731f	1.0035132
84	0xbf583c60	-0.84467125
85	0x400a3c9d	2.1599495
86	0xbf8e65ca	-1.1124814
87	0x3f1879d9	0.59560925
88	0xbf2d7832	-0.6776153
89	0x3f56d8d9	0.83924633
90	0x3f987821	1.191166
91	0xbdbfda90	-0.09367859
92	0xbf5075cc	-0.81429744
93	0x3fa3fc37	1.2811345
94	0x3db40b74	0.08791247
95	0xbc716bb9	-0.014735156
96	0xbfa29bfb	-1.2703851
97	0x3db142dc	0.086553305
98	0xbfa7548d	-1.3072678
99	0xbb3fecf9	-0.0029285534

weight f4 [1, 100]
0	0xbd8a001d	-0.06738303
1	0xbd730269	-0.05932847
2	0xbe13b7de	-0.14425609
3	0xbd18abbf	-0.037273165
4	0xbda1a367	-0.07892495
5	0xbe3646a9	-0.17800392
6	0xbd0bbc5f	-0.03411519
7	0xbe2e455a	-0.17018643
8	0x3d13345b	0.035938602
9	0xbdc5d236	-0.09659235
10	0xbd72d0e5	-0.05928125
11	0xbdebd4a2	-0.11515166
12	0x392c94e1	0.0001645866
13	0xbe3f19e1	-0.18662216
14	0x3dcb0a36	0.09914057
15	0xbd38eaa6	-0.045145653
16	0x3e2d0f35	0.16900332
17	0x3ea8b712	0.32952172
18	0x3d922183	0.07135298
19	0x3dddb25d	0.10825036
20	0x3db577e7	0.0886076
21	0xbdb55282	-0.08853628
22	0xbdc5797b	-0.09642311
23	0x3db90b5a	0.09035368
24	0xbe2ef641	-0.17086126
25	0x390377fb	0.0001253783
26	0x3a1addf7	0.0005907709
27	0x3df24ee6	0.11831455
28	0xba3652b1	-0.0006955071
29	0xbe02fc6e	-0.12791607
30	0x3e2bc596	0.16774592
31	0xbd9cd69a	-0.076581195
32	0xbd676172	-0.056489415
33	0x3e08a4d0	0.13344121
34	0x3dbf2d19	0.093347736
35	0x3ecc560e	0.39909405
36	0xbe687114	-0.22699386
37	0xbdd2470c	-0.10267457
38	0x3e9752e7	0.29555437
39	0x3e6e3f22	0.23266271
40	0x3e881778	0.26580405
41	0x3e004069	0.1252457
42	0x3d858fcb	0.06521567
43	0x3d8a49f3	0.06752386
44	0xbe51a364	-0.20472485
45	0x3d5d5bc3	0.05404259
46	0x3b1c3e6c	0.0023840917
47	0xbf569764	-0.83824754
48	0x3db0505c	0.08609077
49	0xbe09ffbf	-0.13476466
50	0x3d73a15f	0.059480067
51	0x3d676690	0.056494296
52	0xbdec2841	-0.11531115
53	0xbcd8ce36	-0.026465517
54	0xbdde873b	-0.10865637
55	0x3f179ca4	0.5922339
56	0xbe0a1edc	-0.13488334
57	0x3d9f2783	0.07771208
58	0x3d9a4de8	0.07534391
59	0xbd635fad	-0.055511165
60	0x3db150e7	0.08658009
61	0xbdb89073	-0.090119265
62	0xbd2bc47c	-0.04193543
63	0x3dd9cf0f	0.106351964
64	0x3d813295	0.06308476
65	0x3d993531	0.074808486
66	0xbef8b834	-0.48578036
67	0xbf58d34f	-0.8469743
68	0x3dbff8ef	0.09373652
69	0x3d3f7748	0.046744615
70	0x3d888700	0.06666374
71	0x3da132ff	0.07871055
72	0xbfc60f18	-1.5473356
73	0xbd4602e9	-0.04834262
74	0x3f182570	0.59432125
75	0x3e06257c	0.13100237
76	0xbdce3da3	-0.1007035
77	0xbd74b263	-0.059740435
78	0x3e0f9b35	0.1402405
79	0x3db63b44	0.08898023
80	0x3f41da63	0.75723857
81	0xbde9d208	-0.114170134
82	0x3d71e793	0.059058737
83	0x3d95d229	0.073154755
84	0xbf35f190	-0.7107172
85	0x3e028a55	0.12748082
86	0xbda1ef7a	-0.07907005
87	0xbdbf8026	-0.09350614
88	0xbdc90eff	-0.098173134
89	0x3d8dfd9e	0.06933139
90	0x3dac4684	0.08411887
91	0xbdeeb825	-0.116562165
92	0xbd9ddfc4	-0.077086955
93	0x3d6154ea	0.05501262
94	0x3d008b3f	0.031382795
95	0xbd8541ad	-0.06506667
96	0xbdeb96d6	-0.11503379
97	0x3eed40ee	0.463386
98	0xbe2a73f0	-0.16645789
99	0xbb42a11f	-0.0029698086
