scripts/data/1k_nn_ssm_complete.pt (torch, 97085 bytes, 8 tensors)

weight f4 [100, 15]
00000000: 97bc 123e 540b 9ebd dba0 93be b93e af3c
00000010: f4a4 863e d885 32bc a3d6 063e daa5 77be
00000020: b1e5 a93d 07e1 d33d 5dfb cabe c12b 6b3e
00000030: 9b02 4c3d 851f 9bbe fe78 673d 78d3 a5bd
00000040: 8a67 3a3e 4968 9b3e e467 38be 00d8 803e
00000050: 9f95 5fbe 43e2 28be 36ef cc3d d0f2 e6bd
00000060: e33f 113e d962 2abe 6b5f 9d3d c7b6 6e3e
00000070: dcd5 d73d 51b4 133b f3d9 3fbe 2b68 bf3e
00000080: 2b4d 89be 6d40 98be 461a 373e 6af5 38bd
00000090: 7c30 54bd ec59 02be 8fd1 223d e811 933e
000000a0: ed63 403d 04b3 a53d 65b9 863d 2681 993e
000000b0: 8940 63bc 3936 263d 264f b33d df73 453c
000000c0: 5c55 a1bd 01c0 8b3e 2309 a83e a2ff d73d
000000d0: 8924 9abe e12d 33be 5e61 7f3e 44f8 6cbc
000000e0: 499d 71be fd5d 63be 111f 42be 1d32 6f3d
000000f0: a8f4 64be 9d74 083e 868d 9f3e 5711 35bc
00000100: efa3 89be aa8b 1e3e 6ed3 0d3d 542a 4dbe
00000110: 8af7 03bb 36b9 6f3e 6c3e 533e cf58 3abe
00000120: 5e95 873e 8081 4c3d 1d0e f2bd 723f 55bd
00000130: a1d8 833d 5c83 a7be 4e8a a73d 37d0 14be
00000140: 82d6 a5be f229 3ebd 2d77 94bd e111 bb3e
00000150: 0620 d83d 7bba 963e 196e 283e 6610 153e
00000160: 0515 b73d ce2c 8e3b 483b 3d3e 558c a53e
00000170: b912 823d 8ca2 0c3e 463c 9b3c 404f 7dbe
00000180: 07f8 5cbe fd76 86be 3eb6 2a3e 9306 933e
00000190: 61fe 4c3d 00da a53e 7633 a3be 8e77 c83d
000001a0: a67c ccbd 632c bbbc 5a43 edbd 82a3 5a3e
000001b0: 1273 233d 88c6 9fbe 8213 41be 4c6f 443d
000001c0: d3e4 a0be 12c0 a2bd a977 e9bd d09e f5bc
000001d0: abb0 f53d 5400 703e 25d9 ecbd 0cdd 703e
000001e0: d71c 90be 8323 19be a8d6 ca3d ad11 183e
000001f0: 9c6c 90be d510 8fbe 291e 683e fcdf 11bd
00000200: a996 5fbd 694a 4ebe 3ba9 ae3d 3f2e 5f3e
00000210: bb38 b53d 71e2 3fbe 6e13 1dbd bce7 9b3e
00000220: 1845 f9bb 41d1 393e 9556 29be ab08 2b3d
00000230: 3cd5 843e da7a d3bd b8c6 2d3d e2f7 a2be
00000240: 2fb4 b63e c5b8 1c3e b9d2 543e 00ad 86be
00000250: 19bd 89be 9f3b 86be 2d34 9f3e bd63 5b3e
00000260: 875a 6c3d 942e 6bbe e6ee d8bd c0f9 52be
00000270: a42f 87be 97f3 46be 18f8 0d3e 5167 223e
00000280: 7169 ac3d 1476 9a3e 3a62 a2bd 47f4 e0bd
00000290: aedc 8fbe f8ed 513e 10f1 39be cf35 a33d
000002a0: 4f7d 88be b9e8 fabb 544e aebe 2990 8dbe
000002b0: 1f98 c03d efc0 183d 7594 893d f430 d33c
000002c0: 0f89 0fbe ec90 923e 3675 e43d 9301 443e
000002d0: d4f9 abbd 0f1a cd3d e366 e5bd cdbf 8f3e
000002e0: 1cf4 dfbd 44af 65be 527d 073e fb8c e1bb
000002f0: 5313 2c3e 2b8e b6be 3c35 c23e bae2 f43d
00000300: 3fec 8c3e 13d0 8fbe bc37 67be cca1 673e
00000310: d944 853d b8ce 103e 2f81 99bd d09d 8dbe
00000320: 89a8 9a3e b9c5 6bbd 28ff 51be 0d9d e53d
00000330: 2dd3 bb3c b146 223e 61ec 12be 2e6d 82be
00000340: b41f f9bd 56c7 933e 177e bd3e 2a0b 18bd
00000350: 6ee0 673e 65f9 4b3e 104b 423e 69a7 1cbe
00000360: 3100 d4bc 0fe5 c43c 04dc 80be 49bc 7abe
00000370: 97de 133e 2f11 8f3d a6cb f4bd e157 7c3d
00000380: 4fe6 6d3e 1d3c 86be afa3 b8be 9535 ea3b
00000390: e697 853d 9494 93be 4323 b5bd f097 a5bd
000003a0: 9b0b 453d fb89 14be 1935 cd3d d8cc 903e
000003b0: cfcc 9f3e 4b20 07be a06f 8fbd 0a2e 0a3e
000003c0: dcd4 b3be 60e0 49be 11da 2a3e 49f9 673e
000003d0: 3599 02bd 5874 83bd 5ae3 0c3e c875 5f3d
000003e0: 1d06 2c3e c62d 56bd 4e55 dcbd f8a7 633e
000003f0: 225f 523d e42d aebe 7a20 083d dc7c 7ebe
0.14329754 -0.077170044 -0.2883366 0.021392213 0.26297724 -0.010896169 0.13167815 -0.24184361
0.08295763 0.10345655 -0.396449 0.2296591 0.049807172 -0.30297485 0.05651187 -0.08096975
0.1820356 0.30353 -0.18008381 0.25164795 -0.2183442 -0.16492562 0.10006563 -0.112767816
0.14184527 -0.1663927 0.07684215 0.23311912 0.10538837 0.0022537897 -0.18735485 0.3738416
-0.26816687 -0.29736653 0.17881116 -0.04515592 -0.05180405 -0.12729615 0.039750632 0.287246
0.046970297 0.08090785 0.0657833 0.29981345 -0.013870367 0.040579055 0.08755331 0.012051552
-0.07877609 0.27294925 0.3281947 0.10546805 -0.30106 -0.1749797 0.24939486 -0.014463488
-0.23595156 -0.22203822 -0.18957163 0.0583974 -0.22358954 0.13325734 0.3116266 -0.011051497
-0.26882884 0.15482965 0.034625463 -0.20035678 -0.0020136558 0.23410496 0.20629281 -0.1819794
0.26481146 0.04992819 -0.11819098 -0.05206246 0.06437803 -0.32717407 0.081806764 -0.14532553
-0.3239022 -0.04642672 -0.072492935 0.36537078 0.10552983 0.29439148 0.16448249 0.14557037
0.08939556 0.004338837 0.18479645 0.32333627 0.06351227 0.13733882 0.018949639 -0.24737263
-0.2157899 -0.26262656 0.16671082 0.28715953 0.050047282 0.32392883 -0.318752 0.09788428
-0.09984712 -0.022848314 -0.11585112 0.21351436 0.03990466 -0.31206155 -0.18855098 0.047957703
-0.3142458 -0.07946791 -0.113997765 -0.029982954 0.11996587 0.23437625 -0.115648545 0.23521823
-0.28147003 -0.14954953 0.09904224 0.14850493 -0.28207862 -0.2794253 0.22667755 -0.035614
-0.05458704 -0.20145573 0.08528372 0.21794985 0.08848711 -0.18738724 -0.038348608 0.30450237
-0.0076071136 0.1814623 -0.16536935 0.041756313 0.25943935 -0.103261665 0.04242584 -0.31829745
0.35684344 0.15304859 0.2078351 -0.26303864 -0.26902083 -0.26217362 0.31094494 0.21424766
0.05770352 -0.22966987 -0.10592441 -0.20603085 -0.26403534 -0.1942886 0.13864172 0.15859725
0.08418549 0.3016821 -0.079288915 -0.10984092 -0.28098053 0.20500934 -0.18158364 0.079692475
-0.26658103 -0.0076571372 -0.34044135 -0.27649048 0.09404015 0.03729337 0.06717769 0.025780179
-0.14017127 0.28626192 0.11155169 0.19141226 -0.0839726 0.10014736 -0.11201265 0.2807602
-0.10935232 -0.2243014 0.132314 -0.0068832613 0.16804247 -0.3565534 0.3793124 0.11957307
0.2752399 -0.28088436 -0.22579855 0.22620314 0.06507272 0.14141357 -0.07495343 -0.27659464
0.30206707 -0.05756161 -0.2050749 0.11211596 0.022927845 0.15847279 -0.14347984 -0.25473922
-0.1216425 0.2886302 0.3701026 -0.037120022 0.22644207 0.19919355 0.18973947 -0.15298237
-0.025878998 0.024035005 -0.2516786 -0.24485888 0.1444038 0.069856994 -0.11952905 0.061607245
0.23232387 -0.26217738 -0.3606238 0.0071475008 0.06523113 -0.28824294 -0.08844616 -0.080856204
0.04810677 -0.1450576 0.10019893 0.28281283 0.31210944 -0.13195913 -0.07003713 0.13494125
-0.35123336 -0.19714499 0.16684748 0.22653688 -0.03188439 -0.06418675 0.13758603 0.054555684
0.16799207 -0.052289747 -0.10758458 0.22232044 0.051360257 -0.34019387 0.033234097 -0.24852318

bias f4 [100]
00000000: f1c2 df3d aee1 72be 474b 07be 1deb 36be
00000010: f77e 5fbe 6659 c3bc 1352 75be 4bb9 f33d
00000020: 96a4 563e 3c1e 08be 0ef6 663e 7910 353e
00000030: 2738 3cbe 3dbd 6bbd b386 4cbe 311f 353e
00000040: 503d b0bd 7312 253e 31af 08be d839 35be
00000050: 9fbd cebd be38 473d 6250 f33d ee42 acbd
00000060: 5d01 dd3d d44b 2bbd c9ae 993d c976 04bd
00000070: 4457 d03d 6644 e4bc d6e2 6c3d 4f84 fdbd
00000080: 10db f63d f543 16be c685 1cbc b5ca 2bbe
00000090: e04f 033e 64b5 6dbe 604b 0b3e bd02 e83d
000000a0: a1c7 2e3e f387 17bc d17f e83d 0cc0 833d
000000b0: abaf a73c d535 043b 2ed4 d9bd 1ca5 b2bc
000000c0: 8fe3 803e 2711 4d3e bd74 8bbd e358 06be
000000d0: fd0f 763e d4f1 49be 6131 58bd 5bb9 9f3d
000000e0: c02d 6c3e a738 353e a0a8 133c 3262 033c
000000f0: 8830 053d cac7 11be 6868 c73d 726b d7bd
00000100: 97f9 f63d 44dd d4bd 8ffc f73d 8435 c83d
00000110: 9786 223d a3c9 7e3d ca04 d63c b9c6 a73d
00000120: 9d14 0d3e 0fb4 8fbd 6f4d 80be 7233 ddbd
00000130: f50e 07be 7c6f 5a3d 9919 a7bd 78c9 023d
00000140: c8f0 183c 8452 e33d 0f84 3d3e 983f 903e
00000150: 632a 80be 3626 2cbe 9b2e 143e a39a 23bc
00000160: ab5e 403e fef9 39be 6216 21be 2267 903d
00000170: 07d9 313c a380 f23c ef00 3c3e 5401 8b3e
00000180: 44c7 e93d 601d 4fbe 59ee 483e 15e2 0d3d
0.10925854 -0.23718902 -0.1321231 -0.17863126 -0.21825777 -0.02384634 -0.2395709 0.11900576
0.20961222 -0.13292783 0.225548 0.17682065 -0.18380795 -0.05755352 -0.19973259 0.1768768
-0.086054444 0.16120319 -0.1334808 -0.17697847 -0.10094761 0.048638098 0.11880566 -0.08411203
0.10791276 -0.041820362 0.07504041 -0.032339845 0.101728946 -0.027864646 0.057833515 -0.123787515
0.120535016 -0.14674361 -0.009553378 -0.16776545 0.12823439 -0.23213726 0.13602972 0.11328647
0.1706834 -0.009248721 0.11352504 0.064331144 0.020469507 0.0020173688 -0.10636173 -0.021807246
0.25173613 0.20026074 -0.068093754 -0.13119845 0.24029537 -0.19721156 -0.052781466 0.077990256
0.23064327 0.17697392 0.009012371 0.008019017 0.032516986 -0.1423637 0.09736711 -0.105185404
0.12059324 -0.103937656 0.121087186 0.09775832 0.039679136 0.062204015 0.02612533 0.081922
0.13777395 -0.07016765 -0.25059077 -0.10800828 -0.131893 0.053328976 -0.08159179 0.031930417
0.0093347505 0.11099723 0.18507408 0.28173518 -0.25032339 -0.16811451 0.14470904 -0.009985599
0.18786113 -0.1816177 -0.15731195 0.07050921 0.010854966 0.029602354 0.18359731 0.2714945
0.1141496 -0.2022605 0.19622172 0.034639437

weight f4 [100, 100]
00000000: 27f3 abbe 73e2 da3d f194 92bd 61a1 58bc
00000010: 8643 aa3e d7cf 8bbd 7c1f acbd 965d f33d
00000020: f8b0 ffbd 5140 113e 0334 fa3d 0b17 2cbd
00000030: ac69 663d 8894 593e 6aba 443e d3b1 1fbe
00000040: 2b99 2bbd a46d 933e 87b6 0cbe bb95 06bc
00000050: c80e fb3c a6a7 50be 53ca b3bd 36ef b03d
00000060: 8069 19bc 2fd3 003e 20a4 423d 4778 703c
00000070: b6c9 0cbd d892 3d3e 20b0 bbbd 9473 653d
00000080: 337a 3cbe c4c3 08be 487c 4ebd cc4a 57be
00000090: daa7 613d b8fb c43c 0e7b 29be 0997 64b9
000000a0: 6ae5 973d 6c73 36bd 46df dbbd 1d9d 193e
000000b0: e93f d6bd 5b10 d3bd 2c74 0dbd b40d a6bc
000000c0: e85c 693c d3ce d83d dda6 fe3c 992a 133e
000000d0: 0e6a aabd caa1 7cbe 9d51 d3bd 742e 44bd
000000e0: 9b4d c03b 2377 fe3c c702 f23d ed5b a2bd
000000f0: 8bd5 86be 8905 2bbe 94c8 cf3b e8e6 193d
00000100: f121 963d 82d1 573d 38d7 f1b9 46ee feb7
00000110: b6f3 9fbe 02c3 843c 20b5 6bbd da22 f4bc
00000120: c050 75be 8682 303e 5228 11be f3dc 3fbd
00000130: 4e97 8abe 5eb3 c2bc b053 893d fb72 aebd
00000140: 0bce b3be 6787 113d ee1f 573d 4f10 80be
00000150: baaa 8d3d e57c e33d 72a5 b13a dc91 58be
00000160: 9b74 88bd 8e9f d53d cb61 733e 7d48 da3d
00000170: 2fb6 dfbc 6737 59bc 23d4 46be 87b2 a73d
00000180: 9c11 e7b9 b002 d73b 17dd 77bc a9a5 b5bc
00000190: c03c 883e d156 50bd 6af9 873c 7de0 10bd
000001a0: 5cdf d4bd 0827 0a3d 73fd 91be bbb7 2d3e
000001b0: 0bf8 823d f37b e3bd 29f6 4cbe 1e16 093e
000001c0: 37da 2bbd 659d e9bd e6a5 c6bc 7000 d03c
000001d0: 2fac 5ebd 6522 ad3e 5921 8a3d 9474 353e
000001e0: b53d 0e3d a308 a3bd 42bd 643e 6500 8fbe
000001f0: 23f3 b2bc 00f3 d0be 492d 423e bb28 db3d
00000200: 7502 dfbd 6b60 3fbd 90f1 6cbc d189 04be
00000210: 0d7c 26bd caa9 6cbd 0834 703e 9a08 97be
00000220: 3d56 f0bd f819 61be 6e22 933e 49b4 22be
00000230: 3639 c8bd 09c6 a23e 0124 ddbd 080c 25be
00000240: aa2e efbc 59a4 513d 2c39 99bc f780 39be
00000250: a262 873e 97fe 39be 47aa 273e 9dfb 833c
00000260: a13b 6b3d 5d79 a6bd bb64 73bd 47ec 223e
00000270: ab11 19be aa4b b1bd 3d05 60bd c58c 5b3e
00000280: 6021 6bbc 6060 533e bb80 a13c cfd0 acbd
00000290: cbed 983e b1eb dabc 6381 64bd ddc7 ae3d
000002a0: af39 df3b 7026 e1bd c04d 8dbd 0876 f7bd
000002b0: ab4f e93c 4ef1 8e3d f442 b33c d41b 2dbe
000002c0: 5c9d a3be a356 8dbb cf84 313d 593f f73c
000002d0: b43a ba3e a237 a4bd e40e 9bbd 6e9a 1dbd
000002e0: aee9 f2bd 2daf c9bd 933e fd3d 8fc9 35bc
000002f0: 8be0 c6bc e45d d1bd fc1a 1fbe e139 813d
00000300: 939a 3dbc 5133 48be 9947 51bd d81b 8ebe
00000310: 6312 87bd 7635 d83d d67a c6bd 2667 393d
00000320: fa87 923e c567 02be 3184 b23d 9a80 fa3d
00000330: 37d9 763d 771b 4bbd 6a7c 943d 3197 b03e
00000340: 1579 013e bcac 02be f614 f23d a0af 5ebd
00000350: d58c 6ebd 1a4f 0d3e efe7 313e 579b 7b3d
00000360: 0480 a6bd 8b76 a8bc 8464 04be aea2 2cbe
00000370: 0adc 8d3c 7029 babb 3b2c 623e 58a4 a1bd
00000380: 5c17 31be 1e6f a1bd e050 533e 0b9d 98be
00000390: 0f13 1e3e 213a eebd 5775 7bbe caaa 98bc
000003a0: 14d4 c03e fcda c1bc ea6a 023e 857a 253d
000003b0: f60c 3dbd e300 ccbd c618 ee3e 17de 093d
000003c0: 4ccc 523e 4f31 68bd 67d7 19bd 87f0 71be
000003d0: 81a8 b7bc 7a27 013e 1ad8 94bd 9222 bebd
000003e0: ab36 b7bb 9f43 6b3a 9fe3 b53e 7b2a 313e
000003f0: f633 653d a061 acbe 0d31 45bd 5ec0 0c3e
-0.33583948 0.10687723 -0.071573146 -0.0132220695 0.3325464 -0.06826752 -0.08404443 0.118830845
-0.12484926 0.14184691 0.12216952 -0.042014163 0.05625312 0.21248066 0.19211736 -0.15595178
-0.04189412 0.28794587 -0.13741504 -0.008214409 0.030646697 -0.20376453 -0.08778825 0.08639376
-0.009363532 0.1258056 0.047519803 0.014677114 -0.034372054 0.18513048 -0.091644526 0.056018427
-0.1840599 -0.13355929 -0.050411493 -0.21024626 0.055091716 0.02404581 -0.16550848 -0.0002180004
0.07416804 -0.04454367 -0.107359454 0.1500134 -0.10461409 -0.10305854 -0.03453462 -0.020270206
0.014243342 0.105863236 0.031085426 0.14371718 -0.083210096 -0.24671093 -0.10318301 -0.047895864
0.0058686263 0.031062668 0.11816936 -0.0792769 -0.26334795 -0.1670133 0.0063410494 0.037573725
0.073306926 0.052690037 -0.00046127453 -3.0390114e-05 -0.31240624 0.016206268 -0.05754578 -0.029801775
-0.23956585 0.1723729 -0.14175537 -0.046841573 -0.2706856 -0.02376717 0.06705415 -0.085180245
-0.35118136 0.03552952 0.052520685 -0.25012442 0.06917329 0.11107806 0.0013553335 -0.21149391
-0.06662866 0.10430823 0.23767774 0.10658357 -0.027308552 -0.013257838 -0.19416861 0.08188348
-0.00044072873 0.0065615997 -0.0151283955 -0.02217372 0.2660885 -0.050864045 0.016598422 -0.03537034
-0.10394165 0.03372863 -0.2851368 0.16964619 0.06394967 -0.11107626 -0.20015778 0.13387343
-0.041956153 -0.11406974 -0.024249028 0.025390834 -0.054363426 0.33815303 0.06744642 0.17720252
0.034726817 -0.07960632 0.22337821 -0.27929989 -0.021844452 -0.40810394 0.18962587 0.10701128
-0.108891405 -0.04672281 -0.01446189 -0.12943198 -0.040645648 -0.05777911 0.23457348 -0.2949875
-0.11735199 -0.21982563 0.28737205 -0.15889086 -0.09776537 0.31791714 -0.10797883 -0.16117871
-0.029197056 0.051182125 -0.01870402 -0.18115602 0.26442438 -0.18163525 0.1637355 0.01611119
0.057429913 -0.08128617 -0.059422236 0.15910445 -0.14948146 -0.0865701 -0.054692496 0.21440418
-0.014351219 0.20642233 0.019714704 -0.084382646 0.29868922 -0.026723715 -0.055787455 0.08534215
0.0068122963 -0.109936595 -0.06899595 -0.120830595 0.028480371 0.06979619 0.021882512 -0.16905147
-0.31955993 -0.0043133064 0.043339547 0.030181574 0.36372912 -0.080184236 -0.075711995 -0.038477354
-0.11860977 -0.09847865 0.12365451 -0.011095419 -0.024276992 -0.10222986 -0.15537637 0.06309868
-0.011572498 -0.19550826 -0.05109367 -0.27755618 -0.06595304 0.10557072 -0.09691398 0.045264386
0.28619367 -0.12734897 0.0871662 0.1223156 0.060265746 -0.04958674 0.072502926 0.3449035
0.12643845 -0.12761205 0.11820404 -0.054366708 -0.058239777 0.13799706 0.17373632 0.06142744
-0.08129886 -0.020564338 -0.12928969 -0.16858932 0.017316837 -0.0056812093 0.22087185 -0.07892674
-0.17294067 -0.07882522 0.2063632 -0.29807314 0.15436958 -0.11632181 -0.2455648 -0.018636126
0.37661803 -0.02366399 0.12736097 0.040400047 -0.04615494 -0.09961107 0.46503276 0.033659067
0.20585746 -0.05668765 -0.03755894 -0.2362691 -0.022419216 0.12612715 -0.072677806 -0.092839375
-0.0055912337 0.0008974615 0.35525224 0.17301361 0.055957757 -0.33668232 -0.04814248 0.13745257

bias f4 [100]
00000000: df60 603d 9805 8c3c 1047 c8bc 2b5f b1bc
00000010: 2018 9dbd 12aa 913b da66 8f3d 0986 2a3d
00000020: a70c d3bd 47cb d53c c367 47bd 92dd 02bd
00000030: 1dfc 0d3c d41d d73d 55c1 533d 1527 b53c
00000040: 097c 823c c636 e4bc 1090 1cbc 74db adbc
00000050: 0420 8d3c 60b9 af3d 664a 083d a8e6 abbc
00000060: 7848 2e3d 4c54 53bd 942b 94bd 1989 0bbd
00000070: e88b e0bb dd11 03bd 74c9 a3bd 399e fc3c
00000080: 0feb d13c eb99 70bd 36af db3d 6816 b43d
00000090: 55a3 b4bc 0aa6 f5bd d1d6 983c cc9b 1fbe
000000a0: f421 81bd 29ef 183c efac 17bd 427e d2bd
000000b0: 2922 0e3d dd81 8dbd cf70 85bd 33a4 883d
000000c0: 543c 35bd 7127 8b3d b297 b0bd 25d2 903d
000000d0: fb2d 5dbc 321a 2cbd 5cc9 573d 14fd 83bd
000000e0: a1c5 ddbd 9ec0 933d 5cc2 a6bc 1ff0 7f3d
000000f0: b18b ae3c 2743 40bd 4f6a f63c 53d3 b8bc
00000100: e406 b6bd 61ed 973d 2254 aa3d 24b5 3f3d
00000110: 6497 e83c c279 35bd f8de 5c3c d4a7 7bbd
00000120: 1d53 e63d ee3e 973d b69c fdbc bd75 48ba
00000130: 4d70 cb3d 33d7 373c 8ddf 5c3d c1a9 d33d
00000140: 2f54 043d c4c8 31bd 1064 103d fea3 8839
00000150: d60b e1bc 610a ebbd 3865 d23d d76c 2cbc
00000160: 44d4 2e3d 4927 aabc ab10 ccbc 1df7 e03d
00000170: 28f6 a83d 9fff d53b 9ced f33c 20a5 393d
00000180: 3f17 8abd 1b29 cfbd d532 ab3c 48ca 183d
0.054779883 0.017092511 -0.024447948 -0.021651825 -0.07670617 0.004445323 0.07002039 0.041631732
-0.103051476 0.026097907 -0.04868294 -0.031949587 0.0086660655 0.10503736 0.051698048 0.022113362
0.015928285 -0.02785815 -0.009555832 -0.021222807 0.01722718 0.08580279 0.033274077 -0.020984009
0.04254958 -0.051594064 -0.07234874 -0.034066293 -0.0068526156 -0.031999458 -0.079974085 0.030837165
0.02562478 -0.058740538 0.10726778 0.08793336 -0.022050539 -0.1199456 0.01865712 -0.15586776
-0.06305304 0.009334364 -0.037030157 -0.10277988 0.034700546 -0.06909535 -0.06515657 0.066719435
-0.044246987 0.06794632 -0.086226836 0.07071332 -0.013499732 -0.04201717 0.052682266 -0.06444755
-0.1082871 0.07214473 -0.02035635 0.062484857 0.021306844 -0.04693904 0.030079989 -0.022561705
-0.08888033 0.07418323 0.08316828 0.04680361 0.028392501 -0.04430557 0.013480894 -0.06143935
0.11246321 0.0738505 -0.030958515 -0.0007646939 0.09933529 0.011220741 0.053924132 0.10335112
0.032306846 -0.043404356 0.035251677 0.00026062125 -0.027471464 -0.11476589 0.10273212 -0.010523996
0.0426829 -0.020770686 -0.024910292 0.10984633 0.082500756 0.0065307165 0.029776387 0.04532349
-0.06742715 -0.10115262 0.020898262 0.037302285

weight f4 [100, 100]
00000000: d1b8 bbbe ff53 be3d e53f 393e f5f4 69be
00000010: 8cfb b1bd 95d7 00be 4d03 953e 0b32 0abd
00000020: 00d9 c13d a64e abbd 3f6e 4a3e 68aa 58bd
00000030: a8cf 873e 6d3b 8dbe 034d 54be 66ac 583d
00000040: f657 db3d ae05 5fbd 61c8 7dbc 0ef9 e23e
00000050: e340 6d3e 3d00 9abe 0874 16bf 0eec 80be
00000060: 4552 bdbe dee8 b2be 1ab9 463d bf24 5c3e
00000070: 5d0c 183e e072 163d b647 633e c0a1 f23d
00000080: 876f ec3e 8707 673e c6e1 0cbd f46f bcbd
00000090: 3080 a23d 0703 93bc d73b 003d aeff 90bc
000000a0: b704 93be 2c07 53be 8029 133e 8755 59bb
000000b0: d65c 993c 6e96 acbd 0c73 dcbd 0b33 2b3e
000000c0: 1086 413e 09eb 23be db12 c63b b417 583e
000000d0: e90c 5abd b62a 07bc 38d9 b1be df3f 9c3d
000000e0: 6138 e53e b3a1 7cbe 8fec 8e3d 3cac cb3e
000000f0: 7b2e 1bbe 5671 b2bd 5752 96bd eedc a43d
00000100: a747 8fbd 87c1 103e 9137 963d 0fc6 603e
00000110: dbe3 02be a690 8e3e 402f a9be 66c4 163d
00000120: 119f 8e3d 79b8 6abe 367c 9bbe 0712 35be
00000130: 0f48 9d3e 13e5 d8bc 815b d4be 4c11 86be
00000140: 309b b2bd d998 a1bd 2384 8bbe 4d1c 02be
00000150: 3574 ac3d da93 723c 50d2 9b3e 930a e6bd
00000160: 6d5c b03d 2c1f f0bd 7100 6c3d afc0 24be
00000170: 1152 68be 5c73 4ebe 1665 bbbe ac9a bfbd
00000180: 476b 8abd 200f d5bd f153 b63e 988f 553e
00000190: efc0 37be 45f9 483d e246 0a3d 1350 0fbe
000001a0: ac28 cd3d 261f b13d 732b b23d 4f86 f5bd
000001b0: 504a 703d 56ac abbd d0bd 3a3e face 353e
000001c0: bb25 7bbe c196 e33b a9f1 a2bd 2ece 23bd
000001d0: e10b ad3d dd26 1cbd d6fc 383e c097 4abe
000001e0: e40a 983d 139e 5ebe 0c96 233d d4cb 0abe
000001f0: e72f 0b3d cb0a bd3e fd50 d43c 93e9 b73c
00000200: aeb6 043e 61ba c837 cc45 123c bdfd debd
00000210: cc5c 34be 795b 313e 4dd9 8d3b e8c2 22bd
00000220: 81ff 893d b174 c13d 640f 8cbe b6bb afbc
00000230: 4e2d dc3d 5c75 0cbe b581 933e 41e2 eabd
00000240: 3b4c 473e 8e65 a43d 8c58 f2bd bfbc 4dbd
00000250: 9e02 29be 940f 813d 8859 773e f57b ec3d
00000260: 4e1a a1bd e6ea 94be 2bae 423e 5b56 32be
00000270: d5d5 1cbe 63eb c53e a57a 0c3e 790a c73b
00000280: 9f7c 523d 8839 61bd 6a50 e7bd 8ffd 9f3e
00000290: 8b08 9abd 6f75 313e 4079 9d3c 0b07 243e
000002a0: e6fd bc3b 5f74 af3d 0413 3e3e f5d4 8fbe
000002b0: e62e 303e 1e57 283d bdde 35bd 1e20 02bd
000002c0: 6b94 29bc 0c77 333e c9fc fabd f518 043e
000002d0: 9098 953b 7649 203e c93a 473e 50ff 4f3d
000002e0: ec2d a33e d6e1 e6bc 7c23 35be 9bc2 fd3d
000002f0: 3c1d 1d3e 9dda 143d 34f6 d7bd ac88 82bd
00000300: cca0 08be f2e9 6b3e 0d55 223e 02c8 6b3d
00000310: 2d19 fe3d b0af c1bc e15b 11be d871 f03d
00000320: 3456 2cbe 73ea 473d ad74 dbbd 6cb1 b93d
00000330: a46a c8be de96 0c3e a5e8 8abe 20ba c43e
00000340: 9e79 d6ba d0f0 13be 1520 923e b59c 4bbe
00000350: cd53 5dbe e4f0 3d3d 2d87 c93c e108 b23d
00000360: 16c1 40bd 16ef 0dbe 92ba 68be c004 b4be
00000370: fede 5b3d e05b 363e cb5d ce3e f9d3 3abe
00000380: 1679 dc3e 9b9a 403e 7622 473e 8048 a0be
00000390: 11f1 2c3e 9008 3a3e 6bc4 8cbc 9ed2 15be
000003a0: 5fc4 34be cc4c e1bd 8154 b13d c67e 8c3d
000003b0: f82f 6b3e ca23 5abe a6ae 5a3e 0791 c83d
000003c0: 8836 573e fd50 14be dae0 00be 4fec 7cbe
000003d0: 0087 8ebd 47a0 513e 9e68 40ba 69a3 493d
000003e0: 979c d1bd 973c 0f3e 2109 e73d 8357 4ebe
000003f0: c115 8ebc 7518 553c c5dd 88bc 66fb a43d
-0.3666444 0.09293365 0.1809078 -0.2284735 -0.08690557 -0.12582238 0.2910408 -0.03373913
0.094652176 -0.083646104 0.19768618 -0.052896887 0.26525617 -0.275844 -0.20732503 0.052898787
0.107101366 -0.054448776 -0.015489669 0.4433064 0.23169284 -0.30078307 -0.587708 -0.25180095
-0.3697683 -0.3494329 0.04851637 0.21498393 0.14848466 0.036730647 0.22195324 0.118472576
0.4617884 0.22561465 -0.034395 -0.09201041 0.07934606 -0.01794578 0.031307068 -0.017700043
-0.28714535 -0.20608205 0.143713 -0.003316255 0.018721025 -0.0842713 -0.10764131 0.1671869
0.18898797 -0.16007628 0.006044728 0.21102792 -0.05323497 -0.008249929 -0.34736037 0.0762937
0.44769576 -0.24671058 0.06978714 0.39779842 -0.1515445 -0.08713023 -0.07339924 0.080499515
-0.069960885 0.14136325 0.07334817 0.21950553 -0.12782232 0.27844733 -0.3304386 0.036808394
0.06963933 -0.22921933 -0.30368203 -0.17682658 0.3071904 -0.026476419 -0.41476062 -0.2618507
-0.08721006 -0.078904815 -0.2724925 -0.12706108 0.08420602 0.014805758 0.30433893 -0.112324856
0.08611379 -0.117246956 0.05761761 -0.16089128 -0.22687556 -0.20161194 -0.3660056 -0.09355673
-0.06758743 -0.104032755 0.35610917 0.20855558 -0.17944692 0.049065847 0.033759005 -0.1399539
0.10017523 0.08648519 0.086996935 -0.11988508 0.05866462 -0.0838248 0.1823647 0.17754737
-0.24526112 0.0069454615 -0.07956249 -0.03999155 0.08449531 -0.038123 0.180652 -0.1978445
0.07423952 -0.21739988 0.039938018 -0.13554317 0.03398123 0.36922297 0.025917524 0.022450244
0.12960312 2.3928647e-05 0.008927774 -0.108882405 -0.17613524 0.1732005 0.004328883 -0.03973666
0.06738187 0.09446085 -0.27355492 -0.021451812 0.10750829 -0.13716644 0.28809896 -0.11468936
0.19462673 0.080271825 -0.11833295 -0.05022883 -0.16504905 0.063017994 0.24155247 0.115470804
-0.07866345 -0.29085463 0.19011752 -0.17415754 -0.15315945 0.38656148 0.1371866 0.0060742465
0.05138838 -0.054986507 -0.11294635 0.31248137 -0.07521161 0.17329954 0.019222856 0.16018312
0.0057675717 0.08567118 0.18561941 -0.2809216 0.1720539 0.041098706 -0.044401873 -0.03176891
-0.010350327 0.17525882 -0.12255246 0.12900145 0.004565306 0.15653023 0.19456019 0.050780594
0.31870973 -0.028183859 -0.17689317 0.12390634 0.15343183 0.0363413 -0.105450064 -0.06373724
-0.13342589 0.23038462 0.15852757 0.05756379 0.12407146 -0.023643345 -0.14195205 0.11740464
-0.16829759 0.048807573 -0.107156135 0.09067044 -0.3914386 0.13729426 -0.2713062 0.38423252
-0.0016363149 -0.14447331 0.28540102 -0.19883998 -0.21613999 0.04637231 0.02460059 0.086931
-0.04705914 -0.13860735 -0.22727421 -0.35159874 0.05367946 0.17808485 0.40305933 -0.18244924
0.4306113 0.18808977 0.1944674 -0.31305313 0.16888835 0.18167329 -0.017183503 -0.14631125
-0.17653035 -0.11000976 0.08658696 0.068601176 0.22967517 -0.21302715 0.21355686 0.09793287
0.21016896 -0.1448402 -0.12585774 -0.2469952 -0.06959343 0.20471297 -0.0007339808 0.049228106
-0.10234945 0.13987957 0.11281038 -0.2015057 -0.017344357 0.013006319 -0.01670731 0.08055763

bias f4 [100]
00000000: dc4d fe39 98bd 0f3c a93b 1c3c d21f a83b
00000010: f925 563d 2449 81bd fb86 9a3d 715a 953d
00000020: 9f05 39bd 0da0 18be 05b7 fb3d 5e38 d2bd
00000030: 64d7 6a3d b31b 173e 0ef5 b93d 6154 b8bd
00000040: ea1b 853d eef4 273c a267 953d 38f8 e13d
00000050: 2a61 b4bb 82bc fc3d c1e3 8d3d 8f2c 653d
00000060: 9df6 253d 4813 243e 7033 83bc 7c19 7f3c
00000070: 0f5e 21bd 70b4 443d 0502 c7bc 7af5 f0bc
00000080: 3f41 6e3d 6ce2 19bd adbb e33d 0d9d 203e
00000090: b4e4 9cbd a5bc 99bd 66f3 33bc d727 61bd
000000a0: 1500 833d bb13 b13c 451b bc3d ad75 3abd
000000b0: 1b70 c83d 3a2e 4fbd d007 113e 5fd1 7fbd
000000c0: bb65 63bd 61ea 5f3c 3e65 11bb 5749 7cbd
000000d0: a001 b2bc db94 5cbd 33f9 1c3d 6010 4d3d
000000e0: f799 72bd 5a9d 513d 8884 6abc 379d 053d
000000f0: 2ba4 a43d 541c 933d 6e9b 01be bb00 a0bc
00000100: 52b5 7a3d 6f72 d83a 2f4f 103d 9834 803d
00000110: 5978 01bc dbe8 a6bd bd2b 843b 488d b33d
00000120: 2caa 1ebd d4c1 1ebe 6d4d 05bd 3c29 82bc
00000130: dd4e 9cbd 4935 a83c ac58 a43d 8267 cdbd
00000140: 6acb 29bd a536 fcbc 7f02 9a3d 2d46 a23c
00000150: b46d c23c e1fc e43d 41ee e43d f8cc 9a3c
00000160: aaae 83bd 3abf a5bd 42f3 38be 0cdd 15b9
00000170: b846 30bd b3f3 c33d 6bce 9d3b f5b3 e33d
00000180: 012b 9cbd ba14 ea3d fdcd 8c3c ca4c 363e
0.00048504665 0.00877323 0.009535708 0.0051307464 0.052282307 -0.063127786 0.07545277 0.07292641
-0.045171376 -0.14904805 0.122907676 -0.102646574 0.05733432 0.1475666 0.090799436 -0.09000469
0.06499465 0.010251267 0.07295157 0.11033672 -0.005504747 0.123406425 0.06928206 0.055950698
0.040518392 0.1602298 -0.016015738 0.015570041 -0.039396342 0.04802364 -0.024292955 -0.029413927
0.058167692 -0.03756945 0.11119781 0.1568491 -0.07660809 -0.07506684 -0.010983324 -0.054969635
0.063965 0.021615854 0.09184889 -0.04552238 0.097870074 -0.050581194 0.14163136 -0.06245553
-0.05551694 0.01366672 -0.002218559 -0.06159338 -0.02172929 -0.053852897 0.038323592 0.050064445
-0.059228864 0.051175453 -0.0143138245 0.032620635 0.08039125 0.071831375 -0.12656948 -0.019531598
0.061208077 0.0016513596 0.035231765 0.062600315 -0.007902228 -0.081498824 0.0040335343 0.08767182
-0.038736507 -0.15503627 -0.032544542 -0.015888803 -0.076322295 0.02053322 0.08024725 -0.10029508
-0.041453756 -0.030787775 0.07520007 0.019808853 0.023733951 0.11181045 0.11178256 0.018896565
-0.06429799 -0.08093114 -0.18061545 -0.00014292094 -0.043036193 0.09567966 0.0048158667 0.111183085
-0.0762539 0.114297345 0.017188067 0.1780273

weight f4 [13, 100]
00000000: 689f 48bd c5a6 043c b9c8 073e 21cb 58be
00000010: 3fe3 583d 3004 b6bb 30e1 ed3c a487 a8bd
00000020: 7f1f 023e f23c c83b a111 20be 0cae 33be
00000030: 24c4 333e 38e2 b5bd 5c3e 383d a2cc 6f3d
00000040: 4409 093a 4822 f23c 9a17 12be 99da 72bb
00000050: fce5 90be fc44 23bc 48cc 7fbb 7fd3 edbc
00000060: 7e82 42bd 5c6b 8b3d bf44 f8bd 666c 01be
00000070: 9ed4 d6bd 8cc2 2bbd 60aa 5abd 0c5f 06be
00000080: cf32 ec3d d2a7 f13d 312c 343d fbff ac3d
00000090: bfd9 1b3c c908 f3bb 74fd 6abb 72b5 26bd
000000a0: 0320 b33c a8ec 88bd 6ad8 58bb 2ce8 aebd
000000b0: 236e 81bd 4732 dcbc 7f9d 3a3b 9c38 b03d
000000c0: 544d bbbe 2cf2 ddbd 17a3 3ebe 5921 c13d
000000d0: 3a43 5ebd 7c1a 0b3e 3673 bbbd 260e 38bd
000000e0: 2d2b 3abe 07c0 b2bb 2e7d b83a 7de9 c53d
000000f0: ef11 d43d 4885 683d 3b43 92bd b684 d7bd
00000100: 9192 e8bb ab03 953d ae9f 31bd 9cba 9ebe
00000110: ebb1 0dbe bf79 94bc ebed 56bd de1b 933d
00000120: f7ff 903d 3f06 b13c ad40 f8bd af1f 223d
00000130: 513d c23d 7b75 1c3e 9da0 8d3d fbf4 5d3d
00000140: 0df4 d5bd 0c15 843d 196e bbbb fe24 14bd
00000150: 83bd 80bc 1a0a dbbc 3485 173e 8561 1dbe
00000160: 8172 0abe a00c 7fbe 58ca 8a3d f219 883d
00000170: 1b34 bcbc cd9f 6dbe f2c3 acbd 946c b7bc
00000180: bec2 853c d242 14bc 657b 77bd 2e06 8a3b
00000190: 8d72 28be fbce 6b3d cf52 83bd 1e9e e23d
000001a0: 99b6 2bbd 6c0d 9bbc 1812 d63c cd67 563c
000001b0: 6e48 ee3d 6080 bb3c 5922 30bd ed40 093e
000001c0: 7f68 22bc ef66 a4bd d106 173d 46d4 003e
000001d0: b933 b3bd ab47 33bd 76a4 d6bd d7ef 1fbd
000001e0: 6d73 0fbe 6ddb ebbd 608e 973d caf4 823e
000001f0: 9330 713d 1f1f 15bc 7402 b6bd b1c5 73bd
00000200: e74b 263e 8853 3b3d 0578 32bd b2c8 02be
00000210: 9f4c 983c 1340 29be 84ef 1bbd c3f9 9c3d
00000220: 20c2 51bd 1219 553e 03cf ab3c 022b 67bd
00000230: 3633 7b3d 7560 5a3e 74b3 a13d 7372 aa3d
00000240: 5955 743d b887 a53d 4090 8bbd dea6 c7bc
00000250: 559f 8f3e a6d1 903d 5a1d 05be 6698 9cbc
00000260: e502 ca3c cc2e abbd b97d bfbb e400 13be
00000270: 6895 d23c 8fd0 d7bd e35c 703d 78ff 023e
00000280: 0519 433e 045a 6ebe 987d 60bd 20f0 e3bd
00000290: f72f 033d ff12 c53d 98d0 a23d a561 963c
000002a0: 22fc f5bd c0d1 bb3c 4b9f 613e c18d dbbb
000002b0: 1a06 23bd 7a8e cd3c 19d6 a2bd 43a5 a9bd
000002c0: bf75 4a3e ec77 d9bc 70da eb3c 1083 8fbd
000002d0: cd6a f83c bec1 813c dfe0 8dba d2d4 973d
000002e0: 2297 fcbc 1918 c0bd 8ef2 d4bb f2c5 9639
000002f0: a417 86be 3119 58be f308 ed3c 5b62 d9bd
00000300: 1c15 e3bd cc3c f53c 1307 cebc b989 ba39
00000310: 9f92 4cbd 453d 1abb 3fd4 593e 5dca d73d
00000320: db4d 1e3c 8607 fe3d 15e2 113e 428d 1e3e
00000330: db30 efbc 45b2 77bc aa1a 1bbe fcf6 eebd
00000340: 30c0 4ebd bb61 62bd f805 debd 3cd0 66be
00000350: 422f 183d 39d2 633d efea 033e 24ed e9bd
00000360: de3b b0bd f8f6 2bbd fcc2 00be e75c 183d
00000370: e869 863e a3e8 d33c 4e15 a9bd 189f dd3d
00000380: 31b9 953d b638 13bd 3b34 a43d e620 5f3b
00000390: a81f ad3e 05e7 4bbc 13a4 94bd ad70 f03d
000003a0: e1fb 113e 00c9 5a3e 9e12 2dbd 988d 1cbe
000003b0: 4b1d 183d 2260 32be 3164 8c3d 72d0 3e3d
000003c0: b466 abbc 6482 353e 150c 023e 3eec 3cbd
000003d0: 292f d1bc 1644 93bd 8acf 3bbd bf8a 51bd
000003e0: 865b 4d3e 6094 7dbb cf5a f03d c9c8 8d3c
000003f0: aa93 323d 3c3f 1b3e bfd4 d73d c880 2ebd
-0.048980147 0.008096402 0.13260163 -0.21171238 0.052951094 -0.0055546984 0.029038042 -0.082289964
0.12707327 0.006110781 -0.15631725 -0.17546862 0.1755529 -0.088810384 0.044981346 0.058544762
0.0005227516 0.029557362 -0.14266816 -0.0037056564 -0.28300464 -0.009965178 -0.0039031673 -0.029031513
-0.04748773 0.068075866 -0.12122487 -0.12639007 -0.10489772 -0.04193358 -0.05338514 -0.13122195
0.115331285 0.11799587 0.043987457 0.08447262 0.009512364 -0.0074168188 -0.0035856636 -0.040700383
0.02186585 -0.066857636 -0.0033087977 -0.08540377 -0.06319835 -0.026879443 0.0028475223 0.086045474
-0.36582434 -0.10837206 -0.18616901 0.09430189 -0.05426333 0.13584322 -0.09152834 -0.044935368
-0.18180533 -0.0054550203 0.0014075392 0.09663675 0.10354983 0.056767732 -0.071417294 -0.105233595
-0.00709755 0.0727609 -0.043365173 -0.31001747 -0.13837402 -0.01812446 -0.05247299 0.071830496
0.070800714 0.021609424 -0.12121711 0.039580997 0.094843514 0.1527919 0.069154 0.05418871
-0.104469396 0.06449327 -0.005719912 -0.03616809 -0.015715366 -0.026738215 0.14796907 -0.15369232
-0.13520242 -0.2490716 0.06776875 0.06645574 -0.022974065 -0.2320549 -0.08435811 -0.022390641
0.016328212 -0.009049134 -0.060420413 0.0042121625 -0.16449948 0.05757044 -0.06412279 0.11065315
-0.041922186 -0.018927298 0.026131675 0.0130862715 0.116349086 0.022888362 -0.043001506 0.13403673
-0.009912609 -0.080274455 0.036871735 0.12580976 -0.087501 -0.04376952 -0.10480587 -0.03904709
-0.14008875 -0.115164615 0.07400203 0.25577384 0.058884215 -0.009101658 -0.08887187 -0.059514705
0.16239892 0.04573396 -0.04357149 -0.12771872 0.018591223 -0.16528349 -0.038070217 0.07664826
-0.051210523 0.20810345 0.020972734 -0.0564375 0.061328135 0.21325858 0.07895556 0.08322611
0.059651706 0.08082527 -0.06814623 -0.02437156 0.28051248 0.07071237 -0.12999478 -0.019115638
0.024659583 -0.08358535 -0.0058438447 -0.14355808 0.025706008 -0.10537826 0.058682334 0.12792766
0.19052513 -0.23276526 -0.054807276 -0.111297846 0.032028165 0.09622764 0.07949942 0.018357107
-0.12010981 0.022927165 0.22033422 -0.006700248 -0.03980074 0.025092352 -0.07950992 -0.08283474
0.19771479 -0.026546441 0.028790683 -0.0700742 0.030324364 0.015839454 -0.0010824463 0.07413639
-0.030833784 -0.09379596 -0.0064986413 0.0002875771 -0.2618991 -0.2110336 0.028934931 -0.10614463
-0.11088011 0.029936217 -0.025149858 0.00035579296 -0.049944516 -0.0023535055 0.21272372 0.105366446
0.009662117 0.12403779 0.142464 0.15483573 -0.0291981 -0.015118186 -0.1514689 -0.11668202
-0.050476253 -0.055268984 -0.10840982 -0.22540373 0.037154444 0.055620406 0.12882589 -0.11422184
-0.08605169 -0.041983575 -0.1257438 0.037197974 0.26252675 0.025867766 -0.08256017 0.1082136
0.07310713 -0.035942756 0.08017775 0.0034046709 0.33813214 -0.012445216 -0.07257857 0.11740241
0.1425624 0.21365738 -0.042254083 -0.15288389 0.03713731 -0.17419484 0.068550475 0.046585508
-0.020922996 0.17725521 0.12699921 -0.046123736 -0.025535183 -0.07190721 -0.04585222 -0.05115771
0.20054445 -0.0038693175 0.1173607 0.017307656 0.043597855 0.15160841 0.10538625 -0.042603284

bias f4 [13]
00000000: 4c4a 5a3c b2ef 793d d833 eabd 2064 a63d
00000010: 290c d5bd 4dfb 583c 9206 1c3d 1bb3 143d
00000020: 8aa3 fb3d 182e de3d 40f5 c13d 7690 a1bd
00000030: 5a2b 7ebd
0.013323378 0.061019607 -0.1143567 0.08124566 -0.1040271 0.0132435085 0.038092203 0.03630362
0.12287052 0.108486354 0.09470606 -0.07888882 -0.062053062
