scripts/data/250k_nn_ssm_complete.pt (torch, 97169 bytes, 8 tensors)

weight f4 [100, 15]
0	0x404d821b	3.211066
1	0xbf2f1ab8	-0.68400145
2	0x3f7098fb	0.9398343
3	0x401edfb5	2.482404
4	0xbfd8065a	-1.6876938
5	0xbf8734fb	-1.0563043
6	0xc0481d35	-3.1267827
7	0x3f3ed174	0.7453835
8	0xbf53a770	-0.82677364
9	0xc01f3a9a	-2.4879518
10	0x3fdb7127	1.7143906
11	0x3f822d89	1.0170146
12	0xbda5270c	-0.08064088
13	0x3d7fcdfc	0.0624523
14	0x3d1329b5	0.035928447
15	0x3f00453c	0.50105643
16	0x3dd6f776	0.10496418
17	0xbe38ae01	-0.18035127
18	0x3fb11a9e	1.3836248
19	0x401d975a	2.4623628
20	0x3f2d5060	0.6770077
21	0xbe1e633c	-0.15467542
22	0xbcc19759	-0.023631738
23	0x3e81733a	0.25283223
24	0xbe09c2e7	-0.13453256
25	0x3e53dccb	0.20689695
26	0x3eadf0ca	0.3397277
27	0xbeb709c1	-0.3574963
28	0x3f011b55	0.5043233
29	0x3d156b42	0.036479242
30	0xbeed402a	-0.46338016
31	0xbf07b12e	-0.5300473
32	0x3f1cb050	0.6120653
33	0xbf01a6e8	-0.50645304
34	0x3fe041fb	1.7520136
35	0x3f7666b1	0.96250445
36	0x3ee7baf3	0.45259818
37	0xbf224c99	-0.6339813
38	0x3e8ff273	0.28114662
39	0xbd946534	-0.072458655
40	0x3f123791	0.5711604
41	0x3ea099cb	0.31367335
42	0xbec31535	-0.38102117
43	0xc016f0fd	-2.3584588
44	0xbe83cdb4	-0.25742877
45	0xbe2ccece	-0.16875765
46	0x3e551ef8	0.20812595
47	0x3edfc37f	0.4370384
48	0x3f951614	1.1647363
49	0x3f838c29	1.0277148
50	0x3ea0ac46	0.31381434
51	0x3dc2fa7d	0.09520433
52	0xbf29b6fa	-0.66294825
53	0xbf148423	-0.58014125
54	0xc011f6ed	-2.2806962
55	0xbeb1b6f4	-0.34709895
56	0xbcaf683f	-0.021412013
57	0xbf8d176e	-1.1022775
58	0xbd0d1da2	-0.03445209
59	0x3e00df90	0.12585282
60	0xbf3aea1c	-0.7301347
61	0x403d6af6	2.9596534
62	0xbc8a4c62	-0.016882125
63	0xbf7f4748	-0.9971814
64	0x4018452b	2.3792217
65	0x3f675235	0.9035981
66	0x3f50941c	0.81475997
67	0xc035f122	-2.8428426
68	0x3e31f294	0.17377692
69	0x3f3ff3dc	0.74981475
70	0xc012a915	-2.29157
71	0xbf80bc4d	-1.0057465
72	0x3d5ed6d1	0.054404084
73	0x3dc637c9	0.09678609
74	0xbc842fe9	-0.016136127
75	0x3cefaf08	0.029258266
76	0x3d404034	0.04693623
77	0x3da8f6b9	0.082501836
78	0xbdae36eb	-0.085065685
79	0x3c1b55b6	0.009480884
80	0x3c6dde0e	0.014518274
81	0x3f99bd23	1.2010845
82	0x3ed306e2	0.4121619
83	0x3dd2215a	0.102602676
84	0x3e8fac02	0.2806092
85	0xbd7c4011	-0.061584536
86	0xbd911b43	-0.07085278
87	0x3ee10fb7	0.43957302
88	0xbef1c338	-0.47219253
89	0xc01e2268	-2.47085
90	0xbf823895	-1.0173517
91	0xbf325478	-0.6966014
92	0xbf478a21	-0.77945143
93	0xbdd6c61e	-0.104870066
94	0xbebfa0a2	-0.3742724
95	0xbe0a4e05	-0.13506325
96	0x3fbf7fe6	1.4960907
97	0x3ff2f694	1.89815
98	0x3fa16dd2	1.261164
99	0xbe800dcf	-0.25010535
100	0x3f3b9c50	0.7328539
101	0x3eb36f3d	0.35045806
102	0xbed09ba8	-0.40743756
103	0xbff40a71	-1.9065686
104	0xbe1f4852	-0.15554932
105	0xbf92288d	-1.1418625
106	0x3fd5c8b5	1.6701876
107	0x3fa80ed5	1.3129526
108	0xbee23dde	-0.44187826
109	0x3fb21009	1.3911144
110	0x3f163f61	0.5869046
111	0xbd5d76a6	-0.05406823
112	0x3d3a8636	0.04553815
113	0x3e97fc34	0.29684603
114	0xbef6f48c	-0.4823345
115	0x3efbffa6	0.49218482
116	0x3ebd61e4	0.36988747
117	0x3f323018	0.69604635
118	0x3f366ce5	0.7125991
119	0xbe738273	-0.23780231
120	0xbf82f17e	-1.0229948
121	0x3fb10d81	1.3832246
122	0x3f79344c	0.97345424
123	0xbffbfbe1	-1.9686242
124	0xbfa955a5	-1.3229262
125	0xbf949e1d	-1.1610752
126	0x3f86d5bc	1.0533977
127	0xbfcd312c	-1.6030631
128	0xbfa890bf	-1.3169173
129	0x3ffa477b	1.9553064
130	0x3fbcea11	1.4758931
131	0x3f9f555e	1.2447927
132	0x3e8c423c	0.27394283
133	0x3ea0d4b9	0.31412295
134	0xbd749c29	-0.05971924
135	0x3e91348c	0.28360403
136	0xbd93199d	-0.0718262
137	0xbdb14c11	-0.08657087
138	0x3d3d19b9	0.04616711
139	0x3e1e6318	0.15467489
140	0x3d9ab393	0.07553782
141	0xbcbd42be	-0.023103114
142	0x3f0bd0c8	0.5461545
143	0xbd23680c	-0.03989415
144	0xbd72ce3b	-0.059278708
145	0x3dc7b4ef	0.09751307
146	0xbd5e7025	-0.054306168
147	0x3fa07b58	1.2537642
148	0x3f5bcdc7	0.85860866
149	0x3f694ae5	0.91129905
150	0x2f3da912	1.7249516e-10
151	0x2e50a748	4.74423e-11
152	0x2ec97690	9.161483e-11
153	0xaea3c2db	-7.446995e-11
154	0x2f004b35	1.1668251e-10
155	0x2eb58325	8.254223e-11
156	0x2f0c7bde	1.2776932e-10
157	0x2f035e8d	1.1947972e-10
158	0x2f206af2	1.458991e-10
159	0xae218050	-3.6721126e-11
160	0x2f0c9ed7	1.2789357e-10
161	0x2f391ccd	1.6835884e-10
162	0x2dc8d57a	2.283217e-11
163	0x2e93f64f	6.728539e-11
164	0x2e04dd0f	3.0209665e-11
165	0x3f584c2a	0.8449122
166	0xbf811886	-1.0085609
167	0xbf9044e1	-1.127102
168	0xbee8820e	-0.45411724
169	0xbf12b1e5	-0.57302696
170	0xbe924749	-0.2857001
171	0x3dd69525	0.10477666
172	0xbe943351	-0.289454
173	0xbdf22464	-0.11823347
174	0xbda86f1b	-0.08224317
175	0xbd3d135a	-0.046161033
176	0x3c3d7304	0.011563066
177	0xbf795e80	-0.9740982
178	0x401dfec7	2.4686754
179	0xbdfc90eb	-0.123323284
180	0x3f988bf3	1.1917709
181	0x3e658ea9	0.22417702
182	0x3ea529f5	0.32258573
183	0x3bb345fd	0.0054709897
184	0x3e50eb39	0.2040223
185	0x3d303299	0.043017004
186	0x3fa593fd	1.2935787
187	0xbca1bb08	-0.019742504
188	0xbaddbede	-0.0016917845
189	0x3dc764c9	0.0973602
190	0x3d5a3a7c	0.05327843
191	0xbbf3d03d	-0.0074405954
192	0x3f76c926	0.9640068
193	0xbecdc1d4	-0.40186942
194	0x3fb1f6af	1.3903407
195	0xbdd81a5f	-0.10551905
196	0x3d351c46	0.044216417
197	0x3d8237c8	0.06358296
198	0xbb1adbfb	-0.0023629654
199	0x3f0efc4f	0.5585374
200	0xbff30106	-1.8984687
201	0xbdb2d697	-0.08732336
202	0x3c9e0ac1	0.019292237
203	0xbd0e0101	-0.034668926
204	0x3b9d0ca7	0.004792768
205	0xbedcaec5	-0.4310209
206	0x40182ef9	2.377867
207	0x3c593113	0.013256329
208	0x3dd3658d	0.10322104
209	0x3c92f612	0.017939601
210	0xbd4a5371	-0.049395982
211	0xbf8ebcf0	-1.1151409
212	0x3df2024d	0.11816845
213	0x3ee2b0b6	0.44275445
214	0x3e9cf521	0.3065577
215	0xbd6edaf8	-0.058314294
216	0x3fa89a6c	1.3172126
217	0x400f080d	2.2348664
218	0x3f2dd01a	0.6789566
219	0xbf82226c	-1.0166755
220	0xbe0af2b6	-0.1356915
221	0x3d84e9af	0.06489884
222	0xbfca28ec	-1.5793738
223	0x3d277d4e	0.040890984
224	0x3e1ad444	0.15120035
225	0xbfa143ff	-1.2598876
226	0xc02c6ceb	-2.6941478
227	0x3f82ef7a	1.0229332
228	0xbfa564f9	-1.292144
229	0xbfcce7d6	-1.6008251
230	0x3fa39c0c	1.2781997
231	0x3fb0a190	1.3799305
232	0x40332750	2.7992744
233	0xbf8ae0f1	-1.0849897
234	0x3f91f7e2	1.1403773
235	0x3fc62230	1.5479183
236	0xbf9b785b	-1.2146105
237	0x3d22fd08	0.03979209
238	0xbd81c7c0	-0.063369274
239	0x3cf8115f	0.03028172
240	0xbef3561d	-0.47526637
241	0xbf84ab84	-1.0364842
242	0xbf8c83db	-1.0977739
243	0x3ecafd47	0.3964636
244	0xbf0e6973	-0.5562965
245	0xbe5b6e1d	-0.21428724
246	0xbe7cfab9	-0.24705018
247	0xbef2b493	-0.47403392
248	0xbed273d4	-0.41103995
249	0x3ea35910	0.31903887
250	0xbc86e347	-0.016465796
251	0x3d606e51	0.054792706
252	0x3f18715e	0.59547985
253	0x401b29be	2.4244227
254	0x3e2abb5f	0.16673039
255	0xbf877c44	-1.0584798

bias f4 [100]
0	0xbe35c123	-0.17749457
1	0xc02c1dc7	-2.6893175
2	0x3e366ef2	0.1781576
3	0x3f69ca26	0.9132408
4	0xbe05b557	-0.13057457
5	0xbf5b1a47	-0.8558697
6	0x3ddc19b3	0.10747089
7	0xc017e0db	-2.373099
8	0xbc3643b8	-0.011124544
9	0xc00e2e3e	-2.2215724
10	0xad5e1fdd	-1.2626314e-11
11	0x3f71c8db	0.94447106
12	0xc02d3a02	-2.7066655
13	0xbf83c0b8	-1.0293188
14	0xbf11d685	-0.56967956
15	0xbda41a80	-0.08012867
16	0x3e6d1a6b	0.23154609
17	0x3ef5e36b	0.4802507
18	0x3dc726b1	0.09724177
19	0x3e518c63	0.2046371
20	0x3e7c679a	0.24648896
21	0x3f836072	1.0263808
22	0x3f99b46b	1.2008184
23	0x3e71d27d	0.23615451
24	0x3df41b33	0.1191925
25	0xbf1d00f4	-0.6132958
26	0x3f1c50ac	0.61060596
27	0xbe4a8dc7	-0.19780646
28	0x3f86992e	1.0515497
29	0x3e4995ef	0.19686101
30	0xbfbbf5f0	-1.4684429
31	0xbf8fb940	-1.1228409
32	0x3f678ad2	0.904462
33	0x3e29d86e	0.16586468
34	0x3f894c2c	1.0726371
35	0x3f9727b5	1.1808993
36	0x3e38403f	0.17993258
37	0x3fb2c9f9	1.3967887
38	0xbf06675a	-0.5250145
39	0x3eb72ff3	0.3577877
40	0x3d3f2160	0.04666269
41	0xbf8a65cb	-1.0812315
42	0x3fc2bfae	1.5214746
43	0xbebf0231	-0.3730636
44	0xbf680e53	-0.9064686
45	0x3eff7375	0.49892774
46	0xbdcf89d2	-0.10133709
47	0xc0063631	-2.0970576
48	0x3e333249	0.17499651
49	0x3fb54735	1.4162356
50	0x3caf8568	0.021425918
51	0x3df97cd2	0.12182011
52	0xbeddaebc	-0.43297374
53	0x3f477e67	0.7792725
54	0x3ef5a525	0.47977558
55	0xbfca202b	-1.5791067
56	0x3e0d797e	0.13815877
57	0x3e9053b7	0.2818887
58	0x3f466f00	0.7751312
59	0xbcbbe4c7	-0.022936238
60	0x3ccd0f8a	0.025031824
61	0x3e951475	0.2911717
62	0xbf92ab74	-1.1458573
63	0x3f55b084	0.83472466
64	0xbf83c9ac	-1.029592
65	0xbebd5da8	-0.36985517
66	0x3e6c19d8	0.23056734
67	0x403c1ff4	2.9394503
68	0xbeae533b	-0.34047875
69	0x3e23fb3f	0.16013812
70	0x3ff8d7e2	1.9440882
71	0x3ef76165	0.48316494
72	0x401eef0a	2.4833398
73	0x3f16a481	0.58844763
74	0x3e3ea2c5	0.18616779
75	0xb3b60e74	-8.4776644e-08
76	0xbf849de0	-1.036068
77	0xbdac93d6	-0.08426635
78	0xbf92fa57	-1.1482648
79	0x3f4fe6b6	0.8121141
80	0x3dae12a8	0.08499652
81	0x3f0ebe46	0.55759084
82	0x3ea9c82e	0.33160537
83	0x3ff8bb70	1.9432201
84	0xbf4d4a3d	-0.80191404
85	0xbdfd3d25	-0.12365178
86	0x3e54391d	0.20724912
87	0x3fc5f8d6	1.5466564
88	0x3fcbbe2f	1.5917414
89	0x3e3bc27c	0.18335909
90	0xbd99c5e4	-0.07508448
91	0xbf182e37	-0.5944552
92	0xbf70d62c	-0.940768
93	0x3f02e74d	0.51134187
94	0xbe5623e0	-0.20912123
95	0x3f935826	1.1511276
96	0xbf9a5034	-1.2055726
97	0x3eaf875e	0.34282964
98	0x4048ad3c	3.1355734
99	0xbf340f45	-0.703358

weight f4 [100, 100]
0	0xbe23b91e	-0.15988585
1	0xbd81c19c	-0.06335756
2	0xbba8af2c	-0.0051478352
3	0x3d2456c4	0.04012181
4	0x3e1df4e4	0.1542545
5	0xbb4a581a	-0.0030875267
6	0xbc73f675	-0.014890303
7	0xbc311a79	-0.010809534
8	0xbdffee0b	-0.12496575
9	0xbc642bb0	-0.013926432
10	0x2ed184b7	9.5277945e-11
11	0xbd21258b	-0.039342444
12	0x3d072ccd	0.03300171
13	0xbd338c96	-0.043835245
14	0xbb8dad88	-0.004323665
15	0xbeca699d	-0.39533702
16	0xbc923c6c	-0.017851077
17	0xbcbd083a	-0.023075212
18	0xbdb13c14	-0.08654037
19	0x3ead9651	0.33903745
20	0xbe54ef73	-0.20794468
21	0x3d39e896	0.045387827
22	0x3da9d7b1	0.08293093
23	0xbe912d57	-0.28354904
24	0xbdad949e	-0.08475612
25	0x3cd1d5cd	0.025614643
26	0xb9bdfacc	-0.00036235747
27	0xbd8b9bd0	-0.06816828
28	0x3d5e3eb7	0.05425903
29	0x3db233fa	0.0870132
30	0x3b0b956d	0.0021298782
31	0x3cf433f6	0.029809933
32	0xbbbc3717	-0.005743872
33	0x3e2b1efd	0.1671104
34	0xbd768522	-0.06018556
35	0x3d6bf400	0.057605743
36	0x3d1564d7	0.03647312
37	0xbbcb67ae	-0.006207428
38	0x3d1cde2c	0.038297817
39	0x3e70be88	0.23510182
40	0x3e7d8639	0.24758233
41	0xbbda61be	-0.006664484
42	0xbc9cfffe	-0.019165035
43	0x3badb680	0.0053012967
44	0x3c253ed9	0.010085785
45	0x3d1aa204	0.037752166
46	0xbd90619a	-0.07049866
47	0x3a9fceb1	0.0012192336
48	0x3dee30ec	0.11630425
49	0xbd52fcc8	-0.051510602
50	0x3d2614ad	0.04054706
51	0x3b8d02de	0.0043033203
52	0x3c314179	0.010818833
53	0xbe217e59	-0.15770854
54	0xbe3fe328	-0.18738997
55	0x3c7d847b	0.01547348
56	0xbcb62b50	-0.02223745
57	0xbd9720f5	-0.07379333
58	0xba786c69	-0.00094766036
59	0x3d9aa996	0.07551877
60	0xbac7b4f6	-0.0015236426
61	0xbc73e1e5	-0.0148854
62	0x3aaeccaa	0.0013336141
63	0x3c69ea30	0.014277026
64	0xbd1a494c	-0.037667558
65	0xbe1484bb	-0.14503758
66	0xbd1c1a93	-0.03811128
67	0xb94d6843	-0.00019589164
68	0xbdd5db3e	-0.10442208
69	0xbe4d5ffd	-0.20056148
70	0x3c80d0f3	0.015724635
71	0x3d637c53	0.055538487
72	0xbd8fab16	-0.07015054
73	0xbc0fe90a	-0.008783588
74	0x3e283ec9	0.164302
75	0x354bccdf	7.592152e-07
76	0x3b833b8e	0.004004902
77	0x3e8ffbcd	0.28121796
78	0xbbb7f828	-0.0056142993
79	0x3c9cfc74	0.019163348
80	0x3bb9f1d8	0.005674582
81	0xbe1cafce	-0.15301439
82	0x3d23d31a	0.039996244
83	0x3d846eee	0.06466471
84	0x3cb97320	0.022637904
85	0x3c45d00d	0.012073529
86	0x3e727ec1	0.23681165
87	0x3b947d93	0.004531571
88	0xbca8424f	-0.02053943
89	0xbde09528	-0.10965949
90	0x3dd11f44	0.102110416
91	0x3e2412da	0.16022816
92	0x3c4a6669	0.012353518
93	0xbdc0a619	-0.094066806
94	0xbc87ff5a	-0.016601253
95	0x3d0c0a5a	0.03418956
96	0xbc99dd00	-0.018782139
97	0x3b86ced8	0.004114013
98	0xbc9c3c5b	-0.019071748
99	0xbd070f8d	-0.032973815
100	0xbe973b99	-0.29537657
101	0xbe9470f3	-0.28992423
102	0x3f95f922	1.1716654
103	0x3f250663	0.6446287
104	0xbf13ac66	-0.57684934
105	0xbf757ddc	-0.9589517
106	0xc004c2c6	-2.074388
107	0xbefb00c8	-0.49024034
108	0xbe4e53c3	-0.2014914
109	0x3fb30368	1.3985415
110	0x2db7d3ca	2.0898745e-11
111	0xbea73984	-0.32661068
112	0x3f588792	0.84581864
113	0x3eea3343	0.45742235
114	0x3f096052	0.536626
115	0x3eeb92b2	0.46010357
116	0xc009adeb	-2.15124
117	0x3fe2a050	1.7705173
118	0xbf82665e	-1.018749
119	0xbe8d5128	-0.2760098
120	0x3f2d0cf3	0.67597884
121	0x3f82ac5d	1.0208851
122	0x3e1ed602	0.15511325
123	0x3dda5478	0.106606424
124	0xbb0ef470	-0.0021813177
125	0xbf640058	-0.89063025
126	0x3d88082b	0.06642183
127	0xbeb1d8f8	-0.34735847
128	0x3e67ece0	0.22648954
129	0x3f6b2eb4	0.9186814
130	0xbef2fed8	-0.47460055
131	0xbead7791	-0.33880284
132	0xbe2ed4c6	-0.17073354
133	0xbdedf5d0	-0.11619151
134	0x3eba50ca	0.36389762
135	0xbee1ddc1	-0.44114497
136	0x3edb0adc	0.42781723
137	0xbf499307	-0.7873997
138	0xbf85855c	-1.0431323
139	0x3d7d9f4b	0.06191949
140	0x3f1005d2	0.5625888
141	0xbe9d7743	-0.30755052
142	0x3d8396b0	0.06425226
143	0xbf63a60f	-0.8892526
144	0x3f62c690	0.8858423
145	0xbdb207c4	-0.086928874
146	0xbedc3f39	-0.43016985
147	0xc001f731	-2.0307124
148	0x3eae858f	0.34086272
149	0x3f45d2e1	0.772749
150	0x3f269478	0.65070295
151	0xbd1609b7	-0.03663036
152	0xbee8c39e	-0.45461744
153	0xbf891d12	-1.0711997
154	0xbf12659e	-0.57186306
155	0x3fd5d824	1.6706586
156	0xbf81ab35	-1.0130373
157	0xbdfbd73f	-0.12296914
158	0xbf5988d8	-0.8497443
159	0xbec41328	-0.38295865
160	0xbf284a32	-0.65738213
161	0xbfab99ff	-1.3406371
162	0xbe96a5c9	-0.2942336
163	0x3d07edf3	0.03318591
164	0x3fb61cb3	1.4227508
165	0xbe94a9c3	-0.29035768
166	0xbf8751e1	-1.0571862
167	0x3ef12fae	0.4710669
168	0x3e9eb66c	0.30998552
169	0x3ea0eabe	0.31429094
170	0x3e54eb69	0.20792927
171	0x3f8ac689	1.0841838
172	0xbf188374	-0.5957558
173	0xbe87fe64	-0.26561272
174	0x3ed202c9	0.4101775
175	0x34519095	1.951724e-07
176	0xbfdd8bec	-1.7308326
177	0xbe008d87	-0.12553988
178	0x3fa6b291	1.3023244
179	0x3edc4e9e	0.4302873
180	0xbef4fdd5	-0.47849908
181	0xbeec4293	-0.46144542
182	0x3ed1c26d	0.40968648
183	0x3ee278b8	0.44232726
184	0x3e8650f4	0.26233637
185	0x3f504a81	0.81363684
186	0xbbfcacf6	-0.0077110482
187	0xbf9ab2f4	-1.2085862
188	0xbfc6c033	-1.5527405
189	0x3d2e314f	0.042527493
190	0xbc354de2	-0.011065932
191	0xbdeab4e4	-0.114602834
192	0xbf87ede3	-1.0619472
193	0x3f4f24f1	0.80915743
194	0x3e120e84	0.1426335
195	0x3f44e4f1	0.76911837
196	0xbd279fa1	-0.04092372
197	0xbf807bcd	-1.0037781
198	0x3fb3df2f	1.4052485
199	0x3f062df8	0.5241389
200	0xbdd1e941	-0.10249568
201	0xbe3e2d6b	-0.18572013
202	0xbe8e1d32	-0.2775665
203	0x3e1d2fe5	0.15350302
204	0xbe1acbcc	-0.15116805
205	0x3fef931f	1.8716773
206	0xbe9a6a4c	-0.30159223
207	0x3eb673b4	0.3563515
208	0xbe0c610d	-0.13708897
209	0xbea52f74	-0.32262766
210	0x2e6c063c	5.3665725e-11
211	0xbc3bc76b	-0.011461119
212	0x3f6f6de8	0.9352708
213	0x3e41a6c8	0.18911278
214	0xbf256719	-0.6461044
215	0xbe827812	-0.2548223
216	0xbe1fbdbc	-0.15599722
217	0x3dcbf6b9	0.09959168
218	0xbe281c60	-0.16417074
219	0xbe822dd2	-0.25425583
220	0x3e6c3d03	0.23070149
221	0xbe1e306a	-0.15448156
222	0x3f103821	0.56335646
223	0xbe6bb36c	-0.23017663
224	0x3cebdeff	0.028792856
225	0xbf3b45f8	-0.7315364
226	0xbdff28ae	-0.12458931
227	0xbd89a6ab	-0.067212425
228	0xbe8793cf	-0.26479957
229	0xbe2c8949	-0.16849245
230	0x3ca92c6e	0.020651069
231	0xbceb2c27	-0.028707577
232	0xbfae6cce	-1.3626955
233	0x3e156f20	0.14593172
234	0xbf2d982f	-0.6781034
235	0x3f988bec	1.1917701
236	0x3ec66482	0.38748556
237	0x3f1eb021	0.619875
238	0x3e98b857	0.2982814
239	0x3da10d2c	0.078638405
240	0xbdacb0a7	-0.08432131
241	0x3ed28825	0.41119495
242	0x3eb3752e	0.35050339
243	0xbdbe5e06	-0.09295277
244	0x3db6122f	0.08890187
245	0x3dc0b5eb	0.09409698
246	0x3db608eb	0.0888842
247	0xbdf777f9	-0.1208343
248	0xbe07b3e1	-0.13252212
249	0xbf7a33b5	-0.9773515
250	0x3e558d25	0.20854624
251	0xbde3fef6	-0.11132614
252	0xbe944ad9	-0.28963354
253	0xbefea536	-0.4973542
254	0xbecb5192	-0.3971067
255	0x3c88f3f2	0.016717885

bias f4 [100]
0	0xbaf466c6	-0.0018646352
1	0x402e28b8	2.7212353
2	0x402766f7	2.6156595
3	0x3e158086	0.14599809
4	0xbf5b2f27	-0.85618824
5	0xbf99dd96	-1.2020748
6	0x3cf9e230	0.030503362
7	0x3ef59a2d	0.4796919
8	0x3ecc2612	0.39872795
9	0x3f895526	1.072911
10	0x3d4b742e	0.049671344
11	0x3a80241a	0.0009776384
12	0xbfdac79c	-1.7092166
13	0xbf01f269	-0.50760514
14	0x3faa4556	1.330241
15	0xbdec8e65	-0.11550597
16	0xc03070d5	-2.7568867
17	0x3d8e64a9	0.06952793
18	0x3f3a056a	0.7266451
19	0x4002fdc1	2.046738
20	0x3ed43d26	0.41452903
21	0x3ee24d62	0.44199663
22	0xbcd8729b	-0.026421836
23	0xbf0624a9	-0.5239969
24	0x3f89f52d	1.0777947
25	0x3eaa6c63	0.33285818
26	0x3f9db784	1.232163
27	0x3dfcacb8	0.12337631
28	0x3f8ab8fd	1.0837704
29	0xbf10a0fa	-0.5649563
30	0x3ed5f6e9	0.4178994
31	0xbee5ce8d	-0.44884148
32	0x3fc29884	1.5202794
33	0xbf0f86ad	-0.56064874
34	0x3f1994d6	0.5999273
35	0x3ef108df	0.4707708
36	0xbf485f44	-0.78270364
37	0xbdfb49f8	-0.12269968
38	0xbd57fa09	-0.052728686
39	0xbf82b9e9	-1.0212985
40	0xbde8bdd7	-0.11364334
41	0x3faa476b	1.3303045
42	0xbfbe34fb	-1.4859918
43	0xbf195068	-0.59888315
44	0x3d00ceea	0.03144733
45	0xbf5a7268	-0.8533082
46	0xbf75b666	-0.9598144
47	0x3f907268	1.1284914
48	0xbe9f3915	-0.31098238
49	0xbee958d9	-0.45575598
50	0xbe633fe3	-0.2219234
51	0xbdfe3a3c	-0.12413451
52	0xbf7a1ebb	-0.9770314
53	0x3f9b973a	1.2155526
54	0xbf64ddae	-0.89400756
55	0xbedd168a	-0.43181258
56	0x3f3e2f08	0.74290514
57	0xc031a633	-2.775769
58	0xc010b683	-2.2611396
59	0x3e8738ab	0.26410422
60	0xbeac4bf1	-0.3365169
61	0xbd4aeda1	-0.049543027
62	0xbf5b6f55	-0.85716754
63	0x3f1cad64	0.61202073
64	0x3ea4ee1d	0.32212916
65	0x3ea29b46	0.3175909
66	0x3d192e90	0.03739792
67	0xbf127b5c	-0.5721948
68	0xbf34d22e	-0.7063321
69	0xc02a70e1	-2.6631396
70	0x402f59ce	2.7398562
71	0x3c8acb17	0.016942544
72	0xbdf44e81	-0.11929036
73	0x3c6717ca	0.014104793
74	0x3e918432	0.2842117
75	0x3e879a36	0.2648484
76	0x3e543698	0.20723951
77	0x3c5ac246	0.013351982
78	0xbe3568c2	-0.17715743
79	0xbfd4b49f	-1.6617621
80	0xbd9f7268	-0.07785493
81	0xbece4a76	-0.40291184
82	0xbe000b71	-0.12504365
83	0x3f3b22fb	0.7310025
84	0x3f1f081d	0.62121755
85	0x3ff8699a	1.9407227
86	0x3eea09a3	0.45710477
87	0xc001e126	-2.029367
88	0x3f7eb497	0.9949431
89	0x3c7393a6	0.014866745
90	0xbef62652	-0.4807611
91	0xbf96014e	-1.1719148
92	0xbeb9cda2	-0.36289698
93	0xc00f2981	-2.2369082
94	0x3f728cb4	0.94745946
95	0x3d30f3ca	0.043201245
96	0x3edbd40c	0.42935216
97	0x4027b582	2.6204534
98	0x3fa603b9	1.2969886
99	0xbc1f1b0f	-0.009711041

weight f4 [100, 100]
0	0xbf168ce4	-0.5880873
1	0x3f28470a	0.65733397
2	0xbef3eafa	-0.4764021
3	0x3f7d1004	0.9885256
4	0x3d6e35f8	0.058156937
5	0xbe19dc42	-0.15025428
6	0x3ea6fe79	0.32616022
7	0xbfaac90a	-1.3342602
8	0xbe221ada	-0.15830556
9	0xbe723b93	-0.23655538
10	0x3e616f4c	0.22015113
11	0xbf9ecabb	-1.2405618
12	0x3ecb8585	0.39750305
13	0xbe71ca8a	-0.23612419
14	0x3f8ac831	1.0842344
15	0x3e09992f	0.13437341
16	0xbea4bef6	-0.32176942
17	0x3e67c2c9	0.22632898
18	0xbe8933ce	-0.26797336
19	0x3eee7387	0.46572515
20	0x3eb90006	0.3613283
21	0xbf9a90ac	-1.20754
22	0xbdfff051	-0.124970086
23	0xbeb8ac4d	-0.36068955
24	0xbfb190b2	-1.3872283
25	0x3e4c5fdd	0.19958444
26	0xbe80bbda	-0.2514332
27	0xbe115033	-0.1419075
28	0xbfc84659	-1.5646468
29	0x3e288d8e	0.16460249
30	0x3e8cd97d	0.2750968
31	0xbf14a14c	-0.5805862
32	0xbdb79f4c	-0.0896593
33	0xbdef4413	-0.11682906
34	0xbf61000f	-0.87890714
35	0x3dfd5b61	0.12370945
36	0xbd48d4df	-0.049031135
37	0xbcd58d39	-0.026068317
38	0x3de4cec6	0.111722514
39	0x3e3a751c	0.18208736
40	0xbe99a539	-0.30008867
41	0x3e0f3052	0.13983276
42	0xbdf9f8c1	-0.12205649
43	0x3e713210	0.23554254
44	0xbf2932be	-0.6609305
45	0xbcb09e2b	-0.021559795
46	0x3e2eeee2	0.17083314
47	0xbf2825fd	-0.65682966
48	0x3f2ad9c5	0.6673854
49	0x3f29fad3	0.6639835
50	0xbc585e86	-0.01320613
51	0xbc2513b2	-0.0100754965
52	0xbef1880d	-0.4717411
53	0x3ef9ad92	0.48765236
54	0xbf8d606e	-1.1045053
55	0xbe64f025	-0.22357233
56	0xbf7d1226	-0.9885582
57	0x3f0c1cf6	0.5473169
58	0xbfd194ba	-1.6373513
59	0xbe638684	-0.22219282
60	0x3e24556a	0.16048208
61	0x3d56b4f9	0.052418683
62	0x3f064ea6	0.5246376
63	0xbe55ed1a	-0.20891228
64	0xbd787060	-0.060654044
65	0xbeac2619	-0.33622816
66	0x3cc59dc5	0.024123082
67	0xbebd6997	-0.3699462
68	0x3fd8e5e3	1.6945156
69	0x3d961662	0.07328488
70	0x3d670b96	0.056407534
71	0xbf51b89d	-0.8192232
72	0x3d9110f2	0.0708331
73	0x3e50914f	0.20367931
74	0xbf382ac1	-0.7194024
75	0x3e0563cf	0.13026355
76	0x3ea250d4	0.31702292
77	0xbea5562e	-0.32292312
78	0xbdba9f1f	-0.09112381
79	0xbe3ae3a7	-0.18250905
80	0xbee9bb36	-0.45650643
81	0xbc7691f6	-0.015049448
82	0xbd4f9623	-0.05068029
83	0x3f06a510	0.52595615
84	0xbf005d01	-0.5014191
85	0xbc2b4bd5	-0.0104550915
86	0x3e3fcfaa	0.18731561
87	0x3e1223ad	0.14271422
88	0xbe036710	-0.12832284
89	0xbe166b7a	-0.14689437
90	0xbd2620ef	-0.04055875
91	0x3f499622	0.7874471
92	0xbf38a349	-0.72124153
93	0xbe3a4ce3	-0.18193392
94	0xbd663b05	-0.05620863
95	0x3f469ebe	0.7758597
96	0x3ea80395	0.32815233
97	0xbf195b9f	-0.5990543
98	0x3ed549c7	0.4165785
99	0x3e8ef30b	0.27919802
100	0x3e4e2c38	0.20134056
101	0x3e74fef2	0.23925379
102	0xbe838aa4	-0.25691712
103	0x3ef9ca61	0.48787215
104	0xbc22d5a7	-0.009938634
105	0x3c1ce8c7	0.009576983
106	0xbe531f44	-0.20617396
107	0x3ec9a4e1	0.39383605
108	0xbd985ad6	-0.074392006
109	0xbf11aca5	-0.5690406
110	0x3d1e8cde	0.03870856
111	0x3f0ac9dd	0.5421427
112	0x3eefd698	0.4684341
113	0xbe9734b9	-0.29532412
114	0x3f05afe8	0.52221537
115	0x3c3ce4ba	0.011529142
116	0xbdd0de22	-0.101986185
117	0x3ca2ec57	0.019888086
118	0x3d8a5209	0.06753928
119	0xbec088df	-0.37604424
120	0x3b991432	0.004671597
121	0x3e2a21ad	0.16614409
122	0x3d9619f9	0.07329173
123	0x3e33fb88	0.1757642
124	0x3f97b4a9	1.1852008
125	0x3d63b6a8	0.055594116
126	0xbe1c4dcc	-0.15264052
127	0x3cef6fbf	0.02922809
128	0x3f3c7897	0.73621505
129	0x3da3e5cb	0.08002814
130	0xbe9386ee	-0.2881388
131	0xb9f6dc4f	-0.0004708492
132	0xbe2543a2	-0.16139081
133	0x3d1ae9d0	0.037820637
134	0x3e2c5566	0.16829452
135	0x3e00522a	0.12531343
136	0xbd35c1eb	-0.044374388
137	0x3bf74a36	0.0075466884
138	0xbbf81ec9	-0.0075720293
139	0x3f822155	1.0166422
140	0xbe768da9	-0.24077477
141	0x3eda237d	0.426052
142	0x3edb5337	0.42836925
143	0x3f0c2549	0.5474439
144	0xbc71cdb0	-0.014758512
145	0xbc96695f	-0.018360792
146	0xbdaeb28e	-0.0853015
147	0x3e9723d4	0.29519522
148	0xbe10d1e3	-0.14142565
149	0x3efa30b7	0.4886529
150	0xbe0fbe40	-0.14037418
151	0xbeab269e	-0.334279
152	0xbccbad26	-0.024862837
153	0x3ebbd06e	0.36682457
154	0x3e4291c8	0.19000924
155	0xbddfb562	-0.10923268
156	0xbf1fa860	-0.62366295
157	0x3f14d048	0.5813031
158	0x3eb7d7ae	0.35906738
159	0x3be0a16f	0.006855182
160	0xbde0438e	-0.10950385
161	0xbd408e5b	-0.04701076
162	0x3ddb35be	0.1070361
163	0x3dfb5b25	0.12273244
164	0x3d6d67c4	0.057960287
165	0x3e899286	0.268696
166	0x3de57355	0.112036385
167	0xbe45376f	-0.19259427
168	0x3f0dd523	0.55403346
169	0x3eed5ee9	0.46361473
170	0x3d903b7d	0.070425965
171	0x3e7802e6	0.24219856
172	0xbdd71889	-0.105027266
173	0x3ce6c2b8	0.028169021
174	0x3faccca3	1.349995
175	0x3b22805c	0.0024795746
176	0xbc9a872a	-0.01886328
177	0xbd413ab1	-0.047175113
178	0xbe530f05	-0.20611198
179	0xbee7461f	-0.45170686
180	0xbec634e1	-0.38712218
181	0x3d650308	0.055911094
182	0x3df2fedd	0.118650176
183	0x3eebf159	0.4608257
184	0x3db17d17	0.08666437
185	0x3eb16c8f	0.34653136
186	0xbb812f7a	-0.003942427
187	0xbcddd63f	-0.0270797
188	0x3e9a360d	0.30119362
189	0xbd22d95b	-0.039758068
190	0xbe33075e	-0.17483279
191	0x3e7c5f77	0.24645792
192	0x3e483acc	0.19553679
193	0x3e1c6b47	0.15275298
194	0xbeea2d4f	-0.45737693
195	0x3d1ea743	0.038733732
196	0x3e068c8e	0.13139555
197	0x3d976255	0.07391802
198	0xbfa00ff7	-1.2504872
199	0xbe0de916	-0.13858446
200	0x3f3309bc	0.6993673
201	0xb9bf81cb	-0.00036527062
202	0x3c878b41	0.016545894
203	0x3a798e80	0.00095198303
204	0x3b81992b	0.0039550266
205	0xbdce1c84	-0.10064033
206	0xbf786130	-0.97023296
207	0x3c4a24fb	0.012337918
208	0xbe0f08b8	-0.1396817
209	0xbca8fb7c	-0.02062773
210	0x3b91efd8	0.0044536404
211	0x3f2ada21	0.6673909
212	0x3c84786e	0.016170707
213	0xbce15486	-0.027506124
214	0xbc41c61a	-0.011827016
215	0xbe2a35ba	-0.16622058
216	0x3cc36eb5	0.0238565
217	0x3e2a0cfb	0.16606514
218	0xbcb1572c	-0.021648012
219	0x3cc93cb6	0.024565082
220	0xbd5e7827	-0.054313805
221	0x3e6aef47	0.2294284
222	0xbc315b78	-0.0108250305
223	0x3c94866a	0.0181305
224	0x3d61692d	0.055031944
225	0xbd586981	-0.05283499
226	0x3d1b9c30	0.03799075
227	0xbb5266de	-0.003210477
228	0xbdafa56f	-0.08576476
229	0x3ec36811	0.38165334
230	0xbdeb2cf6	-0.11483185
231	0xbb02b63d	-0.0019945048
232	0xbd0aacf0	-0.033856332
233	0xbe513f7a	-0.2043437
234	0xbb96632a	-0.004589458
235	0xbd610c1c	-0.05494319
236	0xbd02519f	-0.03181612
237	0xbf5bb728	-0.8582635
238	0xbe85bc7d	-0.26120368
239	0xbc90b433	-0.01766405
240	0xbbe251ca	-0.0069067227
241	0x3cbc6d63	0.023001378
242	0x3d0fe091	0.035126273
243	0xbd1319d7	-0.035913315
244	0x3f0cd463	0.55011576
245	0x3d4a9a60	0.04946363
246	0x3e36c022	0.1784673
247	0x3cdd2538	0.026995286
248	0x3e4a0cce	0.19731447
249	0xbc85d658	-0.016337559
250	0xbd823d8d	-0.06359396
251	0xbcfef37e	-0.031121965
252	0xbc9e6573	-0.019335484
253	0xbd159e93	-0.03652818
254	0xbc1fd280	-0.009754777
255	0x3e9d7ce3	0.30759344

bias f4 [100]
0	0xc0115f1a	-2.2714295
1	0x3ea2b1cf	0.31776282
2	0x3d2abd58	0.04168448
3	0x3dbe8855	0.09303347
4	0xc0574a7a	-3.3639207
5	0xbbed0b94	-0.0072340462
6	0x3e5177ca	0.20455852
7	0xbf64510c	-0.8918617
8	0xc03fc1a6	-2.9961944
9	0xc01debb6	-2.4675117
10	0xbe501cd3	-0.20323496
11	0xbfc58290	-1.543047
12	0xbd1f939e	-0.038959138
13	0xbe25feb7	-0.16210447
14	0x3d3d93c1	0.046283487
15	0xbdd99378	-0.106238306
16	0xbf85071f	-1.0392798
17	0xbefc3e02	-0.49266058
18	0x3e207291	0.15668704
19	0x40dac683	6.8367324
20	0xc123e0ad	-10.2423525
21	0x406ab9e0	3.667595
22	0x3c290524	0.010316167
23	0xbb8aca66	-0.0042355536
24	0x3e6d5486	0.23176774
25	0x3e3a831a	0.18214074
26	0x4036f48a	2.8586755
27	0xbc60760e	-0.013700021
28	0xbb5b6a7d	-0.003348022
29	0x3ee3e748	0.4451239
30	0x3dea1430	0.11429632
31	0x3fb28ca6	1.3949172
32	0xbd638c62	-0.0555538
33	0x408c552b	4.3853965
34	0xbcec9163	-0.02887792
35	0xc02fa6a1	-2.7445452
36	0x400a6bc2	2.162827
37	0x3c75c493	0.01500048
38	0x40074f71	2.1142237
39	0x3f66fa5f	0.90225786
40	0xbfca6b01	-1.5813905
41	0xc021eaac	-2.5299482
42	0xbf157ec8	-0.5839658
43	0xc083b5ea	-4.1159563
44	0xbe4f1c96	-0.20225748
45	0xbe39a269	-0.18128361
46	0xc0076e61	-2.116112
47	0x401aac45	2.4167645
48	0xc006752e	-2.100902
49	0xbd229663	-0.0396942
50	0xbf8368f4	-1.0266404
51	0xbd2208af	-0.039559063
52	0x3e42b301	0.19013597
53	0x3c1456f6	0.009053936
54	0xbf69491f	-0.911272
55	0x3f8c58a7	1.0964555
56	0xbf67cb75	-0.90544826
57	0xbf0b56ef	-0.54429525
58	0x41010a1c	8.064968
59	0xc0b2af69	-5.5839124
60	0xbd0b743e	-0.034046404
61	0x402aaac4	2.6666727
62	0x3da397a4	0.079879075
63	0x3fc98cbf	1.5746077
64	0x3f5524f9	0.8325954
65	0xbf462ab0	-0.77408886
66	0xbf9881db	-1.1914629
67	0x3d2d8419	0.042362306
68	0xbf107cbb	-0.56440324
69	0xbd9ef55b	-0.077616416
70	0xbf97aabe	-1.1848981
71	0xbd02700c	-0.031845137
72	0x3e23ed6a	0.16008535
73	0x3b9a5147	0.004709396
74	0x3f204015	0.6259778
75	0x40a8eb97	5.2787585
76	0x4094ac3c	4.6460247
77	0xbff92788	-1.9465189
78	0xc105e30a	-8.367929
79	0x3e00f7b8	0.12594497
80	0xbf84fd38	-1.0389776
81	0xbe387315	-0.1801265
82	0x3d0b7400	0.034046173
83	0xbf9c88dc	-1.2229266
84	0xbd23cab4	-0.039988235
85	0xbf9274da	-1.144191
86	0xbf4cccdb	-0.80000085
87	0xbc5cfb10	-0.013487592
88	0xc0398f11	-2.899357
89	0x3e0426f7	0.12905489
90	0xbf755dd4	-0.95846295
91	0x3ffa0271	1.9531995
92	0xc08f63fe	-4.480956
93	0x3ddf7937	0.10911792
94	0x3ff0d503	1.8815006
95	0xbee895d5	-0.45426813
96	0xbd1f8939	-0.038949225
97	0x3f8e5302	1.1119082
98	0xbd7eab65	-0.062175173
99	0xbe109d0b	-0.14122407

weight f4 [13, 100]
0	0xbb7451cf	-0.0037280207
1	0xbb67d430	-0.0035374276
2	0x3e79019f	0.24317025
3	0x3e48977b	0.19589035
4	0xbb87b316	-0.0041412218
5	0x3e542493	0.20717077
6	0x3e2f6564	0.17128521
7	0x39f4adc2	0.00046668766
8	0xbbe93798	-0.007117223
9	0xbb5467b6	-0.003241045
10	0x3aed29b3	0.0018094092
11	0x3bbd6cf6	0.0057808114
12	0xbe84774e	-0.25872272
13	0x3e52d6ce	0.20589754
14	0x3e8fa787	0.280575
15	0x3e538d44	0.20659357
16	0xba53791b	-0.00080670574
17	0xbb845c15	-0.0040392973
18	0xbe43137d	-0.19050403
19	0x3c1e6e5f	0.009669869
20	0xbb0fb176	-0.0021925843
21	0x394ceae1	0.00019542455
22	0xbe70de50	-0.23522305
23	0x3e92e754	0.28692114
24	0xbbd54ed3	-0.0065096407
25	0xbe5791cc	-0.21051711
26	0x3c05c4c3	0.008164587
27	0x3e8e27fb	0.27764878
28	0xbc40c9ec	-0.011766892
29	0x3bf0bfe2	0.007347093
30	0xbe58bc73	-0.21165638
31	0xba07010f	-0.0005149999
32	0x3bde4b12	0.0067838514
33	0x3b90fcb6	0.0044246567
34	0xbe705a3b	-0.2347192
35	0xbc6759f2	-0.014120566
36	0x3be3618a	0.006939118
37	0x3dc5274d	0.09626637
38	0xbaee6291	-0.0018187334
39	0x3b0f6f99	0.0021886586
40	0xbbd7cd0d	-0.0065857233
41	0xbc2e5c2d	-0.010642094
42	0x389f0cbf	7.584085e-05
43	0xbba74d99	-0.005105686
44	0xbe24ccb1	-0.16093709
45	0xbe4f2a17	-0.202309
46	0xbb9d192e	-0.0047942614
47	0xba7269c6	-0.0009247329
48	0xbab692a7	-0.0013929204
49	0xbe001327	-0.12507306
50	0x3bf54dda	0.0074860873
51	0xbdc3c56c	-0.095591396
52	0xbbe8beae	-0.007102809
53	0x3a4a49c2	0.0007716679
54	0x3b93a968	0.004506279
55	0xbbc8616c	-0.006115129
56	0xbbd30429	-0.006439705
57	0xbc0bb201	-0.008526326
58	0x3ca8c29c	0.02060061
59	0x3b3767f9	0.0027985557
60	0x3e8cf0b9	0.27527407
61	0x3aedb084	0.0018134271
62	0x3e6a8aa0	0.22904444
63	0xbc59cb2e	-0.013293071
64	0x398caa14	0.000268296
65	0x3b6cf180	0.0036154687
66	0xbb5ee6de	-0.003401212
67	0x3afbd2b5	0.0019212576
68	0xbb23b09f	-0.00249771
69	0x3e27a6fe	0.16372296
70	0xbb85930c	-0.0040763672
71	0xbd928644	-0.071545154
72	0x3b023b77	0.001987187
73	0x3eb68e59	0.35655478
74	0x3b6a2320	0.0035726503
75	0xbba13801	-0.0049200063
76	0xbc86d793	-0.016460216
77	0xbb588126	-0.0033035963
78	0x3ae03cd8	0.0017107977
79	0xbe8080d5	-0.2509829
80	0xbbfc1847	-0.007693324
81	0x3b9f22fd	0.004856466
82	0x3e8c94cb	0.2745727
83	0xbb8cd0a5	-0.0042973333
84	0xbe8d2f85	-0.27575317
85	0x3b6377de	0.0034708898
86	0x3b8617fd	0.004092215
87	0x3a9097a3	0.0011031519
88	0x3bc9e0bd	0.006160824
89	0x3e3df524	0.18550545
90	0xbafe9ed5	-0.0019425998
91	0xbbc898a1	-0.0061217104
92	0x3b3a80f5	0.0028458212
93	0xbd042f41	-0.032271627
94	0xbb5c30c4	-0.0033598403
95	0x3b14ca45	0.002270357
96	0xbe1e6001	-0.1546631
97	0xbac6e03f	-0.0015173032
98	0xbe6596f6	-0.22420868
99	0xbe611630	-0.2198112
100	0x3b9a4177	0.004707511
101	0x3ad7ba65	0.0016458748
102	0x3d451934	0.04811974
103	0xbe696a75	-0.22794516
104	0x3b2d24d5	0.0026419659
105	0xbe1ef189	-0.15521826
106	0xbe127e8d	-0.14306088
107	0x3c078c86	0.0082732495
108	0xbaa958dc	-0.0012920159
109	0x3c08ada4	0.00834218
110	0xba67616e	-0.0008826469
111	0xb8103f79	-3.439139e-05
112	0xbe7cc379	-0.24683942
113	0xbe15838c	-0.14600962
114	0xbe6997ba	-0.22811785
115	0xbe629826	-0.22128353
116	0x3b1d6267	0.0024014951
117	0x3bae7036	0.005323435
118	0x3e39dbc9	0.18150248
119	0x3b4294b3	0.0029690682
120	0x39ab8ff2	0.0003272291
121	0x3b02d1bc	0.0019961437
122	0xbe340b83	-0.17582516
123	0x3eb8006d	0.35937825
124	0x3b6fc3c7	0.0036585198
125	0xbe4a1429	-0.19734253
126	0x3b57ffaf	0.0032958796
127	0xbe22fe5c	-0.15917343
128	0x3c29d83d	0.010366497
129	0xbbe36c8c	-0.00694043
130	0xbe704378	-0.23463237
131	0x3bf96245	0.0076105916
132	0x3cbe970b	0.023265382
133	0x3be3324c	0.006933486
134	0xbe60e3ef	-0.2196195
135	0xbc58e5be	-0.013238369
136	0xb9cac7a0	-0.00038677175
137	0xbe1b3b31	-0.15159298
138	0xba5e6b23	-0.00084845925
139	0x3b4a6522	0.0030883034
140	0x3ad432de	0.0016189476
141	0xbb2a0ba2	-0.0025946875
142	0xbbb3341f	-0.00546886
143	0x3bf88fa7	0.007585484
144	0xbe598ed0	-0.21245885
145	0xbe377b7d	-0.17918201
146	0xbc045a2e	-0.008078141
147	0xbb5ab02f	-0.0033369174
148	0xbbea21f2	-0.00714516
149	0x3e85e744	0.26153004
150	0xbb8d489d	-0.0043116347
151	0x3e6e8ff2	0.23297098
152	0x3b86fec5	0.0041197264
153	0x3b27283e	0.0025506164
154	0xbbd6e3fb	-0.006557939
155	0xb964b5af	-0.00021811457
156	0x39eae136	0.00044799753
157	0xb9fd160a	-0.0004827234
158	0xbbb18f93	-0.0054187267
159	0xb9b82738	-0.00035124435
160	0x3e8ba94a	0.27277595
161	0x3a15528d	0.00056962
162	0xbe488546	-0.1958209
163	0x3b285cca	0.0025690072
164	0xb9175596	-0.00014432365
165	0xbc0b1483	-0.008488777
166	0xbacb2ce3	-0.0015501048
167	0x3e4ac191	0.19800402
168	0x3a81f13b	0.0009913811
169	0x3e8fe7a2	0.2810641
170	0xbb593c4c	-0.0033147512
171	0xbe29cc37	-0.16581808
172	0xbb8124fc	-0.0039411765
173	0xbe857bfa	-0.2607115
174	0x3b62a088	0.0034580547
175	0xb934227c	-0.00017178984
176	0x3c12deef	0.008964284
177	0x3a5b0cae	0.00083560764
178	0xbb92c9a2	-0.004479603
179	0xbe5b7fc4	-0.21435457
180	0xbade5907	-0.0016963788
181	0xbaf37f11	-0.0018577297
182	0x3e8434a3	0.2582141
183	0xbb3df61a	-0.00289858
184	0x3e3fe0fb	0.18738167
185	0x3c1a5f69	0.009422162
186	0x3976bf71	0.00023531706
187	0xb9fcf86e	-0.0004825028
188	0xbb1d5fff	-0.0024013517
189	0xbcc75562	-0.024332706
190	0xba940159	-0.0011291906
191	0x3c167772	0.009183751
192	0x3b63951b	0.0034726325
193	0xbe95e356	-0.29275006
194	0x3b287600	0.00257051
195	0x3c28665f	0.010278313
196	0x3d94d7d2	0.07267727
197	0x3b352aa8	0.0027643833
198	0x3e68c4ac	0.22731274
199	0xbd74129d	-0.059588064
200	0x3b5c69a8	0.0033632312
201	0xb9ce2424	-0.0003931831
202	0x3e69dee1	0.22838928
203	0x3e5bf4c7	0.21480094
204	0x3bc1fc78	0.005919989
205	0x3da7abd3	0.0818707
206	0xbe2d9d7a	-0.16954604
207	0x3bd99549	0.0066401106
208	0xb9c1b8e7	-0.00036949592
209	0x3b3b6171	0.0028592015
210	0xbc0a70b9	-0.008449727
211	0x3c09fa4b	0.008421491
212	0x3e949210	0.29017687
213	0x3e4b3ee8	0.19848216
214	0xbe9ba8f2	-0.30402333
215	0xbdf74c80	-0.12075138
216	0xbc0ffd76	-0.008788457
217	0x3bb7971b	0.00560273
218	0x3c2f2935	0.010690977
219	0xbaedd782	-0.0018145891
220	0xbb344c7b	-0.0027511406
221	0xbbb4a160	-0.0055124015
222	0x3e28a422	0.16468862
223	0xbea483e3	-0.32131872
224	0x3b7baf1d	0.0038403936
225	0xbd825876	-0.06364529
226	0xbabf8dbb	-0.0014614383
227	0x3e62da42	0.22153571
228	0xbac31705	-0.001488418
229	0x3b35d756	0.0027746758
230	0xbe8ae79e	-0.27129835
231	0x3b78ae3f	0.0037945656
232	0xbba5f59e	-0.0050646802
233	0x3c558b28	0.013033666
234	0x3e78cdf7	0.2429732
235	0x3c500cca	0.012698362
236	0x3b00790a	0.0019603395
237	0x3e0acad8	0.13553941
238	0x3b257c28	0.0025251005
239	0xbb05b454	-0.0020401673
240	0x3ad60548	0.0016328478
241	0x3ac74a79	0.001520469
242	0x3be47f28	0.006973166
243	0x3c07abd4	0.008280713
244	0xbe4a3eff	-0.19750594
245	0x3bed2e4c	0.007238185
246	0xb9a911dd	-0.000322475
247	0xbb83f34a	-0.004026805
248	0xbaaf43bb	-0.0013371626
249	0x3e87a877	0.26495716
250	0xbc376a04	-0.01119471
251	0xbe6d0a62	-0.23148492
252	0xbb845779	-0.004038748
253	0x3b809561	0.0039240574
254	0xba55371f	-0.0008133519
255	0xbaa097d3	-0.0012252278

bias f4 [13]
0	0xbd62690f	-0.055275973
1	0xbc8dae51	-0.017295035
2	0xbc858134	-0.01629696
3	0x3be94078	0.007118281
4	0x3bb87cef	0.0056301276
5	0xbc200a53	-0.0097680865
6	0x3e7674c4	0.2406798
7	0x3f16956e	0.5882176
8	0x3f93008c	1.1484542
9	0x3d9228ec	0.071367115
10	0x3f7da648	0.9908185
11	0xc079ff1c	-3.9061956
12	0xc014df52	-2.3261304
