scripts/data/nn_ssm_complete.pt (torch, 5015 bytes, 6 tensors)

weight f4 [10, 15]
000000 aa 3a 40 bf b0 92 5a 3f e9 5c 56 be fe 3d 6a 3d
       -0.75089514 0.8538008 -0.2093388 0.057188027
000010 eb 6b e9 3e 26 cc 53 bf cd c7 2a 3f 22 7e 4a bf
       0.45590147 -0.8273338 0.6671112 -0.79098713
000020 da 9d 55 3e 7d 2c 6f bd 03 b8 c6 be 52 5b 41 3f
       0.20860997 -0.058392037 -0.38812265 0.7552997
000030 6f 3b 0e bd 2d 2a 36 3d 74 12 bf 3c e7 97 7f 3f
       -0.03472465 0.044473816 0.023324229 0.9984116
000040 94 3e 44 be a4 ba 91 be a1 ee 08 3e 6a a7 43 3f
       -0.19164497 -0.28462708 0.1337228 0.7642733
000050 f8 50 d0 be ec 52 6b bf 64 15 4b 3e d3 95 53 3e
       -0.40686774 -0.91923404 0.19832379 0.20662622
000060 5d 64 df bd 1a 00 4c bf 64 62 b3 3e 49 18 c2 bd
       -0.10907815 -0.79687655 0.35036004 -0.09477288
000070 53 d0 88 3d 29 a4 95 be b9 c5 2b bf 04 5e 7e bf
       0.0668036 -0.29226807 -0.67098576 -0.99362206
000080 ee e0 34 3e de 47 3a be f3 1c 78 3e a5 a1 49 bf
       0.17663929 -0.18191478 0.24229793 -0.78762275
000090 7d b3 1b 3f 19 38 63 3f ec 7f 3b be ca df 21 3e
       0.6082075 0.88757473 -0.18310517 0.15808025
0000a0 db 1a 60 be 67 2c 30 3f 2a 0f 18 bd 2b d7 0b 3c
       -0.21885245 0.6881775 -0.037123837 0.008535187
0000b0 18 18 b9 3d 2b f9 9e be 8a 8f b7 be b1 d6 b6 be
       0.09037799 -0.31049475 -0.358517 -0.35710672
0000c0 b6 1a 86 3f e5 3f 00 3f ce 1f 24 3e 41 ca 8b 3e
       1.0476902 0.50097495 0.16027758 0.27302745
0000d0 ed 28 c1 3e a4 1f c2 3e 8d 5c 84 bf b0 b5 a9 be
       0.37726536 0.37914765 -1.0340744 -0.3314643
0000e0 3f 28 bd bd 8c f4 4c 3d 3a 6c 00 3d c9 37 34 3a
       -0.09236192 0.050037906 0.031353213 0.0006874768
0000f0 9b 03 5a be 30 8f 94 bd e8 f9 3c 3f 0a 73 8a 3e
       -0.21290438 -0.07253873 0.73818827 0.27040893
000100 af e4 95 be d1 ca 1e 3f 74 f9 f8 3d 90 99 21 3c
       -0.29276034 0.62028223 0.121569544 0.009863272
000110 26 2b 24 bf a6 a7 73 be c1 ec c5 3e 64 ce 25 bf
       -0.6412834 -0.23794422 0.3865719 -0.6476805
000120 65 bb b1 bd 64 e2 cd 3d a9 39 4d bd 5d ec 98 bd
       -0.08678321 0.10052946 -0.050103817 -0.07466958
000130 b9 29 0b bd bf 19 4d 3f 7d 05 05 bf ab b7 86 3f
       -0.033975337 0.8011741 -0.519615 1.0524801
000140 e0 77 0a 3f 62 fe ba 3d a7 12 a4 3d 68 78 43 bf
       0.54089165 0.09130551 0.0801137 -0.763556
000150 39 e7 db 3e 82 5f 7e bf 7c ee f0 be da 84 fd 3c
       0.42949846 -0.99364483 -0.4705695 0.030947138
000160 b8 59 56 bc e5 7c a2 3c e9 5f 4a 3f 08 4e ca bc
       -0.013082914 0.019834945 0.790526 -0.024695411
000170 10 69 dc 3e e7 81 a0 be 76 57 0f 3e 4b 4a 37 bf
       0.43048906 -0.31349108 0.13998207 -0.7159774
000180 54 59 4c bf 03 9f 63 bc a9 ef 9a be 2d 65 85 3e
       -0.79823804 -0.013892892 -0.3026097 0.26053753
000190 e6 23 3e 3d 78 31 2a 3f a3 03 b6 3c bb 33 32 3c
       0.046420954 0.66481733 0.022218531 0.010876591
0001a0 21 09 1f 3e af 39 0d be f5 f1 bf bc 7a f5 26 bf
       0.15530826 -0.13791536 -0.023430804 -0.6521832
0001b0 d1 57 b1 be a9 04 1d 3f c9 05 cb 3e 2b 92 cf 3d
       -0.3463731 0.61335236 0.3965285 0.10135301
0001c0 85 53 b2 bd f5 c9 41 3f 57 a9 e6 3e 97 6b f6 be
       -0.08707336 0.75698787 0.4505107 -0.4812896
0001d0 58 dd c2 be ad 70 4f 3d 20 71 3b bb 61 1d 5f be
       -0.38059497 0.050644565 -0.0028601363 -0.21788551
0001e0 37 5f 92 be d7 ea 1b bd 0e 07 09 3f 01 8e b5 be
       -0.28588268 -0.038065758 0.5352639 -0.35459903
0001f0 e4 c8 0d bf ad 8b 17 bf 2d 66 93 3e f5 08 4c 3d
       -0.5538466 -0.59197503 0.2878889 0.04981323
000200 d7 16 bf be 95 f7 cd 3e 6b 00 17 3f dc 05 24 3f
       -0.37322113 0.40227953 0.5898501 0.6407144
000210 12 c0 ba 3d de b3 16 3d 43 03 08 bf 28 00 0f bd
       0.09118666 0.03679263 -0.53129977 -0.03491226
000220 e6 c4 04 3e 40 5a 50 bf 1d 55 69 bf c8 87 a3 be
       0.12965736 -0.8138771 -0.911455 -0.3193953
000230 bb 02 e1 3d a8 9c 96 3b da 77 94 bd d9 e5 3a 3f
       0.10986849 0.0045963116 -0.07249422 0.7300697
000240 7e d6 41 3f 60 25 c4 3e 43 09 ab bd 8f ee 03 bd
       0.75717914 0.38309765 -0.08351376 -0.03220993
000250 71 43 6d 3d 61 cd d1 3d
       0.057925645 0.10244251

bias f4 [10]
000000 92 54 03 3d 90 bc 62 3e f6 d0 d4 3d 58 30 1e be
       0.032063074 0.22142243 0.10391419 -0.15448129
000010 b2 11 a3 3b ae 14 e7 bd 37 bf 4d be 64 99 a7 bc
       0.0049764747 -0.11283241 -0.20092474 -0.020458885
000020 bd 70 60 bd 43 a8 df 3b
       -0.054795016 0.0068254783

weight f4 [10, 10]
000000 9a 7c 58 be 44 10 71 bd f3 83 ec 3f 56 85 0a 3f
       -0.21141282 -0.058853403 1.8477768 0.54109704
000010 3f 0e 7d bf f1 ea 5f 3e 36 c6 2d 3d f0 47 6b 3f
       -0.9884986 0.21866967 0.042425357 0.9190664
000020 66 4e 2f bf cf e3 a4 3f 66 85 ad bf 4f 22 b0 bd
       -0.68479 1.2882022 -1.3556335 -0.08600294
000030 21 60 9b bf 64 b2 ba bf 30 4f 17 3f 28 cf d0 3f
       -1.2138711 -1.458569 0.59105206 1.6313219
000040 a3 0a 55 3f 8c 2f 0d 3f d8 47 f8 be bd 17 7d 3f
       0.83219355 0.55150676 -0.48492312 0.98864347
000050 52 bb e2 3f 7c 55 91 bf 65 f8 cc bf d1 90 f0 3e
       1.7713416 -1.1354213 -1.6013304 0.46985486
000060 c9 5e 45 3f 0a 0e eb bc df ef 48 be e3 66 07 bf
       0.77097756 -0.028693218 -0.19622754 -0.5289137
000070 0c 78 6f bf 15 c9 4f bf cb 6d a4 3d 69 8c ab bf
       -0.9354255 -0.811662 0.08028754 -1.3402225
000080 c2 6c b4 bf f3 d2 41 bf ad 62 cb 3e 81 52 59 bf
       -1.409569 -0.7571251 0.3972372 -0.84891516
000090 f4 37 e6 bf e1 53 77 3f 13 83 45 3e 5a 75 d0 3f
       -1.7985826 0.96612364 0.19288282 1.6285813
0000a0 3f 81 78 bf 63 ef ce be 9d 0d 2b 3f bb 6c a2 bf
       -0.97072214 -0.40417013 0.6681765 -1.2689432
0000b0 d1 0b d7 3e 10 91 3e bf 51 eb bd 3f e5 b8 b9 bf
       0.42001203 -0.744401 1.4837438 -1.450955
0000c0 69 fb 6b 3f 4a e3 3d be 0e 85 54 3f ae 66 21 bf
       0.92180496 -0.18543735 0.83015525 -0.630473
0000d0 47 34 b8 3f 02 0e bd 3f 8f 65 8b 3f 5a 4f 16 40
       1.4390954 1.47699 1.0890368 2.3485932
0000e0 5c 37 b5 bf 98 de ba 3e 4b 64 ac be 7e c7 ed bf
       -1.4157519 0.3649795 -0.33670267 -1.8576505
0000f0 48 e2 b9 bf 55 16 7a 3f c8 dd 1b bf 9d 27 93 3f
       -1.452218 0.97690326 -0.60885286 1.1496464
000100 12 db 34 3f f5 c7 b7 3f 22 57 a7 3e 02 7d e9 3d
       0.70646775 1.4357897 0.32683665 0.114007965
000110 2c 01 7f bf db 6c ab bf cb f5 d3 3f 95 2d 44 3e
       -0.99611163 -1.3392595 1.6559385 0.19158013
000120 b5 3d 32 be a2 06 aa bf fb 7f 4c be af d2 d5 3f
       -0.17406352 -1.3283274 -0.19970696 1.670492
000130 a7 b5 91 3f 5a 1c ec be 32 57 c4 3e 14 48 2b bf
       1.1383561 -0.4611538 0.38347775 -0.6690686
000140 d8 5c 4b be 3f 25 8d bf a3 52 61 3f 6f 7d af bf
       -0.19859636 -1.1026992 0.8801672 -1.3710154
000150 8e 2d 62 3f 18 7f f9 3f e6 31 c4 bf 70 b9 17 3f
       0.8835076 1.9491911 -1.5327728 0.5926733
000160 d1 1a 1f 3f b2 f6 83 3f 12 69 c9 3f 6c 74 a1 3f
       0.62150294 1.030966 1.573519 1.2613654
000170 52 44 73 bf b3 23 12 bf d1 74 98 bf 88 7d a4 3e
       -0.95026124 -0.5708572 -1.191065 0.32127023
000180 c6 3c 4e 3f 09 b1 84 3f bd e0 30 bd e4 97 4e 3f
       0.8056148 1.0366527 -0.043183077 0.80700517

bias f4 [10]
000000 1b dc 86 bd ee f3 a4 3d 4d 6f 4f be 93 39 21 3c
       -0.065849505 0.080543384 -0.20257302 0.009840387
000010 23 88 17 3e fa 15 89 bd c3 f2 4c bd c6 66 11 3d
       0.14798026 -0.06693645 -0.050036203 0.035498403
000020 e5 43 f8 3d e5 72 47 bd
       0.12122325 -0.048693556

weight f4 [7, 10]
000000 99 04 fc 3e 3d e5 96 bf 68 b9 ca 3e 4c 99 e7 3e
       0.49222258 -1.1788708 0.3959458 0.45234144
000010 0b e2 8b be 01 e8 8a 3f dc dd 91 bf dc bb 81 3e
       -0.27320895 1.0852052 -1.1395831 0.25338638
000020 39 63 99 3f 2f b9 ee be 3e 78 87 3f d7 8e 42 be
       1.1983405 -0.4662566 1.058357 -0.18999802
000030 47 d6 c4 bf 8c c9 21 bf 3d c4 df 3e 31 dd 8c 3e
       -1.5377892 -0.6319816 0.43704405 0.27512506
000040 d1 f5 d9 3e 94 53 88 bf ec 18 49 3e dc ab 8b bf
       0.42570356 -1.0650506 0.19638413 -1.0911822
000050 04 06 86 3f ef b5 77 be af 46 43 bc ac 83 09 3f
       1.0470586 -0.24190496 -0.011918708 0.5371654
000060 04 5e 44 bf 2e 5f 1b bf c1 45 a0 be 0c ae a5 bf
       -0.76705956 -0.6069211 -0.31303218 -1.294374
000070 75 fb 11 bf 53 ad 5a 3f 53 a5 81 3f 9b d3 76 3f
       -0.5702432 0.8542072 1.0128578 0.96416634
000080 c7 d5 0b bf b3 d2 98 3e 2d 8a d3 3e 62 f3 b5 be
       -0.54623073 0.2984825 0.41316357 -0.3553725
000090 83 57 04 bf 22 ff 3d 3f a0 74 94 3f 32 7d f2 3e
       -0.5169603 0.74217427 1.1598091 0.4736114
0000a0 77 bf 2d bf db 57 ca bd 17 1f 8e bc 87 16 36 3f
       -0.6787028 -0.09880038 -0.01734881 0.71128124
0000b0 d0 9d 8f 3f de bd 4e bf 15 1e 45 bf 74 56 5c bf
       1.1220036 -0.80758464 -0.76999027 -0.86069417
0000c0 d7 84 d2 bc 62 bf 83 bf de 37 8f 3e 79 9a 90 bf
       -0.025698109 -1.029278 0.2797231 -1.1297141
0000d0 52 63 82 be f0 2b 81 bf 43 63 17 3f 8c 4e 1e be
       -0.254664 -1.0091534 0.59135836 -0.15459651
0000e0 cc 79 a2 bf b6 12 5c 3f ab 2c 20 bf c4 82 be 3e
       -1.269342 0.8596605 -0.6256816 0.3720914
0000f0 0d 0d 06 bf d7 73 9f be be 6b 0e bf fa 04 3c 3e
       -0.52363664 -0.31143066 -0.5563315 0.18361273
000100 ea 7d 14 be 07 2c fd 3d d7 cc 9d 3d da a5 bc bc
       -0.14501157 0.12361913 0.07705086 -0.023028303
000110 11 07 e9 3d f6 43 63 3e
       0.11378301 0.22193894

bias f4 [7]
000000 11 da 4c 3d 94 b1 6b bd 9c d5 8d 3d 8d d2 dd bc
       0.05001265 -0.0575424 0.069255084 -0.027077937
000010 fa f9 24 bd f7 2c 4b 3c f3 f9 1f bc
       -0.04027746 0.012400857 -0.009764182
