scripts/data/nn_ssm_complete.pt (torch, 97055 bytes, 8 tensors)

weight f4 [100, 15]
2.7775896 -0.75112563 0.7023553 2.0651762 -1.4397302 -0.91797894 -2.733566 0.80878246
-0.6020703 -2.098173 1.4440582 0.89829546 -0.04644868 -0.013502698 0.0051182215 0.6700475
-0.009464436 -0.14104666 1.4260851 2.1698666 0.5532748 -0.20116472 -0.00940467 0.12813194
-0.0111715505 0.30380002 0.4007127 -0.48840505 0.374604 0.041384082 -0.6705465 -0.62231374
0.68616873 -0.5093245 1.8356373 1.0580057 0.42714143 -0.5926447 0.18986522 -0.12980478
0.42545855 0.29274812 -0.3221749 -2.2852798 -0.1691752 -0.22300246 0.034082156 0.5400891
0.9844511 0.62397164 0.22474582 -0.13151939 -0.6668288 -0.75702095 -1.714292 -0.14534102
0.038448878 -0.6630764 -0.102715686 0.13552396 -0.65809476 2.6485863 -0.1519643 -0.7145369
1.8930881 0.874553 0.66157436 -2.5434792 0.28702635 0.5709097 -1.7493132 -0.92563397
0.027919186 -0.016639417 -0.036003835 0.10475786 0.15268682 0.049882084 -0.102074005 -0.000523108
-0.009496125 1.1058427 0.3460345 0.11110181 0.32752678 -0.05052883 -0.038523458 0.6424716
-0.5099331 -2.5676663 -1.1282408 -0.6758144 -0.8455786 -0.16742799 -0.36123532 -0.1944671
1.6468189 1.5650623 1.2141925 -0.09967631 0.7120114 0.37910113 -0.52697325 -1.8769716
-0.113892846 -1.1199526 1.2783772 1.0765576 -0.44935143 1.3392154 0.59036523 -0.18834814
0.047262847 0.19283189 -0.5717689 0.3518237 0.2794349 0.7318033 0.50599897 -0.29287267
-1.0822288 1.2312801 1.0018152 -1.7950823 -1.2036853 -1.0170251 1.0622175 -1.4605129
-1.2997959 1.7192031 1.3607016 1.0250174 0.28030583 0.21634865 -0.028255198 0.28321818
-0.113930635 -0.21909155 0.09958859 0.33701822 0.2931709 -0.010188582 0.4834641 0.04715394
-0.095701985 0.05043556 -0.39969093 0.7200159 0.6218503 0.953284 1.1567141e-07 -3.3249485e-08
-3.8414928e-08 7.7390633e-10 2.3901163e-07 -1.7690924e-07 1.3301408e-07 -8.292588e-08 -2.5360515e-08 -5.230459e-08
1.296883e-07 -6.985086e-08 7.1188275e-08 3.544453e-08 -2.08578e-08 0.95538986 -0.8804277 -1.1635473
-0.5055984 -0.67045665 -0.34657532 0.08171663 -0.26627478 -0.080810115 -0.075034976 -0.030252328
0.068840586 -1.1489127 2.5265117 -0.039963067 0.6361329 0.22290742 0.38632601 -0.05289974
0.111830674 -0.08170359 0.88293314 0.23796652 0.18155025 -0.025645634 0.40901235 0.20213373
0.5421739 -0.22431256 0.60767597 0.057035852 -0.040792417 -0.007496356 0.11992584 0.61654204
-1.6098375 -0.25727966 0.120307915 0.017768601 -0.1281759 -0.51847 1.896985 -0.0069322954
0.12193303 0.080695584 -0.106999 -1.095812 0.10770302 0.52102333 0.3353896 0.020028422
1.1536723 2.1024861 0.5052249 -1.0726625 -0.26323044 -0.07490423 -1.5292419 0.26460707
0.14731552 -1.1790775 -2.4189608 0.75338274 -1.3239824 -1.2716177 1.0853565 1.3246382
2.4225097 -0.84626275 1.2174555 1.150204 -1.0946678 0.07935439 -0.16087282 -0.004889713
-0.47955516 -0.92399144 -1.1128613 0.40934017 -0.53072774 -0.20503066 -0.3041539 -0.276722
-0.34021175 0.24269384 -0.047286317 0.05559029 0.59998494 2.4149346 0.23593713 -0.8819831
00000000: 07c4 3140 c549 40bf 8fcd 333f d92b 0440
00000010: 1449 b8bf ab00 6bbf bff2 2ec0 5e0c 4f3f
00000020: 4721 1abf 7748 06c0 e6d6 b83f b1f6 653f
00000030: f940 3ebd 6c3a 5dbc c1b6 a73b 3c88 2b3f
00000040: b910 1bbc 896e 10be f589 b63f 18df 0a40
00000050: 6ba3 0d3f 20fe 4dbe 0c16 1abc 0535 033e
00000060: e108 37bc ad8b 9b3e 372a cd3e 3a10 fabe
00000070: 18cc bf3e 5b82 293d efa8 2bbf f44f 1fbf
00000080: c1a8 2f3f 1763 02bf 2af6 ea3f bb6c 873f
00000090: 48b2 da3e 90b7 17bf 076c 423e 8beb 04be
000000a0: b4d5 d93e 15e3 953e 1cf4 a4be 0642 12c0
000000b0: 433c 2dbe c25a 64be bb99 0b3d 4743 0a3f
000000c0: fd04 7c3f 9bbc 1f3f c523 663e 05ad 06be
000000d0: 4bb5 2abf 20cc 41bf ec6d dbbf 47d4 14be
000000e0: 927c 1d3d 60bf 29bf 9a5c d2bd cbc6 0a3e
000000f0: e678 28bf 7082 2940 889c 1bbe e4eb 36bf
00000100: b650 f23f b5e2 5f3f f05c 293f 5dc8 22c0
00000110: 1ef5 923e 2327 123f 7fe9 dfbf 59f6 6cbf
00000120: c7b6 e43c 634f 88bc c278 13bd 4a8b d63d
00000130: ef59 1c3e 2851 4c3d 2d0c d1bd 2f21 09ba
00000140: a395 1bbc 418c 8d3f 6f2b b13e 5989 e33d
00000150: 97b1 a73e 52f7 4ebd c6ca 1dbd 0579 243f
00000160: fa8a 02bf a554 24c0 326a 90bf 2c02 2dbf
00000170: d777 58bf 3e72 2bbe d6f3 b8be 6222 47be
00000180: f6ca d23f f653 c83f a96a 9b3f 1823 ccbd
00000190: 6146 363f 8b19 c23e b8e7 06bf 9b40 f0bf
000001a0: a740 e9bd 9b5a 8fbf dda1 a33f a4cc 893f
000001b0: 6411 e6be 696b ab3f 2d22 173f 56de 40be
000001c0: b096 413d b975 453e 725f 12bf 3c22 b43e
000001d0: 1712 8f3e 7657 3b3f 2689 013f 68f3 95be
000001e0: 7986 8abf 969a 9d3f 7b3b 803f 42c5 e5bf
000001f0: 5c12 9abf e12d 82bf bef6 873f 16f2 babf
00000200: b65f a6bf d90e dc3f 782b ae3f c533 833f
00000210: 3f84 8f3e 808a 5d3e 7277 e7bc f901 913e
00000220: 7754 e9bd 8959 60be 1af5 cb3d a78d ac3e
00000230: 7f1a 963e 03ee 26bc 9b88 f73e 7d24 413d
00000240: 67ff c3bd 8595 4e3d 4aa4 ccbe f652 383f
00000250: 9531 1f3f 6c0a 743f 0867 f833 32ce 0eb3
00000260: a9fd 24b3 d1ba 5430 8251 8034 71f4 3db4
00000270: a2d2 0e34 fc14 b2b3 5dd8 d9b2 81a5 60b3
00000280: 7340 0b34 eb00 96b3 2be0 9833 ac3b 1833
00000290: ca2a b3b2 6e94 743f b663 61bf 1eef 94bf
000002a0: e66e 01bf 0ca3 2bbf 5272 b1be 0c5b a73d
000002b0: 2b55 88be c67f a5bd f0ab 99bd bbd3 f7bc
000002c0: 4bfc 8c3d 920f 93bf 5eb2 2140 50b0 23bd
000002d0: 9bd9 223f d841 643e 86cc c53e 66ad 58bd
000002e0: 7b07 e53d 3654 a7bd e807 623f 7fad 733e
000002f0: 4fe8 393e cb16 d2bc 116a d13e 25fc 4e3e
00000300: e9cb 0a3f 31b2 65be a790 1b3f 6d9e 693d
00000310: f315 27bd fea3 f5bb ae9b f53d b3d5 1d3f
00000320: 280f cebf 29ba 83be ff63 f63d 758f 913c
00000330: 8b40 03be 73ba 04bf 68d0 f23f 4f28 e3bb
00000340: 06b8 f93d ba43 a53d 4b22 dbbd 9143 8cbf
00000350: 6793 dc3d c961 053f 30b8 ab3e a512 a43c
00000360: 89ab 933f 228f 0640 6b56 013f 014d 89bf
00000370: 24c6 86be 6467 99bd 33be c3bf 947a 873e
00000380: e1d9 163e 03ec 96bf 41d0 1ac0 b1dd 403f
00000390: 4178 a9bf 5ec4 a2bf f6ec 8a3f bf8d a93f
000003a0: 660a 1b40 ada4 58bf 95d5 9b3f e239 933f
000003b0: 131e 8cbf 8e84 a23d d8bb 24be e339 a0bb
000003c0: 4188 f5be b48a 6cbf 3d72 8ebf 0995 d13e
000003d0: c6dd 07bf 8ff3 51be 0fba 9bbe 82ae 8dbe
000003e0: 3c30 aebe bc84 783e 4caf 41bd a5b2 633d
000003f0: 9d98 193f 4a8e 1a40 8199 713e a5c9 61bf

bias f4 [100]
-0.09249341 -2.490501 0.264269 0.9150746 -0.13883597 -0.9038156 0.28703865 -1.6462336
0.09430368 -1.6690931 -8.024854e-08 0.8944966 -1.955723 -0.77387214 -0.39008638 0.007976314
0.0395083 0.5431318 0.052644074 0.0704058 0.23879375 1.2122388 1.1306368 0.09662608
0.14908068 -0.5552458 0.5386074 -0.31515002 0.9346599 0.010259924 -1.3461747 -0.7717767
0.9215768 0.08855395 1.0258098 0.83031225 0.1084452 0.9068066 -0.45443705 0.3396811
0.10700419 -0.81628716 1.690347 -0.38029256 -0.821775 0.4211651 -0.09351652 -2.0941265
0.03269525 0.9240081 -0.0705414 -0.21985964 -0.47312227 0.7030515 0.4173029 -1.3795605
0.27566826 0.049882352 0.8529714 0.17633533 0.17795688 0.26583555 -0.9917592 0.42755333
-0.89911455 -0.06901468 0.3440381 2.6933465 -0.27852866 0.09548013 1.7215445 0.48915166
2.242122 0.60767114 0.27194598 2.4116373e-06 -1.0936229 -0.050425112 -1.2340536 0.7879791
0.03162858 0.6108677 0.13598569 1.7401378 -0.5397753 0.046956804 0.23340857 1.1219748
1.4402814 0.12354819 0.08944097 -0.45131943 -0.729329 0.5565096 -0.22214706 1.0264908
-0.88662803 -0.035270017 2.479938 -0.31840146
00000000: 2f6d bdbd 5e64 1fc0 444e 873e 5442 6a3f
00000010: 042b 0ebe 7660 67bf bbf6 923e c8b7 d2bf
00000020: 4a22 c13d d8a4 d5bf 1a55 acb3 bbfd 643f
00000030: 2255 fabf 7c1c 46bf 67b9 c7be 16af 023c
00000040: 75d3 213d b00a 0b3f 50a1 573d eb30 903d
00000050: 5986 743e a42a 9b3f b5b8 903f e5e3 c53d
00000060: 9ba8 183e 9724 0ebf 2de2 093f 585b a1be
00000070: df45 6f3f 3e19 283c 744f acbf 2893 45bf
00000080: 75ec 6b3f c65b b53d bc4d 833f 588f 543f
00000090: 8418 de3d 7a24 683f f9ab e8be aeea ad3e
000000a0: 0325 db3d 32f8 50bf 4a5d d83f b5b5 c2be
000000b0: d95f 52bf f4a2 d73e 9785 bfbd 2b06 06c0
000000c0: 74eb 053d cb8b 6c3f 0278 90bd e322 61be
000000d0: 153d f2be 2ffb 333f baa8 d53e 7095 b0bf
000000e0: 6424 8d3e 7051 4c3d 555c 5a3f 4091 343e
000000f0: 543a 363e 991b 883e eee3 7dbf 45e8 da3e
00000100: 5f2c 66bf 9257 8dbd c325 b03e ca5f 2c40
00000110: 4f9b 8ebe 168b c33d 925b dc3f 1672 fa3e
00000120: ed7e 0f40 5690 1b3f 813c 8b3e 9dd7 2136
00000130: d6fb 8bbf 908a 4ebd 78f5 9dbf 00b9 493f
00000140: f88c 013d d361 1c3f d53f 0b3e d6bc de3f
00000150: b72e 0abf c755 403d a802 6f3e df9c 8f3f
00000160: 245b b83f d506 fd3d d42c b73d 5713 e7be
00000170: 4eb5 3abf 6a77 0e3f 857a 63be 0d64 833f
00000180: 0efa 62bf 4b77 10bd 4eb7 1e40 8405 a3be

weight f4 [100, 100]
-0.17540516 -0.08406258 0.0017502124 0.05635618 0.27535173 -0.018040018 -0.03325852 -0.022082025
-0.15030523 -0.065825045 8.663154e-09 -0.0543767 0.064227305 -0.024013108 0.01945394 -0.36134148
-0.0215549 -0.015773647 -0.12322373 0.4264759 -0.23259671 0.06889976 0.05875078 -0.3231607
-0.099690974 0.037231006 0.019209059 -0.050069943 0.044875603 0.1188102 -0.0014446973 0.034746394
-0.0025987313 0.23416014 -0.12344865 0.0634792 -0.04146714 -0.022966348 0.038337618 0.20422582
0.2874413 0.0015286505 -0.034657776 0.051246088 0.0039147036 0.07418934 -0.059352703 0.030098563
0.15893686 -0.037213154 0.05901807 0.02115167 0.022378698 -0.11625408 -0.2327162 -0.0010582313
-0.06055509 -0.24032424 0.033005387 0.033066954 0.04924065 -0.081676684 -0.006489101 0.035727687
-0.03172159 -0.063083395 -0.03382363 -0.007781564 -0.080765575 -0.21629967 0.057030912 0.12232325
-0.03800607 -0.02410969 0.116870575 7.470193e-06 -0.0053315554 0.31555456 -0.046340905 0.055690728
-0.0039702845 -0.15039918 0.014280925 0.0699411 0.004519053 -0.037766665 0.34313408 0.0053383904
0.0042031826 -0.08216456 0.12571064 0.15962069 0.04751099 -0.142741 0.007487229 0.04312238
-0.03550255 0.0032269217 -0.0012906584 -0.04123071 0.09570285 -0.29027966 0.6707887 0.5257863
-0.35329384 -0.3586387 -1.4202905 -0.8934947 -0.28553975 1.264985 1.8548185e-07 -0.24380215
0.68061095 0.6366426 0.32048407 0.29525957 -1.3673906 1.3145596 -0.8071739 -0.14444226
0.29074246 0.9853276 0.57429737 -0.03315545 0.009622096 -0.40770537 0.1757952 -0.29826343
0.3047581 0.41764626 -0.07972942 -0.22862625 -0.03557618 0.094193555 0.47815615 -0.09300762
0.50787425 -0.7021107 -0.8227796 0.016447779 0.57146835 0.55960166 0.035164956 -0.66068256
-0.027773181 -0.10254128 -0.5197745 -1.264048 0.17535912 0.29511386 0.53758144 -0.13325703
-0.43899962 -0.85586035 -0.5605317 0.83510816 -0.35581702 -0.21620876 -0.4529423 -0.26951864
-0.36387864 -1.0073586 -0.16776094 -0.08650013 1.5173903 -0.15763532 -0.6438747 0.39142665
0.18030562 0.3630801 0.16660039 1.0180045 -0.86549336 -0.1590333 0.46596652 -2.1869455e-06
-1.744936 -0.13492008 0.9755077 0.41616696 -0.33216262 0.040891986 0.81709015 -0.20661245
0.18250702 1.0487912 -0.18693416 -0.93624187 -0.75193006 -0.20858447 0.12632471 -0.40481174
-0.5784721 0.1142365 0.24205437 0.8356149 -0.5222586 -0.6629822 1.3220865 0.5720185
-0.123318784 -0.18411136 -0.24915242 -0.17231269 -0.092067815 1.5012712 -0.14521511 0.21928903
-0.059153754 0.015858555 9.25444e-08 0.36360303 0.7623693 0.3706723 -0.6688636 -0.17976671
0.053500686 0.22041146 -0.41255906 -0.18776964 0.5423007 -0.26001853 0.93652344 -0.22624184
0.033585913 -0.5652246 -0.07140834 -0.1277234 -0.34647536 -0.3946555 -0.028915195 0.118066184
-1.2705038 -0.24381016 -0.8285324 0.97624415 0.36033568 0.65871966 0.3818168 0.08500408
-0.058088366 0.5183519 0.41931415 -0.12790342 -0.083428495 -0.14710584 0.10475657 -0.00951454
-0.24924886 -1.0429987 0.17313878 0.174698 -0.23051752 -0.28689507 -0.25048393 0.10835236
00000000: 699d 33be 0029 acbd 6267 e53a bdd5 663d
00000010: e7fa 8c3e a9c8 93bc 163a 08bd 5de5 b4bc
00000020: 9de9 19be 48cf 86bd f4d4 1432 1aba 5ebd
00000030: 9b89 833d 23b7 c4bc df5d 9f3c c001 b9be
00000040: e793 b0bc bc37 81bc b95c fcbd 0d5b da3e
00000050: d52d 6ebe 511b 8d3d a8a4 703d 5275 a5be
00000060: c82a ccbd 8a7f 183d 515c 9d3c 2416 4dbd
00000070: 7bcf 373d c352 f33d ff5b bdba 3c52 0e3d
00000080: 7a4f 2abb adc7 6f3e a5d2 fcbd 6201 823d
00000090: 73d9 29bd ec23 bcbc e807 1d3d 9320 513e
000000a0: 822b 933e 005d c83a 50f5 0dbd 6be7 513d
000000b0: ea46 803b 95f0 973d d21b 73bd 4391 f63c
000000c0: 58c0 223e d26c 18bd efbc 713d 4446 ad3c
000000d0: 8853 b73c 9e16 eebd 284d 6ebe 5ab4 8aba
000000e0: 9d08 78bd 8f17 76be a830 073d 3771 073d
000000f0: 90b0 493d 1b46 a7bd 86a2 d4bb 3257 123d
00000100: 7fee 01bd de31 81bd a68a 0abd 7dfc febb
00000110: 6c68 a5bd a97d 5dbe 3f99 693d 9d84 fa3d
00000120: 41ac 1bbd af81 c5bc d759 ef3d 78a8 fa36
00000130: 54b4 aebb 5e90 a13e f6cf 3dbd f61b 643d
00000140: 2919 82bb 3e02 1abe 8afa 693c 483d 8f3d
00000150: 9014 943b 38b1 1abd 45af af3e aaed ae3b
00000160: daba 893b e545 a8bd 4aba 003e 9b73 233e
00000170: e29a 423d b22a 12be 6e57 f53b 18a1 303d
00000180: 1f6b 11bd c37a 533b 4f2b a9ba 88e1 28bd
00000190: dbff c33d 899f 94be cfb8 2b3f ee99 063f
000001a0: eee2 b4be 7e9f b7be 14cc b5bf 12bc 64bf
000001b0: 4432 92be 07eb a13f dd28 4734 45a7 79be
000001c0: 853c 2e3f 02fb 223f 7d16 a43e 432c 973e
000001d0: a806 afbf 7d43 a83f f3a2 4ebf ace8 13be
000001e0: 32dc 943e 6e3e 7c3f 2705 133f 02ce 07bd
000001f0: ffa5 1d3c c2be d0be a803 343e fcb5 98be
00000200: 4109 9c3e bbd5 d53e 2e49 a3bd 001d 6abe
00000210: 54b8 11bd 8de8 c03d e2d0 f43e c77a bebd
00000220: 0c04 023f 87bd 33bf afa1 52bf 7ebd 863c
00000230: c04b 123f 0e42 0f3f 2109 103d 7e22 29bf
00000240: 9584 e3bc 2a01 d2bd f10f 05bf 53cc a1bf
00000250: 5791 333e 2a19 973e f09e 093f 8874 08be
00000260: 8fc4 e0be aa19 5bbf 017f 0fbf a6c9 553f
00000270: a62d b6be d465 5dbe 0ee8 e7be 59fe 89be
00000280: 4d4e babe 20f1 80bf 86c9 2bbe fb26 b1bd
00000290: d839 c23f 276b 21be f9d4 24bf 1369 c83e
000002a0: 09a2 383e a3e5 b93e 4b99 2a3e f94d 823f
000002b0: f990 5dbf a0d9 22be 2a93 ee3e 70c3 12b6
000002c0: 105a dfbf 7d28 0abe dfba 793f d613 d53e
000002d0: 3811 aabe 5b7e 273d d22c 513f 3792 53be
000002e0: 1fe3 3a3e ca3e 863f ab6b 3fbe 8cad 6fbf
000002f0: 7d7e 40bf 2b97 55be 445b 013e 7c43 cfbe
00000300: bf16 14bf d3f4 e93d 1add 773e dcea 553f
00000310: bdb2 05bf 34b9 29bf 213a a93f ce6f 123f
00000320: 8f8e fcbd b087 3cbe d021 7fbe bd72 30be
00000330: 0d8e bcbd a829 c03f 45b3 14be 4e8d 603e
00000340: 354b 72bd cde9 813c d2bc c633 2d2a ba3e
00000350: a22a 433f c2c8 bd3e a53a 2bbf c414 38be
00000360: 8923 5b3d 8bb3 613e f13a d3be af46 40be
00000370: 38d4 0a3f 2621 85be 00c0 6f3f f1ab 67be
00000380: 6291 093d 8fb2 10bf 893e 92bd ecc9 02be
00000390: 3865 b1be 4910 cabe 8fdf ecbc afcc f13d
000003a0: de9f a2bf 5fa9 79be b31a 54bf 23eb 793f
000003b0: eb7d b83e daa1 283f 7e7d c33e 9e16 ae3d
000003c0: 11ee 6dbd b6b2 043f 58b0 d63e 1df9 02be
000003d0: 8fdc aabd eaa2 16be 9d8a d63d e0e2 1bbc
000003e0: 183b 7fbe fb80 85bf 4b4b 313e 08e4 323e
000003f0: c90c 6cbe e9e3 92be 6e3f 80be d8e7 dd3d

bias f4 [100]
-0.005924845 2.4199483 2.103991 0.3242904 -0.87745255 -1.0361149 0.060528416 0.54406303
0.17324716 1.0108204 -0.15407978 -0.013010714 -1.8200192 -0.21266653 1.2847136 -0.03329445
-1.8420231 -0.06993868 0.39015 1.6260995 0.45026952 0.5748425 -0.10340383 -0.2009057
1.123812 0.22082335 1.0427135 0.40283573 0.74286246 -0.47202685 0.60408765 -0.53930825
1.3314483 -0.66410595 0.11377146 0.17712495 -0.9252464 -0.07694065 0.10283595 -0.92747295
-0.3707519 0.2822778 -0.91626513 -0.68211436 0.098226264 -0.6548192 -0.8473231 0.8766537
-0.46842575 -0.12342951 -0.31364366 0.49998352 -0.69598293 0.93452847 -0.9034021 -0.46098262
0.2214228 -2.4671574 -1.8371725 0.22617286 0.21030201 -0.21570097 -0.51427364 0.6476662
0.44667962 0.18931803 0.22021039 -0.823701 -0.68005717 -1.9717541 1.6615363 0.22560173
-0.21072844 0.11603315 -0.26244807 0.5212015 -0.00034327645 0.11024154 -0.22674133 -1.3016407
0.23994316 -0.53922594 0.2458178 0.5360335 0.86963034 1.6031358 0.1933737 -1.6561989
0.80400366 0.019274931 -0.48417193 -1.4385151 -0.356112 -2.2459843 0.9042215 -0.2858071
0.030341534 1.8013395 1.2923152 -0.03096122
00000000: 3425 c2bb 6fe0 1a40 caa7 0640 6409 a63e
00000010: bba0 60bf 6a9f 84bf a5ec 773d b747 0b3f
00000020: b467 313e 9062 813f 17c7 1dbe e42a 55bc
00000030: 64f6 e8bf 41c5 59be 7f71 a43f c35f 08bd
00000040: 6ac7 ebbf 033c 8fbd bec1 c73e 0724 d03f
00000050: ba89 e63e e128 133f 63c5 d3bd 39ba 4dbe
00000060: 12d9 8f3f 841f 623e a377 853f 7c40 ce3e
00000070: 3c2c 3e3f 81ad f1be 7da5 1a3f 1b10 0abf
00000080: e66c aa3f d902 2abf 0301 e93d 3e60 353e
00000090: f3dc 6cbf 0f93 9dbd a89b d23d de6e 6dbf
000000a0: 31d3 bdbe b786 903e 5a90 6abf 0c9f 2ebf
000000b0: da2a c93d 3ba2 27bf 2bea 58bf 606c 603f
000000c0: 80d5 efbe 9cc8 fcbd e795 a0be d7fd ff3e
000000d0: f02b 32bf 423d 6f3f 5c45 67bf ea05 ecbe
000000e0: a9bc 623e e8e5 1dc0 7828 ebbf dc99 673e
000000f0: 6959 573e b7e0 5cbe 70a7 03bf 74cd 253f
00000100: 31b3 e43e 96dc 413e d57e 613e 12de 52bf
00000110: 3a18 2ebf 7062 fcbf 39ad d43f 2404 673e
00000120: 32c9 57be caa2 ed3d 985f 86be 766d 053f
00000130: c9f9 b3b9 51c6 e13d e12e 68be 2a9c a6bf
00000140: a9b3 753e b60a 0abf a9b7 7b3e 7e39 093f
00000150: 18a0 5e3f 8e33 cd3f c103 463e 53fe d3bf
00000160: 2fd3 4d3f 76e6 9d3c 62e5 f7be 4321 b8bf
00000170: 5054 b6be 35be 0fc0 0f7b 673f 4f55 92be
00000180: cf8e f83c 4b92 e63f 966a a53f 62a2 fdbc

weight f4 [100, 100]
-0.6016267 0.495753 -0.66737777 0.898047 0.15604648 -0.11153522 0.69848156 -1.6858634
-0.21501884 -0.373404 0.16198005 -0.9471101 0.4196827 -0.19222882 1.1722071 0.024497552
-0.6519894 0.31170738 -0.23014821 0.69491655 0.6178127 -1.4754194 -0.43183035 -0.4952643
-1.2879255 0.21648833 -0.25666204 -0.11170387 -1.2419033 0.23715428 0.22137085 -0.969393
0.057389036 -0.10839379 -0.6562263 0.10290988 -0.23984966 0.114049084 0.119344115 0.2389247
-0.3327646 0.40118286 -0.15356371 0.107057884 -0.75044376 0.084555954 0.16292624 -0.81177896
0.53292876 0.6589488 -0.040594608 -0.31646273 -0.3868856 0.22370613 -0.7323378 -0.10768344
-0.5570662 0.5634328 -1.6132324 -0.2066857 0.27604708 -0.097276255 0.46772426 -0.08822569
-0.054232493 -0.42707413 0.07290774 -0.22247148 1.1552895 0.1637859 0.045362294 -0.74003077
-0.06557126 0.1673314 -0.9887286 -0.10364271 0.18130657 0.09467295 -0.13313535 -0.12228698
-0.4624545 -0.009051951 -0.057357013 0.2911229 -0.28297687 -0.16871117 0.21902157 0.19255547
-0.09886445 -0.14252743 -0.055797294 0.8475268 -0.92793477 -0.42287132 -0.34323865 0.577485
0.47014204 -0.7125803 0.38170838 0.46520755 0.1701405 0.09710297 -0.26279557 0.26572585
0.07535208 0.06695431 -0.07941915 0.4364013 -0.13603851 -0.25484774 -0.010761004 0.24331853
0.15873162 -0.41102162 0.714526 0.009206626 -0.1498483 0.057204865 -0.17581199 -0.19492948
0.072968476 -0.037911996 -0.005982898 -0.005186452 0.949213 0.0360585 -0.23384681 -0.17546129
0.19578762 -0.06316028 -0.24957976 -0.15647979 -0.19020085 0.08001086 0.07561993 0.20168635
-0.15826327 -0.3895296 0.04238736 1.44986 -0.33078498 0.3489418 0.71937996 0.71565586
0.082403146 -0.06756703 -0.08925055 0.3803453 0.029790813 0.2261053 -0.06512747 -0.08068726
0.07924988 0.3899656 0.26331827 -0.12993051 -0.55025697 0.46750188 0.74139786 -0.0065206
-0.09895549 -0.051366575 -0.039325953 0.16957605 0.079052866 0.031492513 0.07429218 -0.1872367
0.566572 0.34107852 0.23510328 -0.019662552 -0.09295693 0.018526733 1.2270503 0.18319213
-0.032402646 0.027656984 -0.23675115 -0.5508471 -0.17743097 0.1756412 0.071007274 0.35987127
0.22137913 0.3481019 -0.030728374 0.30925548 0.03008555 -0.0334115 -0.16086477 0.13378449
0.30136618 0.21186037 -0.5139129 0.12375568 0.00715529 -0.028478777 -1.2125262 -0.11696599
0.556601 0.009189174 0.02346557 -0.023773633 0.02964879 -0.07392819 -0.89997965 0.002944803
-0.14792338 -0.020392936 0.05830632 0.709413 0.009919603 -0.036743496 -0.007831647 -0.15090677
0.016712295 0.12230362 -0.00814707 0.0065092132 -0.052027125 0.27848947 0.018090354 0.033903558
0.05026899 -0.011824442 0.040325392 0.011249994 -0.14405462 0.46348706 -0.14548899 -0.014038141
-0.037507482 -0.21637416 -0.01512172 -0.050173335 -0.06297615 -0.8362628 -0.1831417 -0.03568782
0.004596788 0.06859829 0.030092685 -0.037291396 0.5529044 0.07817832 0.1552443 0.050645135
0.3066765 0.0016893296 -0.031387877 -0.011254993 -0.036521733 -0.007906374 -0.009777914 0.3162973
00000000: 3504 1abf 56d3 fd3e 45d9 2abf 68e6 653f
00000010: a6ca 1f3e 946c e4bd b0cf 323f 5fca d7bf
00000020: e62d 5cbe cf2e bfbe 19de 253e cf75 72bf
00000030: a7e0 d63e a2d7 44be e20a 963f 17af c83c
00000040: c7e8 26bf 1c98 9f3e f9ab 6bbe 0de6 313f
00000050: f928 1e3f 8bda bcbf de18 ddbe 4893 fdbe
00000060: beda a4bf 1eaf 5d3e 3569 83be 00c5 e4bd
00000070: b0f6 9ebf 92d8 723e 0aaf 623e 242a 78bf
00000080: c410 6b3d 90fd ddbd 72fe 27bf 6ac2 d23d
00000090: 269b 75be 9192 e93d b06a f43d ada8 743e
000000a0: 1f60 aabe d767 cd3e ce3f 1dbe 2a41 db3d
000000b0: 151d 40bf ac2b ad3d 23d6 263e bfd0 4fbf
000000c0: 056e 083f deb0 283f 8846 26bd 6707 a2be
000000d0: df15 c6be 3813 653e 7d7a 3bbf 2389 dcbd
000000e0: e49b 0ebf 223d 103f 667e cebf 6ba5 53be
000000f0: 0b56 8d3e c638 c7bd 8e79 ef3e acaf b4bd
00000100: e422 5ebd 76a9 dabe a750 953d 90cf 63be
00000110: 87e0 933f 7eb7 273e d0cd 393d a872 3dbf
00000120: 3a4a 86bd ec58 2b3e 511d 7dbf a142 d4bd
00000130: 6ea8 393e e4e3 c13d a254 08be 9971 fabd
00000140: d6c6 ecbe a24e 14bc 30ef 6abd 100e 953e
00000150: 58e2 90be 9fc2 2cbe 3147 603e 432d 453e
00000160: 7279 cabd b6f2 11be b48b 64bd 84f7 583f
00000170: 228d 6dbf 9782 d8be fabc afbe 0fd6 133f
00000180: 75b6 f03e aa6b 36bf 486f c33e af2f ee3e
00000190: 5039 2e3e ecdd c63d 248d 86be 380d 883e
000001a0: 3152 9a3d 571f 893d 82a6 a2bd fe6f df3e
000001b0: ae4d 0bbe 677b 82be ec4e 30bc 7e28 793e
000001c0: 8b8a 223e 6d71 d2be 2deb 363f 63d7 163c
000001d0: d571 19be a64f 6a3d 0f08 34be 989b 47be
000001e0: 7f70 953d 9c49 1bbd 300c c4bb 1df3 a9bb
000001f0: a0ff 723f 14b2 133d 8a75 6fbe 20ac 33be
00000200: 8d7c 483e 2d5a 81bd d691 7fbe 3d3c 20be
00000210: 03c4 42be bcdc a33d 9fde 9a3d de86 4e3e
00000220: c40f 22be 6c70 c7be 5e9e 2d3d 0395 b93f
00000230: a65c a9be 80a8 b23e 4929 383f 3935 373f
00000240: fbc2 a83d 9560 8abd fec8 b6bd 9fbc c23e
00000250: dd0b f43c 2688 673e 8d61 85bd 5d3f a5bd
00000260: c34d a23d 92a9 c73e a7d1 863e 810c 05be
00000270: a4dd 0cbf 685c ef3e 40cc 3d3f c2aa d5bb
00000280: 2da9 cabd c265 52bd 4014 21bd 58a5 2d3e
00000290: 78e6 a13d 4bfe 003d 8026 983d faba 3fbe
000002a0: dd0a 113f d8a1 ae3e eabe 703e 5c13 a1bc
000002b0: 3460 bebd 60c5 973c fc0f 9d3f b896 3b3e
000002c0: a3b8 04bd e690 e23c e56e 72be 5104 0dbf
000002d0: 77b0 35be 49db 333e 436c 913d 0c41 b83e
000002e0: 36b1 623e 6a3a b23e 12ba fbbc bc56 9e3e
000002f0: f975 f63c 7fda 08bd bcb9 24be cdfe 083e
00000300: ab4c 9a3e edf1 583e cc8f 03bf 9e73 fd3d
00000310: ec76 ea3b 534c e9bc 0f34 9bbf dd8b efbd
00000320: 677d 0e3f 308e 163c de3a c03c ecc0 c2bc
00000330: 05e2 f23c aa67 97bd 1165 66bf 99fd 403b
00000340: 3a79 17be 160f a7bc 9cd2 6e3d 179c 353f
00000350: d585 223c 5980 16bd 4f50 00bc 4e87 1abe
00000360: 39e8 883c 527a fa3d 4a7b 05bc 3d4b d53b
00000370: 651a 55bd 2c96 8e3e 3932 943c 75de 0a3d
00000380: dbe6 4d3d 4ebb 41bc 3d2c 253d e551 383c
00000390: 0e83 13be 2d4e ed3e 11fb 14be 3b00 66bc
000003a0: 72a1 19bd 3091 5dbe 17c1 77bc 8e82 4dbd
000003b0: a4f9 80bd 5215 56bf 7f89 3bbe 642d 12bd
000003c0: a7a0 963b 437d 8c3d ef84 f63c ddbe 18bd
000003d0: 258b 0d3f f41b a03d 5df8 1e3e 4671 4f3d
000003e0: b404 9d3e 7f6c dd3a 9390 00bd dd66 38bc
000003f0: d097 15bd bc89 01bc 8b33 20bc b8f1 a13e

bias f4 [100]
-2.0693686 0.88530415 -0.007135591 0.05998256 -2.769787 -0.0158085 0.21616241 -0.9440332
-2.0088701 -2.3289282 -0.33345017 -1.2468917 -0.0676948 -0.16800036 0.030169731 -0.17170459
-0.8965251 0.23972385 0.06728713 5.629526 -7.732566 3.1803045 0.099800475 0.029764574
0.3205363 0.2970332 1.84833 0.0056184665 0.0926252 0.51711583 0.02746679 0.89820826
0.12853362 3.7199292 -0.03330844 -3.3348417 2.3145025 -0.011276818 1.7384689 0.85521686
-1.5602057 -2.3715882 -0.34127915 -2.9237142 -0.17445245 -0.24800941 -1.4476125 2.6335416
-1.867313 -0.06948772 -0.78651077 -0.040194437 -0.26667765 -0.20060445 -0.48194122 1.131653
-1.1339313 -0.38814384 6.417119 -3.8454459 -0.044848043 2.631346 0.11138501 1.2834736
0.4133641 -1.0854369 -0.268658 0.04032418 -0.5941032 -0.04209926 -1.052304 -0.1372407
0.26147082 -0.008856597 0.33688268 4.3139467 3.4646156 -2.1149805 -7.692125 0.06984918
-1.2043958 -0.08752574 0.053172898 -0.9575425 -0.09713357 -1.4890952 -1.0768179 -0.026114574
-2.4133363 0.017294584 -1.0564594 1.6048082 -3.549403 0.11753901 1.5210456 -0.22632267
-0.14768599 1.3299345 -0.12827004 -0.14129347
00000000: 8970 04c0 4ba3 623f add1 e9bb 46b0 753d
00000010: 3144 31c0 d480 81bc ae59 5d3e 29ac 71bf
00000020: 5491 00c0 290d 15c0 fbb9 aabe 269a 9fbf
00000030: 92a3 8abd 4908 2cbe 8326 f73c 54d3 2fbe
00000040: ab82 65bf 2b7a 753e d6cd 893d 1425 b440
00000050: 2e71 f7c0 1c8a 4b40 3164 cc3d d6d4 f33c
00000060: 551d a43e bc14 983e 1496 ec3f 1d1b b83b
00000070: 48b2 bd3d b461 043f 0902 e13c faf0 653f
00000080: 519e 033e 5213 6e40 6e6e 08bd 0c6e 55c0
00000090: cf20 1440 67c2 38bc 2686 de3f 7eef 5a3f
000000a0: d2b4 c7bf 1ac8 17c0 24bc aebe 221e 3bc0
000000b0: aaa3 32be 2ef6 7dbe 5e4b b9bf f28b 2840
000000c0: 1d04 efbf 944f 8ebd c558 49bf eca2 24bd
000000d0: f989 88be 416b 4dbe 00c1 f6be 01da 903f
000000e0: a924 91bf caba c6be 0a59 cd40 c91b 76c0
000000f0: 95b2 37bd f967 2840 d31d e43d dd48 a43f
00000100: 76a4 d33e 99ef 8abf 8b8d 89be f82a 253d
00000110: 2617 18bf 4670 2cbd e6b1 86bf d388 0cbe
00000120: 81df 853e 431b 11bc e37b ac3e da0b 8a40
00000130: 43bc 5d40 d75b 07c0 e325 f6c0 160d 8f3d
00000140: a429 9abf b240 b3bd d3cb 593d 8121 75bf
00000150: f7ed c6bd ac9a bebf 2bd5 89bf 3bee d5bc
00000160: 1a74 1ac0 5fad 8d3c 103a 87bf 5b6a cd3f
00000170: 6b29 63c0 4bb8 f03d 9fb1 c23f 21c1 67be
00000180: ff3a 17be 4b3b aa3f 3959 03be 3caf 10be

weight f4 [13, 100]
-0.0019762295 -0.0034174237 0.26534262 0.1853614 -0.0047912262 0.21252766 0.18359748 0.0003966107
-0.006040606 -0.00028311042 0.0030484498 0.010386355 -0.25340462 0.21136956 0.27805015 0.21665318
-0.003795278 0.0033566558 -0.20929992 0.010569913 -0.000738604 -0.0026647367 -0.23472829 0.2881453
0.00012602578 -0.2198628 0.008189754 0.28257948 -0.008258178 0.013069772 -0.19080408 0.0021323576
0.0076364405 0.0063789412 -0.23539993 -0.0045204414 0.0052279932 0.05666711 -0.0016411267 -0.0027310958
-0.0013440812 -0.009873672 0.005184456 -0.0072988253 -0.17598681 -0.22064714 -0.0032275761 0.0005438489
-0.00209545 -0.15169643 0.0066640186 -0.11768977 -0.009739903 0.0013410719 0.0033221026 -0.005270792
-0.0010258909 -0.0058329673 0.017869739 -0.007304219 0.27097124 0.0015840741 0.23239502 -0.0028028423
0.005062978 -0.004871358 -0.0022448709 0.05139842 -0.005989214 0.15042622 -0.0013912455 -0.10076291
0.0022293236 0.35496625 0.0022302286 -0.0021997886 -0.011353667 -0.004800788 0.0013800476 -0.2527569
-0.0078092986 0.00084284245 0.27187508 3.3619057e-05 -0.25578898 -0.004488955 0.0055949423 -0.0032761784
-0.0009345777 0.17600414 -0.0037387973 0.00030782793 0.003990123 -0.039769422 0.0037278268 0.0060826233
-0.16856466 0.0072915857 -0.22335906 -0.23931696 -0.0008087825 0.0005542197 0.06520325 -0.22206868
0.001937471 -0.15513963 -0.14464223 0.008902917 0.0038744914 0.0009732554 -0.009175412 0.0018578799
-0.2348658 -0.16305362 -0.20103955 -0.21139987 0.00714573 -0.001014481 0.20290771 0.0036368116
0.0040671253 -0.0010332261 -0.16586396 0.35709557 0.004987269 -0.20849204 0.00036966987 -0.17782944
0.016348505 -0.0059699477 -0.21661411 -0.0011964439 0.022543311 -0.004836982 -0.22643964 -0.009055504
-0.0041332743 -0.13919629 3.3583307e-05 0.0007672654 0.0033154762 -0.00054783846 -0.002410982 0.005549868
-0.17623745 -0.18011162 -0.005934487 -0.003202287 -0.009730513 0.25413585 -0.007590598 0.228515
-0.00083571504 0.009455141 -0.00801499 -0.003010919 -0.0021748103 -0.00084813323 -0.0069658356 -0.0043101734
0.2610295 0.0019583087 -0.20697704 -0.0006100416 0.0028988344 -0.006393232 -0.005848295 0.20118763
0.00214545 0.2615969 0.0035444968 -0.15178165 -0.009034014 -0.24449813 0.011060952 0.0020294858
0.01366216 0.0061229803 -0.00068914116 -0.2134667 0.007816031 -0.00697426 0.24108164 0.002067892
0.18695474 0.0070038093 4.476379e-05 0.00022227215 -0.0019515649 -0.08947885 0.00034225447 0.009011945
0.00935407 -0.28896272 0.0010791568 0.0149502335 0.058657695 -0.00018639925 0.19796157 -0.086778186
0.0067310682 0.0020359703 0.24091914 0.22049499 0.0003995143 0.112943135 -0.17791922 0.00024730456
-0.005337184 -0.00068236527 -0.008516652 -0.0026615097 0.28950962 0.21264882 -0.30407304 -0.11514665
-0.007501355 0.009945961 0.018745027 0.00026971183 -0.004993819 -0.0012208684 0.1631198 -0.32506138
7.65015e-05 -0.059885062 -0.0035481101 0.2226723 0.0011059367 0.0005385375 -0.2579914 0.0038966746
-0.0030713987 0.014959798 0.22971343 0.007713375 -0.0020402793 0.14068075 0.0069462587 0.0029947578
0.0019224713 0.0024476233 0.0072188033 0.007479513 -0.17104432 -0.01545996 -0.0068618003 -0.007326806
0.0034369412 0.262784 -0.007249243 -0.23608232 -0.0014432527 -0.0022515815 0.00033239173 0.0037257415
00000000: a183 01bb dbf6 5fbb fdda 873e 61cf 3d3e
00000010: b8ff 9cbb daa0 593e fa00 3c3e 30f0 cf39
00000020: 47f0 c5bb 706e 94b9 80c8 473b 882b 2a3c
00000030: 40be 81be 4371 583e 975c 8e3e 55da 5d3e
00000040: 33ba 78bb 57fb 5b3b b852 56be 6e2d 2d3c
00000050: e09e 41ba dda2 2ebb 9d5c 70be c887 933e
00000060: ca25 0439 b723 61be 512e 063c 42ae 903e
00000070: 4f4d 07bc 9922 563c 2562 43be 06bf 0b3b
00000080: 1b3b fa3b 7006 d13b ae0c 71be 3620 94bb
00000090: 964f ab3b c61b 683d 131b d7ba 2ffc 32bb
000000a0: e22b b0ba 2fc5 21bc 5ee2 a93b fc2a efbb
000000b0: e335 34be 53f1 61be be85 53bb 1591 0e3a
000000c0: d153 09bb 4f56 1bbe d75d da3b 5607 f1bd
000000d0: 1d94 1fbc e8c6 af3a a2b7 593b 9cb6 acbb
000000e0: 3077 86ba 7a22 bfbb 8f63 923c 3b58 efbb
000000f0: bebc 8a3e b5a0 cf3a f6f8 6d3e e4af 37bb
00000100: 56e7 a53b ea9f 9fbb af1e 13bb 2687 523d
00000110: 2b41 c4bb 5509 1a3e 745a b6ba c95c cebd
00000120: d819 123b 23be b53e 0729 123b 542a 10bb
00000130: bb04 3abc ee4f 9dbb b7e2 b43a 5a69 81be
00000140: 25e5 ffbb 33f2 5c3a 3633 8b3e 3002 0d38
00000150: c6f6 82be 1518 93bb c755 b73b 27b5 56bb
00000160: 73fe 74ba 6e3a 343e 9c06 75bb f763 a139
00000170: 94bf 823b 43e5 22bd 8e4e 743b be50 c73b
00000180: 379c 2cbe 41ee ee3b 3db8 64be 810f 75be
00000190: 7a04 54ba 0e49 113a 4889 853d f965 63be
000001a0: bdf2 fd3a ecdc 1ebe 181d 14be 8add 113c
000001b0: 2eeb 7d3b 1022 7f3a 7854 16bc 1b84 f33a
000001c0: a980 70be 87f7 26be 50dd 4dbe 3579 58be
000001d0: ba26 ea3b 55f8 84ba 0ac7 4f3e 9357 6e3b
000001e0: 8545 853b 516d 87ba 3ed8 29be 3bd5 b63e
000001f0: 3f6c a33b f07e 55be 40d0 c139 ec18 36be
00000200: 4ded 853c 8d9f c3bb 17d0 5dbe ffd1 9cba
00000210: c0ac b83c 8c7f 9ebb cbdf 67be 895d 14bc
00000220: 6b70 87bb 7989 0ebe cddb 0c38 4f22 493a
00000230: 7648 593b d19c 0fba 9101 1ebb abdb b53b
00000240: 9777 34be 2e6f 38be 1676 c2bb 76dd 51bb
00000250: bb6c 1fbc 181e 823e 8dba f8bb d6ff 693e
00000260: e313 5bba bce9 1a3c 4e51 03bc d752 45bb
00000270: 4387 0ebb 4255 5eba aa41 e4bb 5b3c 8dbb
00000280: a9a5 853e f856 003b caf1 53be 33eb 1fba
00000290: 5ffa 3d3b 517e d1bb 0ea3 bfbb 2104 4e3e
000002a0: ae9a 0c3b 07f0 853e ca4a 683b a66c 1bbe
000002b0: 6703 14bc b85d 7abe ff38 353c 1f01 053b
000002c0: 41d7 5f3c 48a3 c83b 7ba7 34ba 0497 5abe
000002d0: cf0e 003c 5588 e4bb 1bde 763e 7985 073b
000002e0: 1071 3f3e 3680 e53b c1c0 3b38 ba11 6939
000002f0: a7cb ffba b040 b7bd 9e70 b339 d6a6 133c
00000300: d041 193c ecf2 93be 7e72 8d3a d3f1 743c
00000310: 0d43 703d 2b74 43b9 70b6 4a3e c3b8 b1bd
00000320: 4b90 dc3b ea6d 053b 82b3 763e 70c9 613e
00000330: e775 d139 bb4e e73d 7530 36be a8a8 8139
00000340: 8be3 aebb c2e0 32ba 6d89 0bbc b96c 2ebb
00000350: 9b3a 943e 9dc0 593e 76af 9bbe 02d2 ebbd
00000360: edcd f5bb 62f4 223c 2c8f 993c 1c68 8d39
00000370: 31a3 a3bb 8c05 a0ba e008 273e 726e a6be
00000380: 6e6f a038 0a4a 75bd 6987 68bb 3504 643e
00000390: 14f5 903a a42c 0d3a 7317 84be 5a5f 7f3b
000003a0: 8549 49bb f119 753c ff39 6b3e 7bc0 fc3b
000003b0: 35b6 05bb 9d0e 103e 719d e33b b343 443b
000003c0: 6ffb fb3a 4e68 203b b68b ec3b b416 f53b
000003d0: 3e26 2fbe c64b 7dbc f4d8 e0bb b415 f0bb
000003e0: 4e3e 613b a08b 863e 0f8b edbb 90bf 71be
000003f0: 862b bdba 458f 13bb dd44 ae39 922b 743b

bias f4 [13]
-0.073431484 -0.0037870246 -0.0048151836 0.016852358 0.016689043 -0.012220824 0.21347487 0.545089
1.070192 0.1106553 1.167004 -3.5188074 -2.0541594
00000000: 3f63 96bd bb2f 78bb b0c8 9dbb f50d 8a3c
00000010: 76b7 883c da39 48bc 2899 5a3e f48a 0b3f
00000020: 0dfc 883f 3f9f e23d 6360 953f 2434 61c0
00000030: 5977 03c0
