scripts/data/nn_ssm.pt (torch, 9625 bytes, 3 tensors)

weight f4 [100, 15]
00000000: 2b80 52bf 70f1 a5be de79 0abe f636 e4be
00000010: f0a2 75bd 7fa8 69bc 74b9 133f cc4f 393e
00000020: 47af ae3d ce7a a63e d824 5abc 6c14 7ebc
00000030: 59dd 133f a963 0cbe 5224 feba 675a 753f
00000040: d3b5 96be d92e 893c ef75 593e db52 2fbd
00000050: 0a97 b63d 8403 a43e f036 07be 637b a13c
00000060: 8d64 b73d c1f5 37bc 5eb9 273d c551 9dbf
00000070: 8557 00be 4bb2 71be 8871 fdbe 55b0 1f3f
00000080: 1c76 bf3e ccab 32bc fa14 2e3e 0733 2a3d
00000090: 896d d93e 3210 57bf 89cf 08bf 58e6 7d3c
000000a0: 1ce5 81be 69af d6bd 9393 113f 3fd0 d63e
000000b0: 08d8 29bc faae 99bd 4ac6 453e 8bfc 8dbe
000000c0: b79d fb3d f026 c0bc 54c8 44bd 27cf f5bd
000000d0: a53a a23c 8c75 7dbe d82d 4bbe bc6f 403d
000000e0: f874 4dbd 9751 a5bd 2cbb 85be a7dd a9be
000000f0: ee88 f73e 5963 03be 0b68 a0bd ec7a 1e3e
00000100: 956f d1bd 6707 ab3c 9aa2 283f 47f9 dabe
00000110: 6ae8 92be 980e 0d3e 94d1 2fbd 9106 8abd
00000120: f09a 7cbf 4c91 ffbe 87b7 2fbf fe92 943f
00000130: b452 bcbe f500 8dbe a32e 8f3e 9f23 87bd
00000140: 3542 7fbd 7303 e23e a5fd 55be 30b9 24be
00000150: 227a 1b3e 4eab 003d c3ca 6cbb ec25 a1bf
00000160: 3d65 49be f13c 49be c4a1 7ebe 729b 2dbe
00000170: f797 92be 00f3 503e 95da abbd c94d 853d
00000180: b112 f9bd 0061 89bd 3b3a f8bd 0733 593e
00000190: 49f5 3abd d833 e03d 424a bdbe 4e33 de3e
000001a0: b717 383e 883d 093f 3d3a 19bf 9f6c acbe
000001b0: 2193 003e 4a96 dabd 510d a53d f3f0 11bf
000001c0: 1ba8 273f 82b5 c53e 7b20 bfbd 192c 1c3e
000001d0: b6d8 e33c a954 2bbf f54a 8dbe 43e9 c6bc
000001e0: 718e 29be b9ab 48be 4414 2bbe 86f8 8d3c
000001f0: 3a59 bebd a67e 693e 9aaf d13d 8e95 d2be
00000200: b087 163d 8859 d4be ef5f 603e fe75 b23e
00000210: 628c e4bc e6e4 1dbc 6da6 f1ba 1f79 76be
00000220: 33ee db3d 4a80 5abe e89f a9bd d291 f33d
00000230: 35de a5bd a9d9 99be 67ff e13d 4669 86be
00000240: 15c7 29be 38f5 8dbe 2072 82be 5ba4 02be
00000250: 72d5 5ebe 71f8 83be 232e a23b de35 083f
00000260: 58c5 5b3d 2741 3e3d 9db7 df3d bf45 803d
00000270: 6f5a 34bb e10c b33e 0a15 053d cdd6 143d
00000280: af1d 493d 5150 973c 8742 eabc ad99 7cbc
00000290: f979 a4be 76f6 073f aa0c 1c3f 9701 823e
000002a0: dea2 bb3d c21c ba3d 22cf 6fbc 1ed7 00bf
000002b0: 080f 19bf eb64 94be 6f8e 00be 1ed9 87bd
000002c0: e2e3 e53b 8e84 17bf ed70 673e 12a1 5a3b
000002d0: 2347 23bd 0f81 983e 7357 a23d 8c65 00bf
000002e0: 0aa2 4fbe 2cc7 233e 9aa2 cdbd db9f b53d
000002f0: 8611 79bc 5589 85be e2f7 31be 466c 8b3d
00000300: 4ead 28be 5c60 6fbd 3f50 ae3e 44a4 7cbf
00000310: 115b 973e 3f5b 3c3e 83db 8cbe 154d 8f3a
00000320: 32b9 29bd b856 06bf 3291 4a3e 5351 c4bc
00000330: 0eae 1fbe 3f51 3dbd e0d8 2fbd 5451 923f
00000340: 1162 c63e 595a acbe 3ec6 fd3d 2a78 853d
00000350: 6e2a adbc 42f3 e23d ed9c 3fbe e462 6d3d
00000360: 150e a6bd b453 f03e dae4 8c3e 40a6 08bd
00000370: 8599 5d3e 58cb a23c 8f08 083e 3965 a23e
00000380: 52e2 05bc 0608 bbbe f7a5 0fbf 83c5 0cbf
00000390: bdfa 2bbd 8483 b3be 9977 10be 504b 7a3e
000003a0: 1683 d13e c047 e03e 28b1 713d 6e71 a63e
000003b0: 5a86 2a3e 2a2d ae3e 95a7 d4be 98de 54bb
000003c0: e2d5 af3e 056f 163f f32c 063f 3e8e a23d
000003d0: 3409 b83e 3b63 223e a6bf 53bd 6fe6 aa3e
000003e0: 7696 723e d11f 1c3d 77f5 0e3e f4b3 733d
000003f0: 5b69 aabe b118 dc3e 49b4 1f3d 85f6 913e
-0.8222682 -0.32410765 -0.13523051 -0.44573182 -0.059969842 -0.014261364 0.57704854 0.18096846
0.08529525 0.32515568 -0.013314448 -0.015507799 0.57759625 -0.13709892 -0.0019389486 0.9584107
-0.29435596 0.016745972 0.21236394 -0.042803627 0.08915527 0.32033932 -0.1320455 0.019712156
0.089547254 -0.011228026 0.040948264 -1.2290579 -0.12533386 -0.2360317 -0.4950068 0.62378436
0.37394798 -0.010905217 0.1700019 0.04155257 0.4246638 -0.8400909 -0.53441674 0.015496813
-0.2537011 -0.104826756 0.56865805 0.41955754 -0.010366447 -0.07504077 0.19313923 -0.27731737
0.12285941 -0.023456067 -0.04804261 -0.12002402 0.019803355 -0.24751872 -0.19841707 0.04698156
-0.05016038 -0.08072203 -0.26119363 -0.3317692 0.48346657 -0.12830867 -0.078323446 0.15476578
-0.10226361 0.020877553 0.6587311 -0.4276831 -0.28692943 0.13775098 -0.04292448 -0.06739534
-0.98673916 -0.4991554 -0.68639416 1.1607358 -0.36781847 -0.27539793 0.27965268 -0.06598591
-0.062319 0.44143257 -0.20897539 -0.16086268 0.15183309 0.03141337 -0.0036131598 -1.2589698
-0.19667526 -0.19652154 -0.24866396 -0.16953829 -0.28631565 0.20405197 -0.083913006 0.06508977
-0.12161768 -0.067079544 -0.121204816 0.21210872 -0.04564408 0.109473884 -0.36970717 0.43398517
0.17977796 0.53609514 -0.5985449 -0.3367662 0.12556125 -0.106731966 0.080591805 -0.57008284
0.65490884 0.38615042 -0.09332367 0.15251197 0.027813297 -0.66926056 -0.2759625 -0.02428115
-0.16558243 -0.19596757 -0.1670695 0.01733042 -0.09294362 0.22802219 0.102385715 -0.41129726
0.036750495 -0.41474557 0.21911596 0.34855646 -0.027898971 -0.009637093 -0.001843644 -0.24069642
0.10738792 -0.21338001 -0.08282453 0.118930474 -0.08099023 -0.30048874 0.11035042 -0.26252192
-0.1657985 -0.2772615 -0.25477695 -0.12758009 -0.2176111 -0.25775483 0.0049493476 0.53207195
0.053655 0.046448853 0.10923693 0.06263303 -0.0027519723 0.34970763 0.032490768 0.036337662
0.049100574 0.018470915 -0.028596176 -0.015417499 -0.32124308 0.53110445 0.60956824 0.25391838
0.09161924 0.09087516 -0.014636787 -0.5032824 -0.5978856 -0.28983244 -0.12554334 -0.06633209
0.007015691 -0.5918664 0.22601672 0.0033360166 -0.039862763 0.29785964 0.07926836 -0.5015495
-0.20276657 0.15993947 -0.100407794 0.08868381 -0.015201932 -0.2608134 -0.17379716 0.06807761
-0.1647236 -0.058441505 0.34045598 -0.9868815 0.29561666 0.18394183 -0.27511224 0.0010933006
-0.04143638 -0.5247607 0.1978195 -0.02396456 -0.1559374 -0.04622006 -0.042931437 1.1431069
0.38746694 -0.3366268 0.12391327 0.0651706 -0.021138396 0.11081554 -0.18712206 0.057955638
-0.08108155 0.4693886 0.2751835 -0.033361673 0.21640594 0.019872352 0.13284515 0.31717852
-0.008171635 -0.3652956 -0.5611262 -0.5498888 -0.04198717 -0.35061276 -0.14108123 0.24442792
0.40920323 0.4380474 0.05900684 0.32508415 0.16652814 0.34018832 -0.41534105 -0.003248131
0.34342867 0.5876315 0.5241234 0.07937287 0.3594452 0.15858166 -0.051696442 0.33378932
0.23690209 0.03811628 0.13960825 0.05949779 -0.33283505 0.42987588 0.038990293 0.28508392

bias f4 [100]
00000000: 0029 623d c937 98bd 9392 4bbe ae08 b1bd
00000010: 051c da3e 9e1f 4d3e f293 d43d 2018 b93e
00000020: 2333 263e 5cb3 fd3d cd19 abbe 8c8f 543e
00000030: 0bec 1fbd 7dde 94be f4d7 24bf b23e 543e
00000040: 13c6 c7bf 2e7a 993d 96cf 053c a076 163e
00000050: fe4d 733d 2af5 bebd c188 653e f7a4 113e
00000060: 5305 bbb9 6373 793f 9ea4 cc3d 4d10 973d
00000070: 3f59 533e 9c2e 753e 4d6a 61bd aa06 8d3e
00000080: c29e 25be 48de 8a3e 7252 693e d0ea 7fbe
00000090: fd67 37be b103 be3e 7f6c 783f 1b59 dbbe
000000a0: 96e6 15be 9fda 4c3f 9988 bdbe 0d4f 14be
000000b0: 247e 843e 24c2 573e 29e4 80bf feb4 90be
000000c0: 2c51 cdbe 7875 7fbd 2612 03bf 90b3 1b3e
000000d0: 4b5c 9bbb 5dc0 37be eb30 f73d f35d 1dbf
000000e0: 11b7 af3e de80 b33f fad2 5dbe 7fed 8e3e
000000f0: 8fd6 873e 4efc 0dbe d396 a13e 14ba 583f
00000100: d8cc ae3d 1ff3 90bf ab99 6cbe 8005 86bf
00000110: 05fd e63d 8794 51be 02d0 b1bd 7c40 8a3e
00000120: e383 f3be f60f 02be 9a86 303f e1e0 453e
00000130: 53f5 973f b10d 413f 8876 b03e 4589 983d
00000140: 5d04 02bf bad7 013f 4035 3bbf cde6 a8be
00000150: 5367 3cbf fe7a be3e 5c57 d43e 1db2 c13d
00000160: 1ca2 fdbe 6c6c 613f b2cb fabd 5242 39be
00000170: 411d 913e 0c29 54be 90ff 48bd fc60 6ebe
00000180: 4570 b0bd 083d 2c3e 3164 d6be db7f 6a3f
0.055214882 -0.07432515 -0.19880132 -0.08644234 0.42599502 0.20031592 0.10379781 0.36151218
0.16230445 0.12387726 -0.33418122 0.20757884 -0.039043467 -0.29075995 -0.6439202 0.20727041
-1.5607322 0.07494007 0.008167168 0.1469369 0.05940055 -0.09324105 0.22415449 0.14223085
-0.00035671386 0.9744169 0.09992336 0.07376156 0.20639513 0.23943561 -0.055033017 0.27544147
-0.16173843 0.27122712 0.22785357 -0.24991918 -0.17910762 0.3711219 0.9704055 -0.4284142
-0.14638743 0.8002109 -0.37018278 -0.1448328 0.25877488 0.21070153 -1.0069629 -0.28263086
-0.40100992 -0.062367886 -0.5119957 0.15205216 -0.004741227 -0.17944475 0.12069877 -0.6147148
0.34319356 1.4023702 -0.21662512 0.2791557 0.26530883 -0.13865778 0.31560382 0.8465893
0.085351646 -1.1324195 -0.23105495 -1.0470428 0.112787284 -0.20466815 -0.086822525 0.27002323
-0.4756156 -0.12701401 0.68955386 0.19324066 1.1871742 0.75411516 0.34465432 0.07448057
-0.5078791 0.507198 -0.7312813 -0.32988587 -0.7359516 0.3720321 0.414729 0.094578005
-0.49537742 0.88056064 -0.12245883 -0.18091705 0.2834263 -0.20718783 -0.04907185 -0.23279184
-0.08615164 0.16820157 -0.41873315 0.9160134

weight f4 [1, 100]
00000000: ca30 74bf 5de9 c93f 4318 abbf 3047 0bbd
00000010: facb 2c40 c521 ef3f 97fc bbbe 7e83 a8bf
00000020: e896 93bd 9ddf 4d3d da47 4f3e 0682 83bf
00000030: 28e0 8c3e 09f9 1d40 ec36 333f 84ac 83bf
00000040: 918c 9e40 ed59 fa3e 9e3c df3d fa0b 24bf
00000050: eb17 20bf 4edb 7ebf 8744 4cbf 2566 93bf
00000060: f9e6 8b3f 8c8d 3a40 511c 66bf 37d8 95bf
00000070: 69ad f73f b33c 1340 19bf 84bf 535b 0240
00000080: ec5d 913e 766e f0be 2f2a fe3f a77f b63c
00000090: adf2 303f 5af8 85bf 911f 3140 21b3 6d3e
000000a0: d14f 563e 39c1 0140 a0e6 0f3f efb4 243d
000000b0: 4fa5 99bf f870 67bf 7650 2240 66ec 17bd
000000c0: db3f 1140 df03 a3bd d569 823f bdc2 72bf
000000d0: 0d0f 1dbf c381 ad3f bda3 d1bf c6e6 d63f
000000e0: 0e60 80bf fc5d 7c40 790b a53f c4bc a7bf
000000f0: 8402 45be f092 8ebe 2208 8cbf 04a5 3340
00000100: a30a 45bf ea8c 5440 2a02 ac3b ce51 3a40
00000110: 792f 42bf ce49 5abd 34bf 823c ff8e 60be
00000120: e859 b13e 965a 6abf c0bc 1b40 675f 50be
00000130: d4b8 4240 41a6 1340 6cee acbf b463 edbf
00000140: dd69 8c3e f3ac 3240 40a2 a93f 82ab df3e
00000150: 3495 1c3f 3c81 0540 b7e8 2cbe f1cf 1ebf
00000160: 5862 c83f 80fd 2040 2e01 993e d73e b7bf
00000170: 07df 1e40 d554 a8bd e4de 0f3f f626 11bd
00000180: 6f95 31bd aa1c 10bf 025a bf3f e37c 0b40
-0.95386946 1.5774342 -1.3366779 -0.034003437 2.6999497 1.8682181 -0.36716148 -1.3165128
-0.072065175 0.050262082 0.20242253 -1.0274055 0.27514768 2.468325 0.7000568 -1.0287023
4.954659 0.48896733 0.10900234 -0.64080775 -0.62536496 -0.9955338 -0.79792064 -1.1515547
1.0929862 2.9148893 -0.8988696 -1.1706609 1.9349796 2.3005798 -1.0370818 2.036824
0.2839197 -0.46959275 1.9856623 0.022277666 0.69120294 -1.0466416 2.7675517 0.23212864
0.20928885 2.0274184 0.5621128 0.040211614 -1.2003573 -0.9040675 2.536161 -0.03709068
2.2695224 -0.07959723 1.0188547 -0.948284 -0.6135109 1.3555225 -1.6378094 1.6789176
-1.0029314 3.9432364 1.2894126 -1.3104482 -0.19239241 -0.2784648 -1.0939982 2.8069468
-0.76969355 3.3211007 0.0052492814 2.911243 -0.7585369 -0.053293042 0.015960313 -0.21929549
0.34638906 -0.91544473 2.4333954 -0.20348893 3.042531 2.3070223 -1.351026 -1.8546052
0.27424517 2.791806 1.325264 0.43685538 0.61165166 2.0860128 -0.16885649 -0.62036043
1.5655012 2.5154724 0.29883713 -1.4316052 2.4823625 -0.082193054 0.5619948 -0.035437547
-0.0433554 -0.5629374 1.4949343 2.1794975
