scripts/data/nn_ssm_complete.pt (torch, 97055 bytes, 8 tensors)

weight f4 [100, 15]
000000 76 19 c2 3f 65 1c 4b bf d2 e1 af 3e 38 5b 9b 3f
       1.516402 -0.793402 0.34351975 1.2137213
000010 30 51 55 bf 15 c8 0c bf 62 23 cb bf bb 59 3b 3f
       -0.8332701 -0.549928 -1.5870173 0.7318379
000020 55 6e bb be d2 b5 9f bf a0 f4 69 3f ed 16 16 3f
       -0.36607614 -1.2477362 0.91388893 0.5862873
000030 a2 89 b2 bb a8 2c 1c bd 1d e1 60 3d 8a 46 3b 3f
       -0.005448536 -0.038128525 0.054902185 0.7315451
000040 2e 27 c8 be 4f 73 01 be 4f ab 2b 3f 56 a8 8f 3f
       -0.39092392 -0.12641643 0.6705827 1.1223247
000050 22 b8 73 3e a5 19 86 3e 5c 0e c9 3d 65 ca 00 bd
       0.2380071 0.2619144 0.09817192 -0.03144302
000060 08 24 61 3f 7a 60 fc 3e e1 1e 59 3e 48 2c 49 bf
       0.87945604 0.49292356 0.21203186 -0.7858319
000070 7d 0c 9d bd e6 90 18 bd 67 2a fb be 59 f8 37 bf
       -0.076683976 -0.03724756 -0.49055788 -0.71863323
000080 32 b9 8d 3e 8a af c2 be 38 d5 9a 3f 36 0d 43 3f
       0.27680355 -0.3802455 1.2096319 0.76192033
000090 7b f1 fa 3e 0b ad 69 bf 39 7b d1 bd 9d 57 3a be
       0.4901236 -0.9127967 -0.10228581 -0.18197484
0000a0 4a 48 b5 3e c9 49 1b 3e 0a c5 16 bf bd f3 d5 bf
       0.35406715 0.15164866 -0.5889441 -1.6715008
0000b0 63 05 c5 3d 68 be 08 bf 29 83 8c 3d 13 13 2c 3f
       0.09620168 -0.53415537 0.06860954 0.67216605
0000c0 a0 87 3d 3f 70 3d a2 3e 1c 86 d8 3d 68 63 02 bd
       0.7403507 0.31687498 0.10572454 -0.031833082
0000d0 b6 a4 bf be 65 b2 57 bf 0a 2b 89 bf f5 75 6c be
       -0.37430352 -0.84256583 -1.071626 -0.23091872
0000e0 3f 24 2c bc dc 51 74 be 13 e1 11 be d8 b5 aa 3d
       -0.010506689 -0.23859352 -0.14246015 0.08335465
0000f0 b4 9b e2 be 75 48 bc 3f 36 ee cc be 5f 0f aa be
       -0.44259417 1.4709612 -0.4002549 -0.33214852
000100 1f 59 73 3f fe 76 1d 3f 9e 37 d9 3e f1 75 d8 bf
       0.95057863 0.6150969 0.42425245 -1.6910993
000110 7b 4f d0 3e 08 19 7c 3e ba 1f 75 bf 5a e7 25 bf
       0.4068564 0.24618924 -0.95751536 -0.6480614
000120 3a 00 fe 3d 3d 8b f4 bd bd ff a6 3d 03 10 ec bd
       0.12402387 -0.1194062 0.08154247 -0.115264915
000130 52 75 9e bc 93 96 87 be e7 5a 9d 3d 10 fa 22 be
       -0.019343052 -0.26482067 0.07683354 -0.15915704
000140 ab 4f bd bd 1b 05 8c 3f 30 80 7a 3e b0 9e ee bc
       -0.09243711 1.0939058 0.24462962 -0.029128402
000150 ab aa a5 3e 9d 1e c4 bd 72 91 a5 bd 08 4e 2a 3f
       0.32356772 -0.095761515 -0.08084382 0.66525316
000160 1e 03 41 be a7 a9 c9 bf e9 b2 91 bf bf 9a 21 bf
       -0.18848845 -1.5754899 -1.1382724 -0.6312675
000170 cd d7 e2 be d5 da e5 3d af ec 95 be dd 32 cf be
       -0.44305268 0.112233795 -0.29282138 -0.40468493
000180 09 a6 ab 3f 05 b2 62 3f 8e 1b f2 3e a0 d4 e5 bd
       1.3410045 0.88552886 0.47286648 -0.112221956
000190 64 29 c6 3e 78 cc ad 3e 35 fa 15 bf 80 55 78 bf
       0.38703454 0.3394506 -0.5858491 -0.9700546
0001a0 5f a8 23 be 54 c3 f4 be 3d 19 0b be e2 02 96 3e
       -0.15982197 -0.47805274 -0.13583846 0.29299074
0001b0 35 9d 06 be 17 76 4e 3f 9e 43 9e 3e f1 f3 e2 bc
       -0.13145907 0.8064894 0.30910963 -0.027704211
0001c0 cc 9c e0 3e c0 ab 93 3d 84 c9 4c bf 71 b4 35 3f
       0.43869627 0.07210493 -0.7999499 0.70978457
0001d0 c8 a7 aa 3e cb 81 07 3f 9a 8b 9e bc 3e c1 34 be
       0.33331132 0.52932423 -0.019353677 -0.17651841
0001e0 ce 8d 62 bf b3 43 85 3f e8 11 35 3f fa 2c 81 bf
       -0.88497627 1.0411285 0.7073045 -1.0091851
0001f0 18 6f 61 bf 01 a8 23 bf 94 fc 5e 3f 5f 7b 86 bf
       -0.8806014 -0.6392823 0.87104154 -1.05064
000200 47 64 5f bf 05 44 64 3f 5c 56 50 3f e3 cd 09 3f
       -0.87262386 0.8916629 0.81381774 0.53829783
000210 1a 84 a2 3e c4 b8 3c 3e d0 00 29 3d 3a b7 dc 3d
       0.3174141 0.18429857 0.04126054 0.10777135
000220 3e 82 d5 bd f1 26 02 bf d8 fc 65 be 56 fc 18 3f
       -0.10425232 -0.5084067 -0.22459733 0.59760034
000230 ac 40 b7 3e 7e 42 18 3e 15 ea aa 3e e7 9a a5 3e
       0.35791528 0.14869115 0.33381715 0.32344744
000240 84 da 4a 3e 90 91 b2 be 56 32 8a be 3f 7c 84 3e
       0.1980992 -0.3487668 -0.26991528 0.25876042
000250 d3 0f c3 3e 43 24 a6 3e e6 f0 bc 3a 61 b5 86 3a
       0.3809801 0.3244954 0.0014415055 0.0010277444
000260 b5 0f d3 3a e4 eb 94 3b 97 79 bf 3a b3 3f 3f 3b
       0.0016102704 0.004544722 0.001460838 0.0029182255
000270 ea 69 09 ba 95 b4 1c bb e1 9a 27 bb 90 95 65 bb
       -0.00052419177 -0.0023911346 -0.0025574493 -0.0035031773
000280 1e 94 ad ba 58 66 0f bc fe c1 81 ba d9 b3 c3 ba
       -0.0013242995 -0.008752428 -0.0009899733 -0.0014930918
000290 92 b6 4b 3a b2 c3 42 3f b9 0f 20 bf c5 19 2a bf
       0.00077710405 0.7607986 -0.6252399 -0.6644557
0002a0 ba 68 18 bf c1 f1 4d bf ea 74 f4 be a7 39 0f 3f
       -0.595348 -0.8044701 -0.47745448 0.55947345
0002b0 22 af c1 bb 05 0d 3e be 05 17 10 3e 5f d1 3d 3e
       -0.00591077 -0.18559654 0.14071281 0.185369
0002c0 65 95 0d 3e eb 22 70 bf 03 00 0c 40 bc 1e 7a 3e
       0.1382652 -0.9380328 2.1875007 0.24425787
0002d0 f7 1e 0e be 50 a7 05 3c 3e 61 a7 3e 7a 91 ab 3e
       -0.13879 0.008157566 0.32691377 0.33509427
0002e0 ef c3 80 3d c0 d5 23 be 84 33 1b 3f 29 46 ba 3d
       0.06287371 -0.15999508 0.6062548 0.09095413
0002f0 1f cd 81 be c6 ff 74 be 1a 77 58 3e 2f 0c 89 3e
       -0.25351807 -0.23925695 0.21139184 0.26767108
000300 ab c3 31 3e 73 5f 34 3e 7d e9 cb 3d e3 c7 4a 3e
       0.17359798 0.17614536 0.09956644 0.19802813
000310 74 c6 03 be a6 04 a0 be 8a 9f de 3e 8d 17 27 3f
       -0.12868673 -0.31253546 0.43481094 0.6527031
000320 53 a8 40 bf 66 a8 9a bc fb e8 a0 3e 3a ec 72 3e
       -0.7525684 -0.018879127 0.3142775 0.23722926
000330 8c 50 cf be 8f f1 e2 be 47 4b 71 3f 88 98 33 3c
       -0.4049114 -0.4432492 0.9425549 0.010961659
000340 20 eb 44 bd 7c a6 71 3e 49 38 e7 be 5c 08 86 bf
       -0.048075795 0.23598665 -0.4516013 -1.0471301
000350 e6 31 14 3e 58 57 b2 3e 54 39 07 3f c7 0a ce bc
       0.1447216 0.34832263 0.5282185 -0.025151623
000360 9e 26 64 3f 22 48 d1 3f eb f0 c4 3b f1 a1 33 bf
       0.89121425 1.6350138 0.006010165 -0.7016898
000370 d5 7d f9 be 92 58 20 3e 96 9e 46 bf 18 5b f4 3e
       -0.48728815 0.15658787 -0.7758573 0.4772575
000380 9d 51 5d 3e d6 1a 25 bf 53 67 c6 bf 29 83 ae 3e
       0.21613164 -0.64494073 -1.5500282 0.34084442
000390 93 22 75 bf 86 f9 20 bf ef 90 4d 3f a4 b6 64 3f
       -0.9575588 -0.6288074 0.80299276 0.8934119
0003a0 1c 4c b9 3f c3 a9 b4 be 55 2d 78 3f b5 2c 1f 3f
       1.4476352 -0.35285768 0.9694417 0.6217759
0003b0 c9 eb 4c bf 74 6a 59 3c 8a 5f a0 bd b0 1c 0d bd
       -0.8004728 0.013270009 -0.07830723 -0.034451187
0003c0 e3 d3 24 bf 47 e7 25 bf 73 a2 71 bf 5c a5 ee 3e
       -0.64385813 -0.64806026 -0.943885 0.46610534
0003d0 cb f3 36 bf 01 9e 9f be d7 6d e8 bd 1b a6 2a be
       -0.7146575 -0.31175235 -0.11349075 -0.16664927
0003e0 fe d7 c6 be 87 b1 86 3e bc 6d ba bd 33 72 58 3d
       -0.38836664 0.26307318 -0.091029614 0.052843284
0003f0 9c c4 16 3f bb b9 12 40 83 49 9d 3e ac 7c 45 bf
       0.5889375 2.292586 0.30720147 -0.7714336

bias f4 [100]
000000 fe aa d7 bd c6 da c9 bf 2a a8 48 3f 9a 20 4a 3f
       -0.10530661 -1.5769889 0.783816 0.78955996
000010 61 e0 98 3d 2b 2f 2e bf 1c 7f 39 3f ef 1f 1a bf
       0.07464672 -0.6804072 0.7245958 -0.60204977
000020 a7 39 d4 3c df 71 49 bf 5c b7 4e 3c 9b c4 9a 3d
       0.025906397 -0.7868938 0.0126169585 0.07557031
000030 30 b7 4d bf 15 e6 fa be 17 32 b4 be 6e e1 1c be
       -0.80357647 -0.49003664 -0.35194466 -0.1532037
000040 02 cd ff bd c1 0f 0d 3f 67 44 a1 3d 2f c2 65 3d
       -0.12490274 0.55102164 0.07874375 0.05609339
000050 38 1c 51 3d 6b 64 ee 3e 8c c0 49 3f ac 81 17 be
       0.051052302 0.46560988 0.7880943 -0.1479556
000060 db 93 2e 3e 5e 3a c5 be 8d 0d 06 3f cd 49 ab be
       0.1704859 -0.38521093 0.52364427 -0.33454743
000070 45 09 1a 3f c1 ad 81 be 66 86 50 bf ef dd 46 3e
       0.60170394 -0.25327876 -0.81455076 0.19420598
000080 e2 33 6b 3f 11 0e 9d be d8 b2 42 3f f4 50 e6 3e
       0.9187604 -0.30674794 0.76054144 0.44983637
000090 bd 38 7b be 2f 8e eb 3d 68 99 fd be cf 15 bd 3e
       -0.24533363 0.11501729 -0.49531102 0.369307
0000a0 9d 82 90 3d 6a f7 4f bf 72 f0 b6 3f a3 35 b1 be
       0.070561625 -0.812369 1.4292128 -0.34611234
0000b0 0a cb 81 bf 23 22 bc 3e 52 91 c3 be c2 97 d0 bf
       -1.0140088 0.36744794 -0.38196808 -1.6296313
0000c0 c9 3f cf bd 05 96 f6 3e 81 db 12 be 44 86 c1 bd
       -0.10119588 0.4816133 -0.14341547 -0.09449437
0000d0 f4 a4 1b bf 0d 63 a4 3e 52 f8 cf 3e 1d 0b 3e bf
       -0.60798573 0.3210682 0.4061914 -0.7423571
0000e0 10 32 eb bd e6 51 49 bc e7 1c 01 3f cb 50 7f 3e
       -0.11484158 -0.0122875925 0.50434726 0.24933164
0000f0 17 dd 33 3f 72 4d c2 3e f0 8b 21 bf 78 b5 28 3c
       0.7025923 0.3794971 -0.6310415 0.010297172
000100 1b 98 f7 be 70 ac 22 3e da 0e bc 3e 73 4f d4 3f
       -0.48358235 0.15886092 0.3673008 1.6586746
000110 6a 2f 65 be 55 13 11 3e 27 35 6d 3f 4b 30 b8 3d
       -0.22381368 0.14167531 0.9265923 0.08993586
000120 21 be 3a 3f de e8 12 3f 60 e8 ef 3d 66 92 ad 3d
       0.72946364 0.5738658 0.11714244 0.08475189
000130 07 22 70 bf 7c 17 8c bd d4 08 5a bf de 1f 51 3f
       -0.9380192 -0.06840417 -0.8516972 0.8168925
000140 e3 db 5c be 5f ab c2 3e ee 1d 88 be 55 36 5b 3f
       -0.21568255 0.3802137 -0.26585335 0.8562978
000150 44 77 23 bd ee cb cf 3e ce 5f a0 3e 02 b0 0f 3d
       -0.039908662 0.40585274 0.31323093 0.035079964
000160 13 c0 81 3e 86 71 6a 3d 12 e7 d6 3e ec 04 19 be
       0.25341853 0.05723717 0.41973168 -0.14943284
000170 1c 11 fd be 67 1e dc 3e 1b 60 05 bf d6 da c6 3e
       -0.49427116 0.42991945 -0.5209977 0.38838834
000180 50 9a e8 be 6a 4c df be 75 2d 55 3f 41 bf f3 3d
       -0.4543023 -0.43612987 0.83272487 0.11901713

weight f4 [100, 100]
000000 d4 5c d3 be 3b 29 10 be 2e c6 8c 3d 42 fc 08 be
       -0.4128176 -0.14078228 0.06873737 -0.13377479
000010 a0 9a 33 3e c5 fd 7c bd f9 a5 3a b9 5c 8b 0b 3d
       0.17539454 -0.06176545 -0.00017800172 0.03406845
000020 1f c0 8c be 1d 0d a2 b9 89 b7 a6 3b d2 66 85 bc
       -0.27490327 -0.00030908818 0.005087797 -0.01628438
000030 45 ba bb 3c 91 c2 83 3b fb e5 c8 bd 37 6b 90 be
       0.022915969 0.004020997 -0.0980949 -0.28206798
000040 d9 6f 1e bd 2a 81 6c bc 86 e8 cb bc 71 2a 48 3e
       -0.038680885 -0.014435092 -0.02489115 0.1954744
000050 10 33 dd be d0 bc 71 3d af 01 82 3d e6 12 d7 be
       -0.4320302 0.059017956 0.06347977 -0.42006606
000060 05 61 e7 bd b7 33 c3 ba 3b 2e c4 3c 65 52 ee bd
       -0.11297802 -0.0014892732 0.023947826 -0.11636809
000070 63 c8 1f 3d 21 1b a3 3e a3 86 5d bd 43 c1 00 3e
       0.039009463 0.31856635 -0.054083478 0.12573723
000080 9a 98 fb bb 0d 84 ca 3e d7 db 2c bd db 08 56 be
       -0.0076781036 0.39553872 -0.042201843 -0.20901816
000090 20 25 f6 3c ee cc 02 3d aa fd c6 3d 0b e2 fe 3c
       0.030047 0.031933717 0.09716351 0.031113645
0000a0 23 e4 4c 3e 7b e8 f6 3b e5 8d de bb 4e d5 28 3e
       0.20008902 0.007535038 -0.0067918175 0.1648762
0000b0 49 9a 10 bc 9c e3 fd 3d e1 a6 07 3d db 59 36 bd
       -0.008825847 0.12396929 0.033118133 -0.044519287
0000c0 4b 1b 0c 3f 24 b1 25 3d ab 46 ae 3e 49 40 bd 3e
       0.54729146 0.040452138 0.3403829 0.36963108
0000d0 69 fc 82 3d 85 b7 4d bd 80 6b 69 be 4d 59 7c 3c
       0.063958 -0.050223846 -0.22794914 0.01540215
0000e0 33 58 c3 3d 67 6f 85 be 42 f4 cc bc 32 49 63 be
       0.09538307 -0.26061556 -0.025018815 -0.2219589
0000f0 11 6e 35 3d 79 ac 38 be 41 75 37 bd 73 04 61 be
       0.04429442 -0.18034543 -0.044789556 -0.21974353
000100 b3 0b e9 bd 39 02 25 bd 9e 37 33 be f1 84 8d b8
       -0.113791846 -0.040285323 -0.17501685 -6.748166e-05
000110 be 89 a7 bb 0d 0d a0 be f7 b3 a6 3d c0 c5 91 3e
       -0.0051128557 -0.31259957 0.08139794 0.28471184
000120 1a ff fe bc bb 4c 2e be 37 34 9a 3d f0 de 51 bd
       -0.031127501 -0.17021458 0.075294904 -0.051238
000130 c5 e2 19 3d 41 72 b9 3e 1f 7e c4 ba c8 c1 bc 3d
       0.03756978 0.3621998 -0.00149912 0.09216648
000140 fa c2 ae 3d 13 34 ba be 07 12 94 bd 37 6c 1a 3d
       0.085332826 -0.36367854 -0.07230001 0.037700858
000150 59 71 d4 bb e9 9c 19 be 0b 92 19 3f 0d c4 08 3e
       -0.0064832387 -0.15001263 0.5998847 0.13356037
000160 0f f3 af bd 4b 0e 4e be 7d 8f b5 3e 71 83 30 3e
       -0.085912816 -0.2012264 0.35461035 0.17237641
000170 35 46 d6 3c cb 7d ce bc 2e 42 c4 bc ee 76 56 3d
       0.026156524 -0.025206467 -0.023957338 0.052359514
000180 86 c2 5c bd 5b 59 aa bd e5 db 8d 3d bc f4 9f bb
       -0.05389645 -0.083178245 0.06926707 -0.0048814695
000190 cf bd 4e 3f 83 64 c4 3d 3d 1c 8b 3e fc 86 ca 3e
       0.80758375 0.095894836 0.27169982 0.3955611
0001a0 72 dc 9f bd 9f 16 9d be fb 2b 47 bf 59 34 54 bf
       -0.078057185 -0.3068132 -0.77801484 -0.82892376
0001b0 30 5b 11 be ae b1 52 bd 2e 3e c3 3b ac 52 e6 bd
       -0.14194942 -0.05143898 0.00595834 -0.11246237
0001c0 8b 1e 34 3e 67 53 24 3e 0f ba 38 3e b6 39 d5 3e
       0.17589776 0.1604744 0.18039726 0.41645592
0001d0 57 75 9b be 6a a6 84 3f 0d 80 8a be c4 d5 98 3e
       -0.3036296 1.0363286 -0.2705082 0.2985059
0001e0 7f ab 40 bd c1 21 53 be 4c b2 a3 3f d1 ed 31 3f
       -0.04703855 -0.20618345 1.2788787 0.69503504
0001f0 e8 71 0c be 6c cd 11 3f db 62 57 be b7 cb 4c be
       -0.13715327 0.56954074 -0.21033804 -0.19999586
000200 55 a7 00 3e 3f b6 3e 3e 83 0f 70 be 9a 7e 1b bd
       0.12563832 0.18624209 -0.23443417 -0.037962534
000210 db 2a 9a 3d f4 96 f2 be 5b 6a 5d 3f 03 80 df be
       0.07527705 -0.47380793 0.8649041 -0.43652353
000220 74 39 da 3e b1 6e 47 bf 35 25 cb be 99 41 7c bc
       0.42621958 -0.77903277 -0.39676824 -0.015396499
000230 3c 29 47 bc c5 fa ea 3e 70 4b 34 3f 29 b3 cb bd
       -0.012155827 0.45894447 0.7042761 -0.099462815
000240 96 9f 9f be 8c 8e 00 3e 95 71 16 bd bf a5 2e bf
       -0.31176442 0.12554377 -0.036729414 -0.6822166
000250 f1 ab be 3d 90 1d ba 3d 40 47 4a be 86 7f 4c 3e
       0.09310139 0.0908767 -0.19753742 0.19970521
000260 df c2 1a be d9 c2 e6 bd 85 1f 6a be 63 d8 18 3f
       -0.151134 -0.11267633 -0.22863586 0.5970518
000270 bd b6 10 bd aa 73 a4 3e 5c 7b f6 be 39 8a 42 bf
       -0.035330523 0.32119495 -0.4814099 -0.7599216
000280 fd 7f cb be 42 6d 4f bf 8e 56 e9 bd e3 ba 9a be
       -0.39746085 -0.8102609 -0.11393462 -0.30220708
000290 2f 39 2a 3f a6 84 82 3e cd bb ad 3e c1 fe 6c bd
       0.66493505 0.25491828 0.33932343 -0.05786014
0002a0 21 26 24 be 33 bf 0d 3f 59 87 1c 3f 50 d4 c1 3e
       -0.1603017 0.5536987 0.61144024 0.37857294
0002b0 f3 75 2c be 2c 62 53 bd ca 0a c5 3e 27 5d ac 3d
       -0.16841869 -0.051607296 0.38484794 0.08416205
0002c0 39 34 b4 bf 97 fc 4f bd c7 01 07 3f d2 20 c0 bd
       -1.4078437 -0.050777998 0.52737087 -0.0938126
0002d0 27 bf fe 3e 00 ad 45 bf 96 94 18 3f 9d 4d 2e 3e
       0.49755213 -0.772171 0.59601724 0.17021795
0002e0 0b 7e e1 3e 77 a4 0e 3e 7f 27 8e be b6 64 53 bb
       0.44041476 0.13929926 -0.27764508 -0.0032256073
0002f0 ec cf 97 be 3d 5c 1b bf 43 e5 c7 be af 85 9c 3c
       -0.2965082 -0.6068762 -0.390421 0.019106714
000300 59 f9 f4 bc 06 1f 24 be f8 fc ca bd 9b c4 11 3f
       -0.029904054 -0.1602746 -0.09911531 0.5694062
000310 fd 92 aa be d8 9c 0b be cc 8e 56 3f f1 82 08 3f
       -0.33315268 -0.1363405 0.8381164 0.533248
000320 bc 43 db bd d9 57 b8 3e a2 95 aa be 6c 9f e3 be
       -0.10706279 0.36004522 -0.33317286 -0.44457567
000330 50 cf b9 3e 17 03 36 3f 51 bc 35 be 20 f7 65 3e
       0.3629098 0.71098465 -0.17747618 0.22457552
000340 e3 58 11 3e 05 89 13 3e d4 4e e8 3b e7 91 3a 3e
       0.14194064 0.14407738 0.007089475 0.1821972
000350 26 92 ba 3d c6 d2 6e 3d 1b 28 e3 be 03 d4 17 3e
       0.09109907 0.058306478 -0.44366536 0.1482697
000360 9f 43 ab 3d 72 3d 1c 3f 3b 77 06 bf 85 4a 2a be
       0.08362507 0.6103126 -0.5252568 -0.1662999
000370 d4 8a ed 3e cb 37 3f bf 43 f3 14 3f dc 9f fd bd
       0.4639498 -0.7469451 0.5818369 -0.123840064
000380 09 7f f1 bd 09 ee fc be e3 12 9e be 11 0d 0b 3f
       -0.11791808 -0.49400356 -0.30873784 0.5431681
000390 c2 b9 f9 be 01 7d 10 be 25 5f fb 3e fe 7a 56 3d
       -0.48774534 -0.14110185 0.49096027 0.05236339
0003a0 77 80 66 bf 8d d1 73 3e 02 2b 07 bf ae 89 77 3d
       -0.9003977 0.23810406 -0.528 0.060434036
0003b0 9d cc 2b 3e 17 88 05 3f 94 3b 78 3d 7b 08 ff 3e
       0.16777273 0.5216078 0.060603693 0.49811158
0003c0 22 6b 34 3e f0 f9 cf 3e a2 5c 0b be 41 15 6c be
       0.17618993 0.40620375 -0.13609555 -0.23054983
0003d0 4b 23 2c 3d bc 21 3d bd 8e 5e 07 3f 78 be fc bb
       0.042025845 -0.04617475 0.52878654 -0.0077131353
0003e0 25 a6 99 be ad 48 09 bf 4c 8b 9c 3e 4e 94 e3 bd
       -0.3000957 -0.5362652 0.30575025 -0.11112271
0003f0 c6 58 ad be b7 52 b3 be b7 60 2b 3d 7b d5 af be
       -0.3385679 -0.35024044 0.04184028 -0.3434256

bias f4 [100]
000000 9d 03 e3 3c 92 32 1c 3f 0f 17 12 3f 6b 53 f7 3e
       0.027711684 0.61014664 0.57066435 0.4830583
000010 4a 40 51 bf 33 08 20 be 46 78 fb bc 6b 02 52 3e
       -0.8173872 -0.15628128 -0.030697 0.20508735
000020 c8 ac 2c bc c2 ae 0b 3f 99 d2 b5 3d 77 21 b1 bd
       -0.010539241 0.54563534 0.08878059 -0.08648961
000030 8e 47 5f bf 20 b3 2e bd 94 06 65 3f 39 97 04 3d
       -0.8721856 -0.042651296 0.8946316 0.03237078
000040 41 6e 0b bf 3e 2d aa bd b9 21 db 3d 12 cf e8 3e
       -0.5446511 -0.083094105 0.106997915 0.45470482
000050 d1 87 39 3e 0b 2a 1d 3f 65 70 5f 3e 87 ed aa 3e
       0.18118216 0.6139228 0.21820219 0.33384344
000060 66 6c 57 3f 0e d0 8e bd 84 86 13 3f 67 2c 15 3e
       0.8414978 -0.06973277 0.5762713 0.1456772
000070 14 32 9f 3e db ca f7 bd 47 bf 92 3e 58 1d 34 bf
       0.31092894 -0.120992385 0.28661558 -0.70357275
000080 06 2e 0c 3f e0 28 19 be 8f bb cb 3d ee 7c 20 3e
       0.54757726 -0.14956999 0.09947883 0.15672657
000090 35 5f 22 bf 39 44 96 be 1f 07 d4 3d 44 da 21 bf
       -0.63426524 -0.29348925 0.10352921 -0.6322367
0000a0 31 ca 8a be 9c b3 59 bf ce 79 6a 3d 65 99 42 bf
       -0.27107385 -0.8503969 0.05724507 -0.7601531
0000b0 b7 9b 05 bd d9 0a 0f be 93 f5 db bd a6 db 1b 3f
       -0.032619204 -0.13968982 -0.10740199 0.6088203
0000c0 0b 74 4c be 5d 0e 21 be cb df 03 be 97 c0 f8 3e
       -0.19966142 -0.15728135 -0.12878339 0.48584434
0000d0 d4 91 ca 3e e0 7c a8 3e bd 38 63 bf 80 7f 92 bd
       0.39564383 0.32907772 -0.8875845 -0.07153225
0000e0 f2 ca ac 3d cc 91 80 bf 7a ca 59 bf 71 15 9c 3d
       0.08437146 -1.0044494 -0.8507458 0.07621277
0000f0 b5 94 ac 3e 94 25 b8 bb 32 c0 2d 3d 40 51 bb 3d
       0.33707204 -0.005619714 0.04241962 0.091463566
000100 f1 b6 47 3e 70 ec 1d 3d 08 77 ec bd 29 ad 7e be
       0.1950338 0.038555562 -0.11546141 -0.24870743
000110 f3 cd 0d bf c0 44 78 bf 61 06 b0 3e a1 92 52 3e
       -0.5539238 -0.96979904 0.34379867 0.20563747
000120 0e 58 de bd 8b fa 26 3e 13 29 47 3d e2 f2 16 3f
       -0.10856639 0.16306512 0.048623156 0.5896436
000130 76 8d 0c 3e 7e 7a ea 3c 95 56 2b bd f7 54 f0 be
       0.13725838 0.028622862 -0.041830618 -0.46939823
000140 d3 cd 02 3f 07 7d 40 be c2 68 35 3e c1 fc e5 3e
       0.5109531 -0.18797694 0.17715743 0.44919398
000150 49 ee 55 3f d5 87 90 3f c3 c5 ba 3d f4 b7 92 be
       0.8356672 1.1291453 0.09119751 -0.2865597
000160 cc 52 cc 3e ad e9 33 be 6c 72 bd 3d 40 c8 85 bf
       0.3990692 -0.17569609 0.0925034 -1.0451736
000170 54 30 9a 3e 07 68 8e bf f5 56 ca 3e 5a e2 2e bf
       0.30114996 -1.1125497 0.39519468 -0.68314135
000180 e0 37 4e 3e c7 c1 6d 3e 57 c0 40 3f bd 3c 2e 3d
       0.20138502 0.23218451 0.7529349 0.042538393

weight f4 [100, 100]
000000 c6 38 db bd 50 17 8a bd a0 10 f3 be e8 70 a0 3f
       -0.10704188 -0.06742728 -0.4747362 1.2534456
000010 b9 c8 29 3e 03 28 10 bc 00 9c 6f 3e 34 ca 18 bf
       0.16580476 -0.008798602 0.23399353 -0.5968354
000020 6b 34 e5 bd 82 33 8e be f6 59 ce 3c bd 18 28 bf
       -0.111916386 -0.27773672 0.025189381 -0.6566275
000030 52 18 37 3f af e4 63 be 1a ce b7 3e 17 94 62 bb
       0.71521485 -0.22255205 0.3589943 -0.0034573132
000040 1b c0 d7 be 41 81 cf 3d 86 cf d0 be 07 15 44 3f
       -0.42138752 0.10132075 -0.40783328 0.76594585
000050 f8 4a 9a 3e f9 37 cf be c6 3b b3 be ee 8a a2 be
       0.30135322 -0.4047239 -0.3500654 -0.3174662
000060 45 0c 96 be 64 fc 21 3e f7 f5 1e be ab e2 9d bd
       -0.29306236 0.15818936 -0.15523516 -0.07709249
000070 85 2c ba be b7 7d fa 3d ba ed 68 bd 68 a0 81 bf
       -0.3636209 0.122310095 -0.05686734 -1.0127077
000080 e4 10 7e 3e a2 d2 ba bd 6c 48 5e 3d 1a fb 62 3e
       0.24811131 -0.09122206 0.054268286 0.221661
000090 4a 22 f1 3d 51 e1 f3 3e 2c 4d a8 bd bd ae 15 3f
       0.11774118 0.4763284 -0.08217844 0.58469754
0000a0 82 0c c5 bd 07 fb 3a 3f 8f 58 75 be 98 91 dd 3d
       -0.09621526 0.7303929 -0.23959564 0.108187854
0000b0 5c 69 74 bc c3 9d 5e 3e f4 64 8b bd 9c 77 d5 bd
       -0.014917698 0.21739869 -0.06806365 -0.10423204
0000c0 34 bd 09 3f d6 70 05 3f b2 84 2b bd e2 0c cf be
       0.53804326 0.521253 -0.041874595 -0.40439516
0000d0 24 f2 88 be e4 ae bb bd ac 6f 15 bf ae 61 09 bd
       -0.2674724 -0.09164217 -0.5837352 -0.03354042
0000e0 42 7a 7d 3e d4 7a 2c bd 1c 42 38 bf d0 a5 67 3d
       0.24753669 -0.042109326 -0.71975875 0.056554615
0000f0 da c6 2b 3e ba 9d 8a be 5a a9 8b 3e 1b db d7 be
       0.16775075 -0.2707346 0.27277642 -0.42159352
000100 35 b8 1f 3c 31 12 51 3e f8 8b 8f 3c 0f af 6b be
       0.009748508 0.20417096 0.017522797 -0.23015998
000110 3a e3 a0 be 4d c4 77 3d 59 96 0e bb ce 71 9d be
       -0.3142336 0.06048994 -0.0021757095 -0.3075089
000120 c7 1b 93 bd a8 52 cf 3d ed 6f 18 bf a6 7d 21 3e
       -0.071830325 0.10123187 -0.59545785 0.15770587
000130 0b 21 b4 3d 59 b7 3f 3e 95 5a 0b be 84 58 e7 bc
       0.08795365 0.18722285 -0.13608773 -0.02824045
000140 c7 53 fe bd 00 7e b1 3d 58 db c1 be ae 20 f0 3d
       -0.12418323 0.08666611 -0.37862659 0.11724983
000150 60 c8 27 3e 90 01 8e be 8e 29 67 3e 1c 53 b9 be
       0.16385031 -0.27735567 0.22574446 -0.3619622
000160 36 60 9c bd d3 c0 2e be 47 c3 84 3d 61 1b dc 3d
       -0.07635538 -0.17065744 0.06482559 0.107474096
000170 8c 1e 1d bf 8f 46 30 3e 3b b1 cf be e3 53 b9 3d
       -0.61374736 0.17214416 -0.40564904 0.09049203
000180 b3 27 2f 3e 73 00 6c be 8e a3 22 3e c0 8f 39 be
       0.17104988 -0.23047046 0.15882704 -0.18121243
000190 45 52 d2 bc b6 4c db bd f4 d9 08 3d f5 d2 fa bd
       -0.025673995 -0.10707991 0.03341098 -0.12247268
0001a0 df b5 21 3e 41 a8 08 3e 14 1d 2d bd 98 97 9c 3e
       0.15792035 0.13345434 -0.04226406 0.30584407
0001b0 41 c6 c2 bd e2 69 e0 be c4 c2 27 3d 4d 4c 5a 3e
       -0.0951047 -0.43830782 0.040957227 0.21318169
0001c0 13 e7 15 3d 34 42 2a bb 66 2e 5e 3f 99 67 c7 bd
       0.036597323 -0.0025979402 0.8678955 -0.097365566
0001d0 9c 53 38 3e 49 4b 64 3c 30 cf 1d 3e e3 07 6c be
       0.18000644 0.013933965 0.15411067 -0.23049884
0001e0 2b 68 29 be fc 15 0b 3f af 60 c8 3e 04 d3 12 3c
       -0.16543643 0.5433042 0.39136264 0.008961443
0001f0 86 01 c7 3e ce 6c f1 3c 0a 6e e7 bd 14 fa ea be
       0.3886835 0.029470827 -0.11300285 -0.4589392
000200 6c 91 36 3e 96 75 0d bd fe 89 19 be 95 32 db be
       0.17828912 -0.034535967 -0.14994046 -0.4281203
000210 51 e8 1f 3c b7 3d e2 3c c4 9b 9d 3c 91 9c 46 3e
       0.009759978 0.027617319 0.019239314 0.19395663
000220 9a ec 7c 3e bb 2f ab bd 11 34 fd 3c c4 3a 7f 3f
       0.24699631 -0.08358713 0.030908616 0.99699044
000230 22 79 62 be 51 65 d6 be 0e 2f f0 3e a3 5c 0c 3f
       -0.22116521 -0.41874173 0.469109 0.5482885
000240 5f ea 91 3e 36 71 09 be 80 8e 31 bd a2 e6 f0 3d
       0.28499123 -0.13422093 -0.04334879 0.1176274
000250 8c ae ed be 47 cf 81 3e 7f 9b 47 be b9 bd 2c 3d
       -0.4642223 0.25353453 -0.19492911 0.04217312
000260 24 ec b6 be 17 56 34 3f bd 46 49 bc 06 e5 eb bd
       -0.35727036 0.7044386 -0.012284932 -0.11518292
000270 76 e9 50 be 98 39 0a 3f e1 e8 cf 3c 6b 70 44 3c
       -0.20401558 0.5399413 0.0253796 0.011989693
000280 26 a6 ad bb 75 5a bf bc cf 2d c1 ba 9d 79 14 3e
       -0.0052993475 -0.023358563 -0.0014738383 0.14499517
000290 69 8d 05 3e 5b 3b 96 3d 50 42 05 3e cb 34 1b be
       0.13042225 0.0733554 0.13013577 -0.15156858
0002a0 40 a3 1c 3f 7f 85 d1 3e 92 b7 a2 3d a7 8e cb be
       0.611866 0.40922162 0.079451695 -0.39757273
0002b0 28 b3 8d 3d d0 16 a4 3d 46 35 39 3f d7 a5 43 3e
       0.06918937 0.08012164 0.72346914 0.19106232
0002c0 78 d4 1c 3c 54 ec f2 3d e5 5f f2 bd f1 5e 57 3b
       0.009572141 0.11861482 -0.11834697 0.0032862986
0002d0 06 20 8a 3e 77 99 8f 3e 7c 30 93 3d cc 35 8b 3e
       0.26977557 0.28046772 0.07186982 0.2718948
0002e0 33 0e 1b 3f a3 61 1c bf 1f 54 b3 bd 73 53 06 3f
       0.6056854 -0.6108648 -0.08756279 0.52471083
0002f0 a4 34 53 be 3b a6 46 3d 6b 39 12 be 37 1a 9c 3d
       -0.2062555 0.048498373 -0.14279716 0.076221876
000300 c2 20 19 3e a6 6e 89 3d e5 bd 88 bf 99 28 74 3d
       0.14953902 0.06710558 -1.0682951 0.05960903
000310 cb 60 c3 be aa 43 9e be ee 16 30 bf e5 0c a4 bb
       -0.38159785 -0.30911 -0.6878499 -0.00500642
000320 ef be 1f 3f e1 91 59 3c f6 62 75 3d fe 93 41 3d
       0.62400717 0.013279409 0.05990883 0.047260277
000330 24 bd 13 bc f0 2b 56 bd ab 09 5f bf fe 62 f5 3a
       -0.009017263 -0.052287996 -0.8712413 0.0018721519
000340 0c c2 9b be 74 2a b5 3b ab 5b f7 3d 87 e0 f5 3e
       -0.30421484 0.0055287424 0.12078031 0.48022863
000350 7e 66 8e 3b fb ef 61 bc 09 e6 2e bc c3 73 b2 be
       0.004345714 -0.013790126 -0.010674962 -0.34853944
000360 87 d1 1b 3b 83 df d3 bd 44 c3 87 bc f5 10 0c 3d
       0.002377601 -0.10345366 -0.016572602 0.03419586
000370 4a 5d 76 bd a0 2b cd 3e 1e 0b 18 bd 68 8b 40 bc
       -0.06014756 0.40072346 -0.037119977 -0.011751987
000380 7c 41 9e 3b 93 95 e6 3d f8 1d a7 3c d3 c3 e4 3c
       0.0048295837 0.11258998 0.020400032 0.027925408
000390 c4 f7 17 bd 95 e0 13 3f ba bf 47 be ab 3d 07 bb
       -0.037101522 0.5776456 -0.19506732 -0.0020636122
0003a0 9f 17 5b 3b fe 24 bc bd 4d a0 c6 3b 2c 68 1b be
       0.0033430827 -0.09186743 0.00606159 -0.15176457
0003b0 9f 0e db bc 64 89 0f bf d6 51 13 be 4e 55 73 bd
       -0.02674037 -0.56069016 -0.14386687 -0.059407525
0003c0 ed c2 c3 3d ca f3 15 bd f4 39 23 bd 82 da 5b 3b
       0.095586635 -0.03660945 -0.03985019 0.003354699
0003d0 8b 82 64 3f b2 ac b7 3d 34 36 c3 3d e9 83 78 3d
       0.8926169 0.08968486 0.09531823 0.060672674
0003e0 ce 7b 63 3e 07 86 5d 3c 3d 78 5a 3d 3b 59 30 3c
       0.22215196 0.013520724 0.053337324 0.010763462
0003f0 02 16 68 3b 57 7b b5 3c 03 8d 89 bc 33 15 b2 3e
       0.0035413508 0.02215354 -0.016790872 0.347818

bias f4 [100]
000000 ba 58 e0 bf 34 7b 03 bb bb 67 ae bd 39 47 d9 3d
       -1.7527077 -0.0020062448 -0.08515879 0.10609288
000010 59 a3 a4 bf 42 b1 34 be 0c 64 05 3e dc 9f 60 bf
       -1.286235 -0.17645743 0.13026446 -0.87743926
000020 1b 43 8e 3e a6 7c 71 bf cc cc 1e bf be bb 3f bf
       0.27785572 -0.94330823 -0.62031245 -0.74895847
000030 75 83 45 3c 1f 09 19 bf 4b 3a 94 3d 3b 1d 05 be
       0.012055268 -0.5977954 0.07237681 -0.12999432
000040 09 06 ac be a3 9b 10 3f 97 47 ab 3d 6b 6f ef 3f
       -0.33598354 0.5648748 0.08363264 1.8705877
000050 e3 54 4d c0 eb 68 08 40 c3 32 ab 3c bc 98 46 3d
       -3.208306 2.1314037 0.020898229 0.048485503
000060 cb b5 aa 3e 22 3f 8e bc 5d 20 e4 3f 6b 11 c0 3d
       0.33341822 -0.017364088 1.7822376 0.09378322
000070 c9 b6 22 3e d9 7c f5 3e c2 99 3b bd 82 13 a8 3e
       0.1589004 0.47946814 -0.04580093 0.32827383
000080 fe 51 84 bd c1 cc 05 40 66 ae 77 be 30 bd 3b c0
       -0.06460951 2.0906222 -0.24187621 -2.933422
000090 de bd 07 40 31 67 81 bc 27 1e 53 3f 56 1a 3a 3f
       2.1209636 -0.015796276 0.82467884 0.72696435
0000a0 db 6e 45 bf f9 fe 89 bf 90 50 2b 3e 22 5a 2a c0
       -0.7712228 -1.0780936 0.16729951 -2.6617513
0000b0 26 23 ca bb 28 ce 39 bd ae ca 0e bf 30 5b f7 3e
       -0.006168741 -0.04536262 -0.55778015 0.48311758
0000c0 6e 9a 9e bf 06 74 5d bd 44 95 8b bf 5f 14 e6 bb
       -1.2390878 -0.054065727 -1.0904927 -0.0070214714
0000d0 3c 02 7c bd c8 48 88 be b6 05 73 be 80 31 45 3f
       -0.06152557 -0.26618028 -0.23732647 0.77028656
0000e0 fb e2 82 bf 7a ee e4 be bf 59 3d 40 9e 04 bd bf
       -1.0225519 -0.44713193 2.9586027 -1.4767034
0000f0 ab dc 42 bd 2b fc 52 3f 4f 2a 95 3d d0 ac 41 3d
       -0.047573727 0.8241603 0.0728346 0.047283947
000100 dd e1 62 3d b0 1c 79 bf bc 13 93 3e db eb 17 3d
       0.05539118 -0.973094 0.28725994 0.037090164
000110 30 fa f7 be 73 e4 4d 3e 47 f2 28 be ef 0d 68 3d
       -0.48433065 0.20106678 -0.16498671 0.056653913
000120 d4 78 dd bd be 71 c9 bc 46 66 1a 3f 2f 5f 37 3f
       -0.10814062 -0.02459037 0.60312307 0.71629614
000130 74 ec 8a 3f e1 fa ec bf 91 0b a7 c0 f8 f7 0b 3e
       1.085341 -1.8514062 -5.220162 0.13668811
000140 76 f0 a9 bf 47 38 e7 3d 34 a2 70 3d 4d 0e 30 bf
       -1.3276508 0.11290031 0.05874844 -0.6877182
000150 e5 f1 84 bc 1b f6 90 bf 09 01 8a bf 80 60 66 bf
       -0.016228626 -1.1325105 -1.0781566 -0.89991
000160 a0 d8 8e bf 91 86 92 bd 9b b6 66 be ab a6 86 3f
       -1.1159859 -0.07154573 -0.22530596 1.0519613
000170 87 af c4 bf 3e d2 39 bc 45 2e 85 be e8 2b 83 be
       -1.5366067 -0.01134163 -0.26011863 -0.25619435
000180 33 40 50 3e d7 78 0d 3f ee 1a 36 be a5 0f bc bd
       0.2033699 0.5526251 -0.1778371 -0.091826715

weight f4 [13, 100]
000000 05 a7 d9 bb 5c 3d 95 3b 64 96 75 3e a0 05 12 bd
       -0.0066422247 0.0045544337 0.2398315 -0.035649896
000010 92 b1 9e 3b 60 f2 6b 3e 1f 94 5c 3e 3f 13 3f bb
       0.0048429454 0.23041677 0.21540879 -0.0029155759
000020 d9 79 b4 b9 01 fa 0e bc 63 a9 3f 3c 7b 24 05 3c
       -0.0003442306 -0.008726598 0.0116981 0.008126373
000030 8c 2f 41 be 0d 64 11 3e a1 da 97 3e 27 0b 5c 3e
       -0.18865794 0.14198323 0.29658988 0.2148863
000040 ae 77 58 bc 15 75 76 3c 3a af 6a be 82 b1 b7 39
       -0.013212128 0.015042563 -0.22918406 0.00035036734
000050 2c fd af 38 65 90 89 bb 5e 80 6a be 90 c4 87 3e
       8.391807e-05 -0.0041981214 -0.2290053 0.26517153
000060 c4 e1 24 bc f8 f4 73 be 5a 20 2b 3b b5 d3 78 3e
       -0.010063592 -0.23823917 0.0026111812 0.2429951
000070 d2 da 03 bc c6 bb d6 3c 12 84 1a be c7 9a 10 3c
       -0.008047776 0.026212584 -0.15089443 0.008825964
000080 b8 a9 da 3b d4 08 29 3b 28 a7 4f be 5e 5e 55 3c
       0.006673064 0.0025792615 -0.20278609 0.013022987
000090 a1 68 87 3b 00 07 c3 3d c8 0f 2a 3a c8 82 89 3b
       0.004132346 0.095228195 0.0006487337 0.0041964985
0000a0 f0 d2 a3 3b c6 24 1a 3c 0f a9 03 3b 58 78 05 bc
       0.004999511 0.0094081815 0.002008978 -0.008146368
0000b0 38 a9 32 be f0 76 75 be dc 9f c1 bb bb 1a da bb
       -0.17447364 -0.23971152 -0.0059089493 -0.0066560186
0000c0 02 fa 30 bc fd ab 2f be ba 0d dd ba 94 20 e3 bd
       -0.010801794 -0.17155452 -0.0016865053 -0.11090198
0000d0 81 8e a7 3a 4a ac c8 3a f7 75 f9 3b 3c e2 0d bc
       0.0012783558 0.0015310135 0.0076129395 -0.0086598955
0000e0 71 b2 b0 3b fe 9d cc bb b0 b6 11 3c f6 9b ac bc
       0.0053923656 -0.00624442 0.008893654 -0.021070462
0000f0 fb b2 7f 3e 23 3a ed 3b 52 a1 30 3e 5a 04 53 bb
       0.2497062 0.0072395965 0.17249039 -0.0032198639
000100 59 dd 4f 3b b2 fb 91 bb e2 8b bd 3a c1 2d b1 3d
       0.0031717627 -0.0044550532 0.0014461244 0.08651305
000110 9e 7a 0c bc 1e 5c 1f 3e 6e e9 8a ba 22 71 ff bd
       -0.008574156 0.15562484 -0.0010598132 -0.1247275
000120 34 21 2b ba 8c 89 a0 3e b8 f0 be 3b 31 22 c8 bb
       -0.000652808 0.3135494 0.0058270358 -0.0061075916
000130 21 52 3d bd e1 ef fa 3b 86 b6 06 bb 23 45 84 be
       -0.046220902 0.0076579903 -0.002055557 -0.25833997
000140 b0 a4 a1 bc 8d a6 9d 3b d1 1f 85 3e 2a 13 9e bb
       -0.01973185 0.004811114 0.26000836 -0.004824062
000150 65 36 77 be 16 3a ac 3b 1c 12 84 3b 68 de b0 39
       -0.24141844 0.005255948 0.004030479 0.00033735042
000160 d3 a5 f3 3a 3c f8 4c 3e d4 54 51 3c 60 fa a3 39
       0.0018588848 0.20016569 0.012776572 0.00031276327
000170 3b 14 0a bc 20 a1 48 3d 6f 87 17 39 4a 41 9e b9
       -0.008427675 0.048981786 0.00014450935 -0.00030184753
000180 f0 f9 23 be e9 85 53 3c 87 ec 3f be 78 1c 8a be
       -0.16013312 0.012910345 -0.18742572 -0.26974845
000190 10 6d b4 3b 8d 54 4d bc 7e 0f 05 3e 2a 7b 58 be
       0.0055061653 -0.0125323655 0.12994191 -0.21140733
0001a0 b8 be e8 3b 17 f0 78 be 11 9b 32 be 51 15 2f 3c
       0.0071028136 -0.24310337 -0.17441966 0.010686235
0001b0 22 df 00 3c a8 76 92 3b d0 d4 04 bc 08 8e b9 bb
       0.007865699 0.0044697113 -0.008107379 -0.0056626834
0001c0 5f 7f f1 bd 34 e7 09 be 34 7d 51 be b1 49 4f be
       -0.11791872 -0.13467103 -0.20457917 -0.20242955
0001d0 e5 53 40 3c a5 3d d8 3b 98 4f 73 3e c5 9f 07 3c
       0.011738752 0.0065991455 0.23760831 0.008277838
0001e0 cd 98 51 3b 3a 7b 28 3b 72 f0 36 be 3f 4f 96 3e
       0.0031981946 0.0025708214 -0.1786516 0.29357335
0001f0 43 18 69 bc ac 52 59 be 62 dd 71 3c 2f 86 d7 bd
       -0.014226976 -0.21222943 0.014762254 -0.1052364
000200 98 07 b4 3c 63 4d 8a bc da 19 42 be 1e c7 e7 3a
       0.021976277 -0.016882604 -0.18955174 0.0017683243
000210 80 e6 8f 3c 5d c7 cd 3a ad 2c 60 be 37 d6 61 3b
       0.017565966 0.0015699674 -0.21892042 0.0034459957
000220 b8 ba 37 3c 37 01 07 be 87 e2 3f bc 53 05 68 bb
       0.011213951 -0.13184057 -0.011711723 -0.0035403564
000230 1e df a2 3a 82 be d9 bb 3a e3 05 bb db ab f1 3b
       0.0012426113 -0.0066450248 -0.0020429627 0.007375223
000240 f1 d8 18 be 66 10 24 be 19 04 49 bc 48 94 64 3a
       -0.14926507 -0.1602188 -0.012269043 0.00087196054
000250 cf c9 1a 3c ff fc 67 3e 55 f0 26 3c 04 11 64 3e
       0.009447529 0.22655104 0.010189136 0.22272116
000260 aa b9 14 3b 25 df 7e 3b c7 e8 52 bb 15 4e a7 bb
       0.0022693672 0.0038890329 -0.0032182203 -0.0051057437
000270 3a 0c 41 3a da 03 67 3b a9 51 fc bc b1 bc fb 3a
       0.00073641876 0.0035250098 -0.030800657 0.0019206015
000280 7c c7 84 3e a8 32 33 3c 59 59 1c be ef 0f 10 3c
       0.25933444 0.01093737 -0.15268458 0.008792861
000290 e1 51 d7 3b db 69 83 bb 94 42 70 bc f0 dc 4c 3e
       0.00657104 -0.0040104217 -0.014664311 0.20006156
0002a0 9c b9 fa bb b4 77 58 3e f7 12 3c 3c af 37 1e be
       -0.007651521 0.21139413 0.011479131 -0.15450929
0002b0 c1 6c 58 3a 11 ec 52 be 52 19 c2 3b 58 0a ec bc
       0.00082559517 -0.20597865 0.0059234286 -0.028813526
0002c0 b9 65 33 3d 13 5b 45 3c 8a cb ad 3b d7 ae 7b be
       0.043798182 0.01204564 0.0053038048 -0.24578415
0002d0 4c d5 96 bb 81 9d 45 bc 27 f5 82 3e e9 02 6d 3b
       -0.0046030637 -0.012061478 0.2557766 0.0036165065
0002e0 7f 57 42 3e 92 80 c8 39 0e c7 e5 3b 12 1b 8d ba
       0.1897869 0.00038242765 0.0070122546 -0.0010765514
0002f0 06 ad f9 3b 75 5d f3 bd db 4b 26 bc 29 25 15 3b
       0.007619503 -0.1188306 -0.010149921 0.0022757745
000300 70 ea ba bc aa 6c 8f be 07 dc 9f 3b 5f b5 0a 3c
       -0.022816867 -0.28012592 0.004878524 0.008466094
000310 05 dd 8f 3d c2 de 1b 3c 2a 58 2b 3e 75 e7 37 be
       0.07024578 0.009513559 0.1673285 -0.17959388
000320 79 ef fa 3b c6 69 3b bb 82 27 4a 3e d7 dc 56 3e
       0.007657942 -0.0028596981 0.19741634 0.20982681
000330 62 e8 70 ba 20 cf 6e 3e 80 c1 47 be b0 2c 8f b9
       -0.0009189901 0.233212 -0.19507408 -0.0002730838
000340 64 4f 34 3c fe dd 31 39 0e ac 27 bb cc 36 e0 3b
       0.011005256 0.00016962734 -0.002558473 0.00684247
000350 d1 23 8f 3e dd 09 0a 3e 7b 2c 8e be 37 d2 ce bd
       0.27957013 0.13480325 -0.2776831 -0.10098689
000360 1e 30 b8 bb 64 0e f3 3b 7e 57 ea bd 55 f2 a0 3b
       -0.0056209704 0.007417487 -0.11442469 0.0049117007
000370 db 4c ea 3a 5a e1 05 bb 94 cd 5f 3e c5 62 8c be
       0.0017875688 -0.002042851 0.21855766 -0.27419105
000380 e0 0c 0f bc 96 78 bd bd ac 23 b9 3b f3 a2 51 3e
       -0.008731097 -0.092515156 0.0056500044 0.20472316
000390 59 60 6b 3b a3 ff 05 3d 5a 56 70 be 53 02 9d b9
       0.0035915582 0.032714497 -0.2347044 -0.00029947105
0003a0 0d a9 6e ba d3 66 ba 3a 5c c5 47 3e 19 1a 97 bb
       -0.000910417 0.0014221318 0.1950888 -0.0046112654
0003b0 c6 02 98 bb 18 b0 17 3e 08 96 c5 3b b8 7b 43 bb
       -0.0046390025 0.14813268 0.006029848 -0.002982838
0003c0 3e 98 02 3c 87 d2 b1 3b 28 f2 9f 3b 9b 87 74 b9
       0.007970868 0.005426708 0.004881162 -0.0002332017
0003d0 4b dd 4a be c9 7c 47 bc ef 10 f3 bb a3 f7 ae ba
       -0.19810979 -0.012175747 -0.00741779 -0.0013348948
0003e0 ba 22 f1 3b 8e 55 7b 3e 2c a0 e1 bb dd 97 75 be
       0.007358876 0.24544355 -0.006885549 -0.23983712
0003f0 c4 f4 da bb b3 d2 b6 3b a9 b3 20 3c 26 15 15 3b
       -0.0066820104 0.0055793165 0.009808459 0.00227482

bias f4 [13]
000000 54 36 8b bc 0a ee 94 bb d1 4d 17 ba 74 8a 2e bb
       -0.01699368 -0.004544978 -0.00057717884 -0.0026632817
000010 8b 5f 3a 3d ea d3 bc 3c 3b f6 7f 3e c7 3f df 3e
       0.045501273 0.023050267 0.24996273 0.43603346
000020 5e a8 6f 3f 6c 80 9f 3e 1c 98 66 3f c4 f5 02 c0
       0.9361628 0.31152666 0.9007585 -2.0462503
000030 19 c4 3b bf
       -0.73346096
