scripts/distance/500/nn_ssm_distance.pt (torch, 36879 bytes, 3 tensors)

weight f4 [500, 15]
0.014402938 -0.015024558 -0.013109943 0.0070550735 0.0040962533 -0.005581682 -0.012161593 0.016710974
0.014492555 -0.0021928807 -0.0039668186 0.0065623964 -0.0018450036 0.0037532686 0.001563416 0.66958666
-0.13461779 -0.07663989 0.71161187 -0.56081253 -0.26567173 0.7039984 0.11465129 0.09534936
0.68353295 -0.6709772 -0.16871756 -1.1572042 -0.12952842 0.20936076 -0.009189466 -0.012882367
-0.031902444 -0.0142026115 -0.007047258 0.007345328 0.007417881 0.020339709 0.0330166 0.014060366
0.0038602652 -0.014121123 -0.0017482945 -0.004285307 0.0014936068 -0.5272137 0.20023939 0.008710522
0.5615292 0.8727785 0.33644035 0.13570736 0.16848767 0.25269985 0.27870002 0.42853072
0.13433295 -1.0110793 0.39197865 0.029108312 -0.8079777 -1.2469031 0.07210114 0.08126218
0.13815719 0.056308277 -0.20158452 -0.38452893 -0.15235986 0.078459546 -0.098857954 -0.0007178261
-1.1597717 0.07449583 0.07837656 -0.12870972 0.58830667 -0.06851313 0.28938466 -0.57817394
2.2490468 0.11003687 -1.0518459 0.24523693 -0.48982665 -0.8387076 -1.426941 0.092037864
-0.98374075 -0.1493262 1.1479006 1.5758481 1.0040921 0.26167387 0.43950245 0.11120505
0.31986287 1.0677326 0.41821182 0.06311155 0.12365598 0.013617548 -1.6253885 3.2617106
0.19272883 0.014265594 0.016641088 0.0019824614 0.00096056174 0.01724206 0.0003343525 -0.016550906
-0.015377763 -0.0005758011 -0.00022899779 -0.01776863 0.0009943229 -0.0009221248 0.0077091386 -0.00010580292
-0.008217342 0.0080424035 -0.001523193 0.011566934 -0.014313475 0.009982869 0.011670971 -0.009922566
0.0043787975 -0.013146889 0.013506843 -0.0056323963 -0.0020275677 -0.0040988303 -0.00011948615 0.0010100245
0.012432228 -0.0052943192 0.0020132319 0.01985899 0.014120719 -0.00065616897 -0.0067600785 0.00997918
-0.0001656927 -0.023303749 -0.014928696 -0.0020697261 0.0027742616 0.00088441215 0.10260741 0.39909032
-1.3364924 0.1783724 -0.5917846 -0.45532647 0.29059172 -2.1357403 -0.2913446 0.0115351565
-0.39458823 0.10318259 -0.3459771 -1.8564036 0.062067028 -5.308061e-08 0.006908656 0.030900152
0.0004389394 0.008242458 0.00037949622 0.001165789 -0.01442641 -0.031127134 -0.0038596366 -0.0038458433
0.0015115923 0.0021522564 0.0027419778 -0.001946782 -0.010268959 0.002699932 -0.011063344 -0.0023113894
0.0025896924 0.011034005 0.012470392 0.002218401 0.014274687 0.0036037478 -0.0046352646 -0.012688198
-0.0017151271 -0.0026856803 0.0013734968 0.014755262 -0.0027399969 -0.012186853 -0.00897042 -0.011260953
0.011848565 -0.021761637 0.009184091 0.011730085 0.011103361 0.0069208047 -0.016316323 0.004231819
-0.0022970203 0.00111994 -1.3039217 0.15472959 0.14996591 0.113772914 -0.034190908 0.16608441
-1.0441494 0.21430734 0.09576977 -0.025321964 0.16541901 -0.1731518 -0.9999937 -0.24677294
0.49264044 -3.8583155 -0.9262311 -0.45943463 -0.6160158 -0.20166235 -0.120358296 2.419636
2.1825235 1.0154216 0.4916759 0.6070328 0.29553634 1.0608438 2.0925004 -0.0022654096
0.0014891434 -0.016542707 0.0015714021 0.0013871372 -0.013701554 -0.0052667786 -0.00017230767 0.014626284
-0.008846287 -0.0017669932 0.014974536 0.002567876 -0.00064099015 -0.0009791176 0.0033747305 0.0026817166
00000000: 4dfa 6b3c 9029 76bc 16cb 56bc 3f2e e73b
00000010: dd39 863b 8be6 b6bb 6b41 47bc 74e5 883c
00000020: 2e72 6d3c 6fb6 0fbb 16fc 81bb 5f09 d73b
00000030: 0cd4 f1ba 66f9 753b 89eb cc3a 086a 2b3f
00000040: 3fd9 09be 60f5 9cbd 322c 363f 6991 0fbf
00000050: 2006 88be 3d39 343f 4cce ea3d 8646 c33d
00000060: 04fc 2e3f 29c5 2bbf 4cc4 2cbe 441f 94bf
00000070: 19a3 04be ab62 563e 6a8f 16bc 9010 53bc
00000080: 23ac 02bd 12b2 68bc afec e6bb 14b1 f03b
00000090: b211 f33b 769f a63c 6a3c 073d 735d 663c
000000a0: 81fc 7c3b 485c 67bc 0727 e5ba c36b 8cbb
000000b0: 21c5 c33a 7af7 06bf 8e0b 4d3e 94b6 0e3c
000000c0: 61c0 0f3f 696e 5f3f e941 ac3e dff6 0a3e
000000d0: 0888 2c3e e061 813e c5b1 8e3e 6168 db3e
000000e0: 948e 093e 0c6b 81bf 6db1 c83e 8e74 ee3c
000000f0: a0d7 4ebf 859a 9fbf c3a9 933d c96c a63d
00000100: 1479 0d3e 82a3 663d 2c6c 4ebe fae0 c4be
00000110: 3904 1cbe 66af a03d 0a76 cabd 7e2c 3cba
00000120: 6673 94bf 4591 983d e483 a03d 7bcc 03be
00000130: 449b 163f 9d50 8cbd 3a2a 943e 3503 14bf
00000140: 62f0 0f40 035b e13d e3a2 86bf 641f 7b3e
00000150: 8fca fabe 8bb5 56bf 01a6 b6bf 597e bc3d
00000160: 6fd6 7bbf f8e8 18be 68ee 923f 64b5 c93f
00000170: 1786 803f 1efa 853e 7706 e13e 79bf e33d
00000180: 11c5 a33e 76ab 883f dc1f d63e a140 813d
00000190: 593f fd3d 231c 5f3c bb0c d0bf debf 5040
000001a0: b55a 453e 3dba 693c e452 883c 2fec 013b
000001b0: 35ce 7b3a 383f 8d3c 084c af39 c495 87bc
000001c0: 03f3 7bbc 5cf1 16ba 201f 70b9 858f 91bc
000001d0: f153 823a bfba 71ba f19c fc3b 83e2 ddb8
000001e0: 08a2 06bc 49c4 033c e0a5 c7ba 3d83 3d3c
000001f0: 1183 6abc 308f 233c 9a37 3f3c 4292 22bc
00000200: 047c 8f3b 0d66 57bc ce4b 5d3c f78f b8bb
00000210: f1e0 04bb 7b4f 86bb a394 fab8 cc62 843a
00000220: 8bb0 4b3c f87b adbb 6df0 033b 52af a23c
00000230: 975a 673c c102 2cba a683 ddbb b77f 233c
00000240: ccbd 2db9 81e7 bebc 7d97 74bc 3ea4 07bb
00000250: 63d0 353b e5d7 673a d523 d23d 9155 cc3e
00000260: 2f12 abbf 41a7 363e 327f 17bf 8d20 e9be
00000270: 70c8 943e f8af 08c0 1f2b 95be f4fd 3c3c
00000280: 7807 cabe 6551 d33d e923 b1be a29e edbf
00000290: ff39 7e3d bffa 63b3 0262 e23b 5122 fd3c
000002a0: 7321 e639 600b 073c 1ff7 c639 63cd 983a
000002b0: c05c 6cbc 55fe febc f5f1 7cbb 8b0a 7cbb
000002c0: 9f20 c63a df0c 0d3b c1b2 333b 2a2b ffba
000002d0: 233f 28bc 58f1 303b 0743 35bc ae7a 17bb
000002e0: d4b7 293b f9c7 343c 9d50 4c3c 9862 113b
000002f0: 60e0 693c db2c 6c3b 6be3 97bb 29e2 4fbc
00000300: 1ece e0ba 3d02 30bb e806 b43a 0ec0 713c
00000310: 8591 33bb 5eab 47bc abf8 12bc dc7f 38bc
00000320: 7c20 423c 7645 b2bc df78 163c 8b2f 403c
00000330: dfea 353c ebc7 e23b cfa9 85bc 12ab 8a3b
00000340: 9b89 16bb f3ca 923a e8e6 a6bf 6f71 1e3e
00000350: aa90 193e c601 e93d c40b 0cbd 0812 2a3e
00000360: b0a6 85bf 6273 5b3e f122 c43d 0270 cfbc
00000370: 9a63 293e b54e 31be 96ff 7fbf 0cb2 7cbe
00000380: 5e3b fc3e a4ee 76c0 7b1d 6dbf 043b ebbe
00000390: 36b3 1dbf 9380 4ebe 697e f6bd 51db 1a40
000003a0: 77ae 0b40 56f9 813f f2bc fb3e 8066 1b3f
000003b0: 8a50 973e bbc9 873f 87eb 0540 4477 14bb
000003c0: 5c2f c33a 9284 87bc 81f7 cd3a 9ad0 b53a
000003d0: 7c7c 60bc f194 acbb 7dad 34b9 15a3 6f3c
000003e0: 04f0 10bc 749a e7ba c257 753c cf49 283b
000003f0: 1f08 28ba bc55 80ba 952a 5d3b bdbf 2f3b

bias f4 [500]
-0.00018879483 -0.89894813 0.00013251803 -1.0073111 -1.3902532 -3.3775985 2.5275726 -1.0030635e-05
-0.0006468595 -0.0003074808 4.2872972 -0.00076976884 -7.038431e-05 0.0013060357 -1.4269111 1.0888784
0.0010269639 0.00079520006 -0.0002170827 7.720416e-05 9.303783e-05 -0.00034650508 -0.9424263 -3.8918872
-0.0018864879 -0.00016950948 0.00040775284 -0.00028371104 -0.4494352 -3.428118e-05 -4.7376947 0.0013482218
-0.00015170833 0.0007543234 -0.0003709732 -0.0008603207 0.0014352598 -0.0025478927 -0.00026352087 0.9529334
-0.00015153423 0.0003297252 -0.0009620764 -1.863509 5.278037e-05 -4.131118e-05 -0.0016382277 0.9622725
0.37201855 -0.9193373 2.9732208 0.80756646 1.0533344e-05 -6.9234055e-05 -0.00010933491 0.00043061003
-5.054477 -0.0016613989 1.0488988 -2.3438273e-05 -0.0009026161 0.00011760646 0.00042685217 -0.00018801096
-0.00068265694 -2.6630387 0.00023887855 0.00084376906 -0.0009247452 2.4274805 -0.9982755 0.00022198359
0.0008123822 -0.0011689435 0.0002977143 0.00029894116 0.00049599 0.00023050011 2.6392845e-05 -3.5139384
-0.88276684 -0.00066383765 0.0011828681 -0.00013715551 -0.00033419905 -1.4741966 0.00073464616 -0.539499
-0.0010528136 -0.00033162438 -0.79914296 9.334197e-05 2.4731221 -0.0011094934 3.0119414 -0.001586156
-0.00083579036 0.0004091731 -8.707585e-05 -2.7898412 3.2531562 -0.00031383237 -0.00012360718 -0.96244586
-0.00022350317 0.12967013 0.7746683 -0.00017119545 1.4578245 6.6911316e-06 4.0603686e-06 -1.893825
0.0006669563 0.0006728394 -0.00035876335 -0.0006772137 -0.000116108975 -0.99501723 1.2711502 -0.000119620796
0.0022175517 0.0007771183 2.0389428 -3.0999784 -2.393425 -0.7150144 1.0512731 0.0011341091
0.01016351 -1.2165319 -3.800693e-05 -0.00019015066 -0.8750213 -0.00064436713 -0.0002305464 -0.9214493
-3.2964153 -5.331041e-05 0.86963737 0.00085969386 -4.574166 0.98214096 -0.00022799021 3.2082503e-06
0.0004994385 0.6290888 1.0354929 -0.0007763411 -0.00086196925 0.00039944166 4.7402797 -5.113391e-05
-1.3093733 1.3966267 -0.96082485 -1.0640922e-05 -1.168912 -6.179878e-05 -0.00046301878 -0.00092281704
0.00034828717 0.00046580815 0.0010152858 0.00053904945 -0.85952926 -0.0003479987 -7.658872e-05 -0.8327133
0.36876267 -1.1272389 2.3230703e-05 0.00035180652 0.6800475 0.0003346151 1.3015614 -0.00042393032
0.0013436712 -0.5891043 3.217199 0.75636554 5.7965794 0.00071319495 0.00056959107 -0.0002456504
0.0017157556 2.2089189e-05 7.932209e-06 5.9105303e-05 -0.00029661763 5.0189223 -0.0008389276 -0.00040049898
0.00048327402 0.00014658451 0.0005664893 0.98164845 2.1701078 0.0003834508 2.5342655 0.0073291315
-0.32933554 -0.0007835341 -0.00022170942 -0.89983785 -2.8545117 -4.211272 -0.00042437718 3.2425997
0.48502284 -4.7679067 4.3351073 0.00026532426 -5.6466413 -1.0612375 -0.0006758314 -0.00048204447
-0.0016941001 -0.00035745132 0.39447924 0.00081883074 0.0008852508 -0.9318276 5.7263496e-05 0.00036995314
-0.00047896136 2.4847792e-05 0.00041079486 -2.465107 1.6772643 0.000987464 3.646603e-05 -0.00024779726
-0.0005520993 0.0011528891 0.0006650582 -0.00024131642 -0.00072465616 1.7556809 -0.07489562 0.0018061841
-2.258216 0.00021278088 0.00040538175 -1.1681272 4.235877 -4.961341e-05 0.00079343485 -5.6775247e-05
-3.5274625 0.88121307 1.0314417 -6.8536105 -0.00035105733 1.2705728 0.00021524307 -0.05890848
00000000: 3af7 45b9 7721 66bf 8af4 0a39 92ef 80bf
00000010: d1f3 b1bf 932a 58c0 c0c3 2140 4049 28b7
00000020: 0292 29ba 6035 a1b9 8a31 8940 50ca 49ba
00000030: 4a9b 93b8 492f ab3a 06a5 b6bf 5e60 8b3f
00000040: 319b 863a f974 503a b2a0 63b9 abe8 a138
00000050: 4e1d c338 20ab b5b9 da42 71bf ae14 79c0
00000060: 0844 f7ba 5bbe 31b9 a9c7 d539 0dbf 94b9
00000070: 5f1c e6be 23c9 0fb8 329b 97c0 d1b6 b03a
00000080: e513 1fb9 c9bd 453a 2e7f c2b9 2587 61ba
00000090: 541f bc3a 8cfa 26bb 2c29 8ab9 71f3 733f
000000a0: 29e5 1eb9 f8de ac39 db33 7cba 7787 eebf
000000b0: 7e60 5d38 8b45 2db8 cdb9 d6ba 7e57 763f
000000c0: 3779 be3e b059 6bbf 4049 3e40 adbc 4e3f
000000d0: 5eb8 3037 c031 91b8 bc4a e5b8 80c3 e139
000000e0: 47be a1c0 4cc3 d9ba 5142 863f 4f9d c4b7
000000f0: 8b9d 6cba 7da3 f638 21cb df39 cf24 45b9
00000100: 55f4 32ba 3a6f 2ac0 797b 7a39 6230 5d3a
00000110: 9a6a 72ba d75b 1b40 fc8e 7fbf 44c4 6839
00000120: 0cf6 543a 3c37 99ba 8916 9c39 34bb 9c39
00000130: 5305 023a 67b2 7139 3466 dd37 5ee4 60c0
00000140: 02fd 61bf 6405 2eba 780a 9b3a 67d1 0fb9
00000150: 7037 afb9 79b2 bcbf 4595 403a 9b1c 0abf
00000160: 90fe 89ba dfdd adb9 a294 4cbf 97c0 c338
00000170: a247 1e40 6c6c 91ba a6c3 4040 90e6 cfba
00000180: f118 5bba 4986 d639 7e9c b6b8 c28c 32c0
00000190: b633 5040 de89 a4b9 8d9c 01b9 da62 76bf
000001a0: 2d5c 6ab9 3fc8 043e a950 463f ee82 33b9
000001b0: fe99 ba3f 6284 e036 4d3e 8836 dc68 f2bf
000001c0: aed6 2e3a 7d61 303a 6718 bcb9 0b87 31ba
000001d0: 887f f3b8 73b9 7ebf 0db5 a23f eddc fab8
000001e0: 5854 113b 87b7 4b3a 0a7e 0240 0c66 46c0
000001f0: e02d 19c0 2f0b 37bf 1e90 863f 63a6 943a
00000200: da84 263c 51b7 9bbf a169 1fb8 2e63 47b9
00000210: 6501 60bf bfea 28ba d4be 71b9 1ae4 6bbf
00000220: 78f8 52c0 9e99 5fb8 8ea0 5e3f 145d 613a
00000230: 915f 92c0 976d 7b3f a810 6fb9 524d 5736
00000240: c0ec 023a f70b 213f 088b 843f 5f83 4bba
00000250: c7f5 61ba 276c d139 5fb0 9740 9e78 56b8
00000260: 8b99 a7bf aac4 b23f 9ef8 75bf 6986 32b7
00000270: e99e 95bf f899 81b8 54c1 f2b9 34e9 71ba
00000280: 509a b639 b637 f439 5713 853a ff4e 0d3a
00000290: 1c0a 5cbf 9873 b6b9 429e a0b8 b32c 55bf
000002a0: 76ce bc3e 5d49 90bf 8edf c237 ac72 b839
000002b0: 9817 2e3f 476f af39 9099 a63f f742 deb9
000002c0: 201e b03a 8acf 16bf 97e6 4d40 2ca1 413f
000002d0: 947d b940 b4f5 3a3a 9c50 153a a3ca 80b9
000002e0: 34e3 e03a 2c4c b937 9414 0537 d6e7 7738
000002f0: 5883 9bb9 039b a040 7aeb 5bba 10fa d1b9
00000300: f15f fd39 7bb4 1939 7480 143a 504d 7b3f
00000310: 0ce3 0a40 e509 c939 6831 2240 3629 f03b
00000320: ab9e a8be 1566 4dba ab7a 68b9 c65b 66bf
00000330: 52b0 36c0 bdc2 86c0 f17e deb9 c186 4f40
00000340: ea54 f83e b192 98c0 33b9 8a40 381b 8b39
00000350: 49b1 b4c0 a1d6 87bf 472a 31ba eaba fcb9
00000360: 910c deba 4e68 bbb9 2ff9 c93e cda6 563a
00000370: 2d10 683a 418c 6ebf 362e 7038 45f6 c139
00000380: 1b1d fbb9 3a70 d037 f45f d739 50c4 1dc0
00000390: 99b0 d63f cb6d 813a 1af3 1838 c9ea 81b9
000003a0: c2ba 10ba 8a1c 973a 4d57 2e3a e209 7db9
000003b0: daf6 3dba 27ba e03f e062 99bd 7bbd ec3a
000003c0: 9c86 10c0 ef1d 5f39 6b89 d439 3185 95bf
000003d0: 4e8c 8740 fe17 50b8 83fe 4f3a f521 6eb8
000003e0: f2c1 61c0 2e97 613f 4806 843f c750 dbc0
000003f0: 1e0e b8b9 21a2 a23f dfb2 6139 054a 71bd

weight f4 [1, 500]
-0.00067399594 0.43749285 0.0012697049 0.16557664 -0.32030904 -0.1253523 0.23668984 -0.00019272759
-0.0014374377 -0.00021079468 0.65071607 -0.0002817722 0.0002725964 0.000514435 -0.23434061 0.13098584
0.00075387483 -0.00044886157 2.6048414e-05 -0.0003460147 -3.9044382e-05 -0.0010336194 -0.09469 -0.56469345
-0.0001893318 0.0006113539 0.000495988 -0.0010250795 0.1311489 -0.0011024551 -0.27096534 0.0014782923
0.00048875116 0.001298587 -0.0007095183 -0.00087161653 0.0007698353 -0.0018860355 0.00055229117 -0.16583659
-0.0013164524 0.000586643 8.7769855e-05 -0.31798646 0.0011904038 0.0004201821 -0.00045723058 -0.24106728
-0.16049765 0.16468881 -1.0746919 -0.3454235 1.9042913e-05 8.871017e-05 -0.0009208599 0.00024389203
1.8889346 -0.0009468942 0.26303715 -0.00014663239 -0.0003260292 0.00052835635 0.0010240293 -0.00072115747
-0.0015725966 0.20239557 0.0006747761 -0.0008628858 -0.00024366534 -0.648788 -0.09193457 -0.00016912752
0.0007013364 -0.0008246511 0.00022047735 0.00031074864 0.0005450673 0.0006476597 -0.00012161612 -0.40053615
0.26231635 9.3348375e-05 0.0011163644 -0.00040754175 -0.00083928794 0.59188366 0.0005315713 0.15806074
7.748573e-05 -0.0016473753 -0.3323918 0.0005575426 0.48181185 -0.00233568 0.30627674 -4.852951e-05
-0.0010291507 -0.0011198835 2.6363361e-05 0.58064145 -0.501082 0.0015658811 -0.0014636258 0.18387015
-0.17268252 0.22303075 -0.15944357 -0.0012483606 0.14910582 0.0011277293 0.000209305 0.6171118
0.0006103233 0.0005409445 0.0014858386 -0.0019711354 0.00068845745 0.19615181 -0.27470094 -0.0017268782
-0.00085454085 0.00028387507 0.4104072 -0.1165311 -0.20138605 0.6492469 0.17867509 -7.903328e-05
0.17159414 -0.15176997 0.00059979607 0.00062144495 0.16622025 -0.00015118302 -0.0017233767 0.29641998
-0.60077834 0.0010205505 0.16967176 -0.00027215714 -0.5010149 0.2668958 0.00058216404 -0.0004555819
-0.0015105476 -0.41914615 -0.13253517 0.00054390245 0.00021688621 -0.0020188068 0.5140214 0.0004964283
-0.096909344 0.19874601 -0.23659247 0.0010778524 0.17460889 -0.00049687165 -3.0190758e-06 -0.00095860736
2.029939e-05 0.0003975759 -1.3473436e-05 -0.00056155765 -0.30312493 -0.0003036209 3.8740756e-05 0.33838913
-0.12907822 0.29544437 -0.00012551612 0.00055463426 -0.1524849 0.001270019 0.13632156 0.0006091613
3.0500274e-05 -0.1835767 -1.023475 -0.2938037 -1.7723229 0.0019699852 0.0014309478 0.0003523837
0.0014502071 0.0006214215 3.3534532e-05 0.00037329784 0.00019619598 0.65397215 0.00075870485 -0.0010484522
0.00041369995 0.00045209704 0.0014455719 -0.114468075 -0.4411924 -0.00091859733 0.17811042 -0.06773227
0.11163308 -0.0015703257 0.00041425723 0.74474984 -0.5557072 -0.5081232 -0.0011896101 0.17521003
-0.1731012 1.7827686 0.55517054 0.00079436693 -0.65729135 0.31266826 0.0011429505 -0.0015742534
-0.0011003067 -0.0004721853 0.16985603 0.00082854903 -1.1612598e-05 -0.19481178 -0.0009060178 0.0009819788
-0.0010847384 -0.00096237933 0.00060783856 0.70387584 0.22539166 0.0014018435 0.0017162503 6.0283568e-05
-0.00031544507 0.001368299 0.0024138785 -0.0008758928 -0.00084000675 0.26905137 0.15197992 0.0009765686
-0.16057377 0.0015072107 -0.00089134066 -0.07795872 0.38210657 -0.0004076847 0.0009580728 -0.00028387565
-0.4258629 0.24051517 -0.17413542 1.7498493 0.001066117 0.07448855 -0.000441542 -0.17959134
00000000: 1aaf 30ba 10ff df3e 3a6c a63a ec8c 293e
00000010: 8cff a3be 5a5c 00be d25e 723e eb16 4ab9
00000020: 6868 bcba c408 5db9 5495 263f d3ba 93b9
00000030: 45eb 8e39 26db 063a fcf6 6fbe 2721 063e
00000040: af9f 453a 2e55 ebb9 8b82 da37 4f69 b5b9
00000050: 96c3 23b8 837a 87ba d5ec c1bd c08f 10bf
00000060: 5e87 46b9 4443 203a 3105 023a f65b 86ba
00000070: e64b 063e 4180 90ba f8bb 8abe 42c3 c13a
00000080: 891f 003a 5935 aa3a f8fe 39ba 327d 64ba
00000090: c6ce 493a da34 f7ba a2c7 103a 11d1 29be
000000a0: d08c acba f2c8 193a 1511 b838 1fcf a2be
000000b0: 5307 9c3a e34b dc39 73b8 efb9 57da 76be
000000c0: 7f59 24be 2fa4 283e 818f 89bf 59db b0be
000000d0: 58be 9f37 e909 ba38 dd65 71ba 45bd 7f39
000000e0: 9cc8 f13f fe38 78ba ceac 863e 55c1 19b9
000000f0: e6ee aab9 6581 0a3a b938 863a 0f0c 3dba
00000100: 961f ceba c940 4f3e 75e3 303a 4933 62ba
00000110: 6b80 7fb9 f816 26bf 3148 bcbd d357 31b9
00000120: e4d9 373a 662d 58ba f02f 6739 faeb a239
00000130: d9e2 0e3a b5c7 293a 280c ffb8 1313 cdbe
00000140: 544e 863e 07c4 c338 f952 923a 54ab d5b9
00000150: a903 5cba b085 173f 2559 0b3a adda 213e
00000160: d67f a238 beec d7ba 422f aabe 0d28 123a
00000170: 0bb0 f63e 3512 19bb 4ed0 9c3e 2a8c 4bb8
00000180: 91e4 86ba 0ec9 92ba e326 dd37 eba4 143f
00000190: e946 00bf 403e cd3a 22d7 bfba 7548 3c3e
000001a0: b0d3 30be 2c62 643e 2d45 23be 08a0 a3ba
000001b0: 32af 183e 51d0 933a e278 5b39 0afb 1d3f
000001c0: 1afe 1f3a 2cce 0d3a 78c0 c23a 2a2e 01bb
000001d0: 9979 343a 05dc 483e 9aa5 8cbe 6b58 e2ba
000001e0: 4403 60ba 11d5 9439 e420 d23e dba7 eebd
000001f0: 2538 4ebe 0b35 263f 9af6 363e abbe a5b8
00000200: 60b6 2f3e 9669 1bbe a23b 1d3a 77e8 223a
00000210: a435 2a3e e286 1eb9 ede2 e1ba 5cc4 973e
00000220: 9ccc 19bf fec3 853a 6fbe 2d3e 50b0 8eb9
00000230: 8342 00bf 91a6 883e 5e9c 183a 2bdb eeb9
00000240: 91fd c5ba 539a d6be 4db7 07be ad94 0e3a
00000250: f36b 6339 f54d 04bb e896 033f bd22 023a
00000260: 6878 c6bd 1384 4b3e 4c45 72be ba46 8d3a
00000270: accc 323e 7e40 02ba 549b 4ab6 0d4b 7bba
00000280: 9c48 aa37 bc71 d039 f80b 62b7 7f35 13ba
00000290: 3133 9bbe 4f2f 9fb9 927d 2238 5741 ad3e
000002a0: 152d 04be 7c44 973e fa9c 03b9 e064 113a
000002b0: 0025 1cbe c476 a63a e197 0b3e 1fb0 1f3a
000002c0: d7da ff37 88fb 3bbe 3b01 83bf 706d 96be
000002d0: 7adb e2bf de1a 013b a48e bb3a 24c0 b839
000002e0: e014 be3a e4e6 223a 6ea7 0c38 30b7 c339
000002f0: f5b9 4d39 b86a 273f d2e3 463a 386c 89ba
00000300: dee5 d839 7007 ed39 5879 bd3a 3d6e eabd
00000310: f8e3 e1be 06ce 70ba 9462 363e 37b7 8abd
00000320: e29f e43d 63d3 cdba aa30 d939 eda7 3e3f
00000330: d442 0ebf 5d14 02bf b1ec 9bba 426a 333e
00000340: 7141 31be c331 e43f a81f 0e3f 103d 503a
00000350: 3f44 28bf 0e16 a03e 0ecf 953a 2e57 ceba
00000360: 2b38 90ba a38f f7b9 bdee 2d3e fc32 593a
00000370: bbd3 42b7 bd7c 47be d381 6dba beb5 803a
00000380: c82d 8eba 2f48 7cba 5b57 1f3a 3531 343f
00000390: 12cd 663e 10be b73a cef3 e03a fdd8 7c38
000003a0: 5262 a5b9 7f58 b33a 2932 1e3b 2c9c 65ba
000003b0: e633 5cba 1ac1 893e a0a0 1b3e 3400 803a
000003c0: 736d 24be 998d c53a dca8 69ba d2a8 9fbd
000003d0: 79a3 c33e 84be d5b9 2d27 7b3a 25d5 94b9
000003e0: b40a dabe 9c49 763e 8e50 32be 10fb df3f
000003f0: f3bc 8b3a 748d 983d c47e e7b9 cbe6 37be
