scripts/distance/single/1000-1000/250k_nn_ssm_distance_single.pt (torch, 173431 bytes, 5 tensors)

weight f4 [200, 9]
00000000: 052f 553f 1487 7bbf b7fe 36bf 92c1 083e
00000010: e830 e8be 71cd 4fbe 31df 353f 7eb4 99bf
00000020: 0a8c bf3d 0068 1e3e 11a1 7ebe b38f 813d
00000030: c069 243e 0bce 20bc 8b08 093e a0b4 47bd
00000040: 5cd1 39be be2c 75be d8d4 22bd d9b0 c8bf
00000050: 916c bfbf 0dca 89bd 34ca 72be 48c8 2d3c
00000060: 12c9 603e 380b 6cbf 8773 3b3e c776 ad3f
00000070: 0b0d 093f f7a0 bd3e c48b f83e cf13 973e
00000080: 69b4 0f3e aad2 53bd 68b3 2d3f ac6b 10bf
00000090: 8860 3abb 216e 14bb 279e 7b3b 226a 84bb
000000a0: 0077 fa39 58c5 093c d6b9 92bb a649 31bb
000000b0: e32d 403b 04e2 133e 3cdb a33e 7270 6c3f
000000c0: c62e 883d efa2 fe3e 793f 1a3e f9c4 373e
000000d0: b476 10c0 c57b 983e cd24 89bf a8af afbe
000000e0: 098c 19bf 0eb5 c4be 6f9a 6fbf d33b 2fbf
000000f0: 15fa 163f 498c 593f 4e2e debd 21cd a73f
00000100: b618 23bf ca25 0fbf 9a16 713f 101d 83bd
00000110: f0f4 343e 2273 3c3f 0069 69be 6b4f 533f
00000120: 3919 0b3f 7db4 01bf eccb 06bf 3910 45be
00000130: 571f 00be fae3 aabc dff4 c5bf 8497 913e
00000140: 86d1 9b3f bfe9 cbba 6f04 173f 305e 13bf
00000150: b75b e4be e691 b43d 3a0b ec3c 1a14 813e
00000160: c246 16be 6a12 7c3c b2ea 9fbf 0656 583f
00000170: 59c0 263f 3b0c 98bd f68e 143e 97d1 51bc
00000180: 8147 5b3d 4f96 4f3f 645f 7fbf da04 673f
00000190: 0916 29bf bd67 58bf 12a2 0b3e b623 66bf
000001a0: 6910 45bf 5010 ab3e 4fb3 f23e b3d6 1d3f
000001b0: a4e2 8a3f 6bc5 35bf f134 11bf a801 3f3f
000001c0: ace9 afbf 7a57 e9be 7968 8cbf b8d6 9dbe
000001d0: 8b94 173e 0cda e53d 5852 ae3e b815 493f
000001e0: a15c 0f3e 7e54 c13f 45dd bd3f ed38 1f3f
000001f0: 0474 d5bf baf2 093f 23b4 5ebf c352 ebbc
00000200: c28d abbc 989f 983f 5399 c2bd 382a e53b
00000210: 2307 323f 0915 00be bf64 563e 3e94 343f
00000220: 3fb7 eb3e 78c0 65bd 517e f33c 3e5a 23bb
00000230: c28e 283c 220c d13f 64d8 cd3f d02a b1be
00000240: a1f5 b5bd c82a d63e 2e57 233c 580a 9abe
00000250: 4228 38be 4445 3c3e 4c94 9f3e d645 abbd
00000260: 4148 19be 11c0 71bb 683a 0cbc 0cc8 be3e
00000270: c4b7 693d 78e9 493e d466 963d 4784 0ebd
00000280: dade 0bc0 5d07 283d e7bd ba3e ac03 9c3f
00000290: 274f 653f ba32 9fbf 8db3 a73f 7317 be3e
000002a0: e129 d9be 9c7f a33f e436 a4bc 9822 dbbe
000002b0: 3770 e93f 463b c83f 20b2 a2be 7848 513f
000002c0: dc73 4f3e ebb0 4a3e bc27 de3f eb89 1f3e
000002d0: f923 6cbf 527e 413f c280 2b3f 5e99 2dbf
000002e0: c79f 953e cc13 043d 9841 b3bf df9b b73e
000002f0: 11ca 25bd f44c ea3a f228 663b bab5 60bb
00000300: 474e 1cbb 6257 c4bb 6b2a b73a 5916 4339
00000310: 2599 f83a 9b41 863a cb25 003f 6087 75bf
00000320: 1fb5 46bf 8a5a b4be b053 1abe 2fd4 6c3c
00000330: f189 943f b7a8 24be 6662 a13e c877 cdbd
00000340: 1558 06c0 f6fd dcbf d1d3 bb3d b5d3 d2bf
00000350: fe72 84be 52a9 453d f78d a8bf 9b0c 2abe
00000360: 5f4a 563b afda 7abb 9ad3 a639 12aa 4fbb
00000370: d620 4a3b f35c 0b3a 60ba 06bb 4d16 153b
00000380: 721b 603b ec81 9ebb 2ec2 0a3b 6852 56ba
00000390: a3e5 fc3a f2f3 03bb a236 303b 1f5e 24bb
000003a0: 24d0 3f39 c0a0 fc37 21c0 c53c 71fb f03d
000003b0: 78ac 843e 0770 94bf cd3b b1bf 628f 5bbf
000003c0: 8217 f13c 95f4 d7be cc0a d3bc 4b4d b13e
000003d0: 6fcf 223e c29c fc3e 3239 4abf b1c2 93bc
000003e0: 116a 0abe 9c95 42bf acf6 8fbf 7952 45be
000003f0: 95fc 823e 0fb5 9a3f a015 743f d147 6bbf
0.8327487 -0.9825299 -0.71482414 0.13355091 -0.45349813 -0.20293213 0.7104369 -1.2008207
0.09352882 0.1546936 -0.2486613 0.063262366 0.16055965 -0.0098147495 0.13382165 -0.04875624
-0.1814627 -0.23942849 -0.039753765 -1.567897 -1.4955007 -0.06727991 -0.23709947 0.010606833
0.21951702 -0.9220462 0.18305789 1.3551873 0.53535527 0.3703687 0.48544133 0.295073
0.14033665 -0.051714577 0.6785188 -0.56414294 -0.0028438885 -0.002264865 0.0038393827 -0.0040409723
0.00047772378 0.008408867 -0.00447772 -0.0027051955 0.0029324226 0.14441687 0.320032 0.9235908
0.06649546 0.49733683 0.15063275 0.17946233 -2.257245 0.2978193 -1.0714356 -0.34313703
-0.599793 -0.38419384 -0.9359502 -0.6845066 0.58975345 0.84979683 -0.10848676 1.3109475
-0.6370958 -0.55917037 0.9417511 -0.064020276 0.17671561 0.7361318 -0.2279396 0.8254306
0.5433536 -0.5066603 -0.5265491 -0.1924447 -0.12511955 -0.02086066 -1.5465354 0.2843591
1.2173316 -0.0015557333 0.5899114 -0.57565594 -0.44601223 0.088168904 0.028813947 0.2521065
-0.1467543 0.01538525 -1.2493498 0.8450626 0.6513725 -0.07424208 0.1450766 -0.012806318
0.05353499 0.8108873 -0.9975493 0.9024178 -0.6604925 -0.8453329 0.13636044 -0.8989824
-0.76978165 0.33410883 0.47402427 0.6165573 1.0850415 -0.7100436 -0.5672141 0.746119
-1.3743186 -0.45574552 -1.0969383 -0.3082788 0.14802758 0.1122323 0.34047198 0.78548765
0.14000179 1.510391 1.4833151 0.62196237 -1.667603 0.53885996 -0.86993617 -0.028725987
-0.020941619 1.1923704 -0.095019005 0.0069935583 0.6954214 -0.12508024 0.20936869 0.705387
0.46038243 -0.056091756 0.029723318 -0.0024925615 0.010287942 1.6331828 1.6081662 -0.34602976
-0.088847406 0.41829515 0.009969516 -0.30086017 -0.17984107 0.18385798 0.3116783 -0.083629295
-0.14968969 -0.0036888162 -0.008558847 0.37262 0.05706002 0.19717968 0.07343832 -0.03479412
-2.1854768 0.041022647 0.3647301 1.218862 0.895739 -1.2437356 1.310167 0.37127265
-0.42414764 1.2773318 -0.020045705 -0.4279983 1.823737 1.5643089 -0.31776524 0.81751204
0.2025904 0.19794051 1.7355876 0.15579955 -0.9224239 0.75583375 0.66993344 -0.67812145
0.29223463 0.032245442 -1.4004393 0.35861108 -0.04047591 0.0017875717 0.003511962 -0.0034288005
-0.0023850368 -0.005991862 0.0013974434 0.00018604974 0.0018966539 0.0010242941 0.5005767 -0.9590969
-0.7762012 -0.35225326 -0.15070987 0.014454885 1.1604596 -0.16079985 0.31520385 -0.10032612
-2.099126 -1.7265003 0.0917126 -1.6470858 -0.25868982 0.04825718 -1.3168324 -0.16606371
0.0032698137 -0.0038277318 0.00031819643 -0.0031687063 0.0030842326 0.000531628 -0.0020557866 0.0022748888
0.0034196046 -0.0048372652 0.002117287 -0.00081757316 0.0019294511 -0.0020134416 0.0026888032 -0.0025080515
0.00018292718 3.0115596e-05 0.024139466 0.11766709 0.25912833 -1.1596688 -1.3846375 -0.8576566
0.029430155 -0.4217879 -0.025761984 0.34629282 0.15899442 0.49338347 -0.78993523 -0.018037172
-0.13517024 -0.76009536 -1.1247153 -0.19269742 0.2558333 1.2086505 0.953455 -0.9190646

bias f4 [200]
00000000: 868d 1abd 773d 483e e63f b33e 9755 9cbd
00000010: 7f6e e7ba 8cb2 173f 41f1 af3e 0c88 64bf
00000020: 59e3 54be be09 8b3c 12be 0d3f e086 9abf
00000030: 61de 503f c1df 04c0 c271 463f d3c6 5f3f
00000040: afd4 383e f91d a9bf b3df 043d 0274 d23f
00000050: 1e3e 013e ff27 313b bd05 da3e 9262 4bbf
00000060: 1926 b53a 85ac adbb 40e5 dabb 4be2 b0be
00000070: 8c8e 81bd 0462 f8be 3e51 923a bc61 0540
00000080: b7a3 b7be 9130 16bf d6f4 8dbe bbab 913d
00000090: 9f76 3c3f cf8f 42bd 34d2 79bf 5f04 633f
000000a0: d823 bebe a9ae 803d 38ff 233f 3dd3 3bbd
000000b0: afbf 6dbd c746 003f b441 b23a 8d84 b6bf
000000c0: 725f 4ebe 62f7 173d 2fff 2fbf a35b 8f3f
000000d0: 7617 d0be fbde 07bb 6d1e 6abe 612b a1bd
000000e0: bf0d 92bf 5ee6 50bf ea47 86bf 55cc 91be
000000f0: 72f2 8ebd 067f fd3a 009d 36bd 5cc4 5d3f
00000100: c5e9 793f 4c96 fa3e 3d49 24bf e028 b53e
00000110: e364 a63d d26c 483f d404 cdbd 5a5c 9d3a
00000120: 719a 6f3f 99eb dc3a a014 593e f363 9d3b
00000130: 0e63 abba 0e9c 53bf 16a2 ad3d 8cf0 5039
00000140: a18e 423f 23ec 18be ee22 403f ef39 2cbf
00000150: 8e7d d63d e829 7c3f be97 babf 71e7 213b
00000160: 3fe9 1ebe 07db 843f 8501 ddba e8aa 4a3f
00000170: 7c52 f1be b442 db3e bc3e 64ba 549e fcbd
00000180: 6dba 0abe 355f 03c0 da66 cabd dd2b 303f
00000190: 3a82 9e3e 9114 543f 1700 6bbf 2052 af3f
000001a0: 0f07 e53d 4d58 0bbe 1ce0 343a 162e b93e
000001b0: c4e6 faba 9866 2a3f e2a9 e8bd 525c 203f
000001c0: 4b0d b03e 6637 50bf 98f2 0dbf b0ed 9d3a
000001d0: a192 473f c217 1c3f c06e 97bf 4fc4 ce3d
000001e0: e4d7 203f 47d4 e2bc 2246 593e 29d6 2fbf
000001f0: 5316 27bf 044e 2e3e 0d37 10be 3402 7bbf
00000200: 9e5a 2e3f 6a90 23ba 9a31 f6be 6e96 8c3a
00000210: 58a3 8e3e 593f d7ba d918 983e 3c23 c8bf
00000220: 5901 2ebd ff41 69bc f624 87be 42c3 b03d
00000230: 7936 4bbd e58b a3bd 5c4e 8b3e ce27 ce3e
00000240: 57c5 84bf d297 5c3f d454 67bf 5bd6 53bf
00000250: 5371 a63f c822 823f bbc0 7eba 5317 7d3f
00000260: 4206 8abf e71a 9a3e 4628 b7ba a5cf f3be
00000270: 65ec b23e 5144 84bf db37 0a3e a436 63be
00000280: 6a45 e237 51fb 7c3e 4f01 333e e3b9 00bf
00000290: dc3e 4dbe 5035 2f3f 15e9 70bf c03e a2bf
000002a0: edea c6be efa2 34bf 62fa 66bc e2c9 3cbf
000002b0: 9f47 99bf 11af a83a d7ff 07be d75f 943e
000002c0: 0245 43be 14b0 1fbf d179 fcbc 34fa d2be
000002d0: 5046 3dbd 3649 073e f61e 8dbd 029a 803d
000002e0: c107 f63d 006e 433f c22d f83d ecfc 693e
000002f0: 0838 35bf be3d 2a3a d3e3 6cbe a596 8d3e
00000300: ed7d 29bf 8e38 6e3e db56 743f 2729 88bf
00000310: 45d4 023f c67a 15bf 0a3b 92bf 8172 05c0
-0.037732624 0.19554697 0.35009688 -0.076335125 -0.0017656832 0.59256816 0.3436375 -0.8927009
-0.20789851 0.016972419 0.5536815 -1.207241 0.81589323 -2.0761569 0.7751733 0.87412757
0.18049882 -1.3212272 0.0324399 1.6441653 0.12621352 0.0027031896 0.42582503 -0.7944728
0.0013820558 -0.005300107 -0.0066801608 -0.34547648 -0.06326017 -0.4851228 0.0011163128 2.0840902
-0.35867092 -0.58667856 -0.27725857 0.07112833 0.736185 -0.047500428 -0.9758637 0.88678545
-0.37136722 0.06283314 0.6406131 -0.04585575 -0.05804413 0.50108 0.0013599903 -1.4259201
-0.20153597 0.037101157 -0.68748754 1.119984 -0.406429 -0.0020732272 -0.22863169 -0.07869602
-1.1410445 -0.8160151 -1.0490696 -0.28476205 -0.069798365 0.0019340224 -0.04458332 0.86627746
0.9762233 0.48942792 -0.6417425 0.35382748 0.08124711 0.78291047 -0.100106865 0.0012005672
0.93595034 0.0016854882 0.21199274 0.0048031746 -0.0013075785 -0.82659996 0.08478181 0.00019926036
0.75998884 -0.14933829 0.750533 -0.672759 0.104731664 0.98501444 -1.4577558 0.00247046
-0.15518664 1.0379342 -0.0016861415 0.7916703 -0.47133243 0.42824328 -0.0008706858 -0.12334886
-0.13547678 -2.052686 -0.09882899 0.6881693 0.3095873 0.8284388 -0.9179701 1.3696938
0.11182987 -0.13607903 0.000689985 0.36167973 -0.001914226 0.66562796 -0.113605276 0.6264087
0.34385142 -0.8133453 -0.55448294 0.0012048986 0.7795811 0.6097375 -1.1830673 0.10096037
0.6282942 -0.027689112 0.2121816 -0.6868616 -0.6526844 0.17021948 -0.140835 -0.98050237
0.6810702 -0.0006239476 -0.48084718 0.0010725984 0.27858996 -0.0016422077 0.29706457 -1.5635753
-0.042481754 -0.014236926 -0.26395386 0.086309925 -0.049612496 -0.07985667 0.2720822 0.40264744
-1.0372723 0.8616916 -0.9036381 -0.82748955 1.3003334 1.0166864 -0.000971805 0.98863715
-1.078316 0.3009865 -0.0013973794 -0.47619358 0.3494598 -1.0333349 0.1349787 -0.22188812
2.6973623e-05 0.24705245 0.17480968 -0.5028364 -0.2004351 0.68440723 -0.94105655 -1.26754
-0.3885111 -0.70561117 -0.014097782 -0.7374555 -1.1974982 0.0012869557 -0.13281189 0.2897937
-0.19069293 -0.6237805 -0.030819805 -0.41206515 -0.046209633 0.13211522 -0.06890671 0.06279375
0.12013198 0.7633972 0.121181026 0.22850388 -0.7078862 0.00064941857 -0.23133783 0.27653995
-0.6620777 0.23263761 0.9544503 -1.0637559 0.5110515 -0.5839046 -1.1424267 -2.0851138

weight f4 [200, 200]
00000000: 9b22 0abe d0c2 923e 390d 8dbf 8103 91be
00000010: 9f93 2abb 3bca c4bc e907 4bbe 1c73 57bd
00000020: 4c8c 2a3e e9bb 28be c626 2abf 597b 833e
00000030: 54a0 3f3d 35fd 7ebc 9372 08be 1ba7 92bd
00000040: af10 b0be c913 3c3f 720a c83d 50db 77bc
00000050: eadb b9bc d4a6 af3b 7dee c03e 24aa 883e
00000060: 68b0 bd3b 3235 dd3b d514 453d 76a2 813e
00000070: c8a6 ddbd 0015 5abf 4813 983b 9ab9 9bbb
00000080: 001a f03b 176f cb3d ef13 d2bd 8f88 cdbe
00000090: 1405 4bbf 4451 afbe 528d aa3d d756 28be
000000a0: 07f6 1bbe c31d 033e 1352 e23d 053c 8e3c
000000b0: ebe2 38be c587 efbe f647 7f3b a2ca fdbc
000000c0: 9394 59bf c14f 403f 5512 5b3f 674e d53e
000000d0: 9829 3dbf 3b10 a2ba a85c aa3d b4f3 3c3e
000000e0: 14a8 f0bd fa39 cbbe 1d17 0d3f e3ea 3e3f
000000f0: aac7 b0be a7e4 38bc 880d 85bc 4205 53bf
00000100: 5efd b83e 0df9 c13e 8efa 813e b7db 32be
00000110: 3c41 55bf 2ae4 37be 171d a4be 05c1 0e3c
00000120: 1290 e8be 3f5e c9bb 61db b73d 1396 723b
00000130: 164e d6bb 5ffb 9d3c 1c92 c9bd 1b21 01bb
00000140: 5109 6cbe 0a16 d03d 9fdf 713d 9ebe 3ebe
00000150: 22cf b33e 4e0c 983e ba26 2a3b 2749 69bb
00000160: 8acc 65be ae9e 9e3e 72cb 5fbb 51af 19be
00000170: 3922 62be 1703 ffbc ccf8 53bc 74bd 8b3d
00000180: 2a33 5dbd a545 11bf 4fbe 0d3f c741 1b3f
00000190: 966f db3c 032b 983d 9e9c 723c 70e4 103e
000001a0: 4992 c1bb 5692 4fbf 7e1a 9a3b 4e27 f13e
000001b0: 1d41 a43b cdf8 6c3c 5f6b 9c3e e446 bcbc
000001c0: 8997 b23e 279b 733e 8244 09be ea86 9dba
000001d0: 8756 993c 4a72 983d e36a 3bbe 4258 163e
000001e0: 8562 da3c 31d4 133e 1314 05be efeb dabe
000001f0: 340b 083e a87e 35be 47b4 2a3f 1679 6dbe
00000200: dea6 973d 87e5 bc3b eb81 fb3e 615f 513b
00000210: abe8 2bbf b079 15bb d093 12bf 8bc9 b93e
00000220: 59c2 1cbe d5e5 16bd f275 3f3f 1963 413e
00000230: 46a8 a93e 6653 0cbe 1bc9 2d3c a304 c5be
00000240: 8951 da3d 8349 e2bd 57f5 11bd e93f 893e
00000250: 589d 403d d1fb e93d 351b ddba d2e3 a43e
00000260: c5a4 6bba 3bc6 6dbe ed0c 853b f8c7 983e
00000270: 394a 8ebd 63a2 e93d 57bc 9f3e 3f2d e1be
00000280: ccda 343b 8dd0 853c 2c26 1cbe 9cc1 8bbe
00000290: ca6b 05bf eeb7 153d 37ee a0be 97b2 90be
000002a0: 1c17 88be 7aac 4e3e 9fe2 18be 230a 0bbf
000002b0: 6bee a0bd 8e73 5b3b ddb9 a43d ee21 763e
000002c0: fbfe 5c3e fdd9 bf3e fd34 143c 2027 223f
000002d0: d447 1f3e 7e62 3e3f 6aea 7d3d 2d9b d7be
000002e0: 7c49 453d 4762 853e 05ef c63e 5d19 cc3e
000002f0: ebc2 083e cd1b d13b f636 403e d29f 09bf
00000300: 9cc7 9b3e 7f8d 003e ca58 afbe 2ba0 96bd
00000310: eb78 6fbe cc6f bcbc e834 123f 32c9 2fbd
00000320: 9b56 1dbd d242 5bbb dcf4 04bd 4c99 4bbc
00000330: 4458 37bc d9cd 163a 8420 b13c db60 113d
00000340: b802 4bbd d89e 933c 4dc9 47bc dbb5 933c
00000350: bb22 c43b 8d0a 3a3d 97a6 f03c f976 913c
00000360: 5edd debc b72f 68bd 941f dfbb 612f d5bb
00000370: 5e57 a13d 14c0 ab3b ed54 9c3d 7155 b3bb
00000380: 3a1a c23c 6391 373c 7a1e 243d ebf8 f1bc
00000390: 81b2 9c3c 42ea a7bc 69ab 893b 0092 c7bc
000003a0: 4be7 11bd 8ac4 2c3d bbc7 cf3b 1365 9bbd
000003b0: ed40 edbc cb83 f03c b4ea 013c eb4f 703c
000003c0: f26a 25bd 6637 533d 24e5 46bd c5b9 28bb
000003d0: f6d3 d1bd 7698 07bc 8a59 0abc ef8c 193d
000003e0: f6b3 57bc fdce 21bd 1328 243d f1de 42bc
000003f0: 85b7 123c 943f 69bc bcb2 76bd 001d 2fbb
-0.13489763 0.28664255 -1.101966 -0.28322986 -0.002602793 -0.024022212 -0.19827236 -0.05260001
0.16655082 -0.16477932 -0.66465414 0.25680044 0.04678376 -0.015563299 -0.13324957 -0.07160779
-0.3438773 0.7346769 0.09767617 -0.015127972 -0.022687871 0.0053604636 0.37681952 0.26692307
0.0057888515 0.006750726 0.04811557 0.2531926 -0.108228266 -0.85188293 0.0046409704 -0.00475235
0.007327318 0.09933298 -0.10257708 -0.40143248 -0.79304624 -0.34241688 0.08327736 -0.16439377
-0.1523057 0.12804322 0.11050811 0.017362604 -0.18055312 -0.4678327 0.0038952804 -0.030980412
-0.8499233 0.75121695 0.8557485 0.4166138 -0.7389159 -0.0012364456 0.08318454 0.1845234
-0.11750808 -0.3969267 0.55113393 0.7457716 -0.34527332 -0.011284984 -0.016241804 -0.824299
0.36130804 0.37885323 0.2538647 -0.17466627 -0.83302665 -0.17958131 -0.32053444 0.008713012
-0.45422417 -0.006145268 0.0897739 0.003701572 -0.0065400703 0.019284902 -0.09842321 -0.001970357
-0.23050429 0.101604536 0.059051152 -0.18627402 0.35118967 0.29696888 0.0025963024 -0.003559658
-0.22441307 0.30980438 -0.0034148362 -0.15008284 -0.22083367 -0.031129403 -0.012937736 0.06823245
-0.054003872 -0.56746894 0.5536851 0.60647243 0.026786607 0.07430079 0.014807848 0.14149642
-0.005907331 -0.81082666 0.004702865 0.471003 0.005012645 0.014463616 0.30550668 -0.022983022
0.34881237 0.23789655 -0.1340504 -0.0012018357 0.018718017 0.07443674 -0.18302493 0.14682105
0.026658306 0.14436413 -0.12995939 -0.42758128 0.13285524 -0.17724097 0.6668133 -0.23190722
0.07404874 0.0057646665 0.49122557 0.003194772 -0.671519 -0.0022808127 -0.57256794 0.36286578
-0.15308513 -0.03684028 0.74789345 0.18885459 0.33136195 -0.13703689 0.010607029 -0.384801
0.10660083 -0.110491775 -0.035634365 0.26806572 0.047025055 0.11424983 -0.001686907 0.32205063
-0.0008989091 -0.2322015 0.0040603788 0.29840064 -0.069477506 0.11407926 0.3119838 -0.43979833
0.0027596233 0.016334796 -0.15248936 -0.2729615 -0.521176 0.036552362 -0.31431744 -0.28261253
-0.2658013 0.20182982 -0.14930199 -0.5431234 -0.078579746 0.0033485624 0.08043263 0.2403638
0.21581642 0.37471 0.0090458365 0.6334095 0.15554744 0.7436904 0.061991133 -0.42110577
0.048165783 0.26051542 0.38854232 0.398631 0.13355605 0.006381488 0.18770966 -0.5375949
0.30425727 0.12553976 -0.34247428 -0.07354768 -0.2338597 -0.023002528 0.5711198 -0.042916484
-0.03841267 -0.0033456576 -0.03246008 -0.012426686 -0.011190478 0.00057527196 0.02162195 0.03549276
-0.04956314 0.018020079 -0.01219399 0.018031051 0.0059855855 0.04542022 0.029376311 0.017756926
-0.027205165 -0.05668613 -0.0068091843 -0.006505892 0.07877992 0.0052414034 0.07633386 -0.005472832
0.023694146 0.0112040965 0.040068127 -0.029537639 0.019128086 -0.020497445 0.004201342 -0.02436161
-0.03562097 0.04217962 0.0063409484 -0.07587638 -0.028961623 0.029359719 0.007929493 0.014667491
-0.040385194 0.051566504 -0.04855837 -0.0025745493 -0.102455065 -0.008276096 -0.008444199 0.03748792
-0.013165465 -0.03950404 0.04007728 -0.011893974 0.008954887 -0.01423635 -0.060229048 -0.0026720166

bias f4 [200]
00000000: e099 363f 7299 c5bc 4687 79bc 7051 59bc
00000010: 3b2b 0abd 21bf 16bf 1ab8 a4bf e8fc 263f
00000020: 94f0 19bf 8810 28bf d796 1c3f 13fc 4abc
00000030: 8478 2d3f aaba ee3f 26b1 aa3f 87d4 283f
00000040: 532e fcbe ff8f 94bf 3e2b 97bf c603 353f
00000050: fe4d 7a3f a1d6 b8bf b19c 5b3f 18f5 d6be
00000060: d8e8 bcbf 2f7a 90bf 628b 87bd a3b1 79bf
00000070: 5239 62bc 078d 31bf bc4d f73f 4fce 593b
00000080: 5f64 1c3f 409b 50bb ca40 783c d48d 33bf
00000090: ce28 83bd ce4e 8dbe d289 b1bf 32a5 a7be
000000a0: 1c50 91bf f43b 043f 96e1 d4bf cbce 32bf
000000b0: 6dee fe3c c416 4c3e 9983 cebc 2141 59bf
000000c0: 20b5 28bf a3a6 88bf db3f 74bc 8117 203f
000000d0: b979 c9bf 850c 7ebf ad2f 49bf 61f4 34be
000000e0: 3b91 e93c f5e5 383f 82ad 193c 5d2f 68bf
000000f0: f23e 70be 7f18 35bf 8dcd 333f 6ad3 bbbd
00000100: bdfa b1bf c5e0 fabf 944d 65bf 62ee a23f
00000110: 4c8a 10bf dc21 c63e c40d 51bf cf73 93bf
00000120: e2b4 acbf 58f1 4a3d b462 47bc 8214 b8bf
00000130: 5756 b93c ef6d a6bf 05a9 adbd b26d abbe
00000140: 863e 183f fdb4 d2bf fce9 11bf e008 c23e
00000150: f2ee 473f 917c 943c cc40 17bf 5082 933a
00000160: 0b54 233f 7335 993f 479f 863f c3d9 203f
00000170: 6567 f83e 9809 183f 6bbc bd3f d410 d13f
00000180: b2d0 1dbc 22f5 89bf 46fb 2dbf 9f04 bdbf
00000190: dbf0 d0bf 0331 eebf dcdc b5bc 7034 8e3d
000001a0: dbed 1e3d 269b 60bf 6fac 623e 184f 31be
000001b0: d4e2 0a40 28e3 293f e992 bf3f 7b93 c03e
000001c0: dd5f 0cbf cfd7 553f 4543 53bf 4666 76bd
000001d0: dcdd 583f 0f0a 253f d7ec c53f 7d6e 2abf
000001e0: 4077 5c3b 2249 a43f 5b6c 813c e680 45bf
000001f0: adae d2bb 4fb8 e1bf a852 303f fc6e 3bbf
00000200: 585a e7bf 9f2f 043d 0fae afbe 6a94 1dbd
00000210: 30ef 86bf b09b 1c3f a735 37bf e51f 773f
00000220: ccae c83f 78a4 90be 0ca3 c1bd d4dc 6c3f
00000230: 35ec 00bf 1bd4 18bf acfe f1bf aaae 1fbf
00000240: 03de da3f 4998 383d 6369 bc3f 3a7d e53c
00000250: 3f78 b93f e29f b7be cf6c 293f cbb3 3c3f
00000260: 1ca6 79be 82d4 6a3f 4918 07bc 6c21 d8be
00000270: 710e 953f 0002 a43c c33d 20bf 2c58 43bf
00000280: 2bf4 9e3e 2b11 963f 5426 15be d46a dc3f
00000290: c3a4 cf3f a7af 22bd 13f1 4dbe bb38 fd3f
000002a0: 38bd e03d 64f6 7c3e 6a6a 88bf ab1a 083f
000002b0: 98e4 0ebd a095 a7bf 5bd4 0440 a71e b2bf
000002c0: 8b46 bebf b8b4 b93c 55a7 923e 122c 98bf
000002d0: cddb 883d be26 4cbe 7abb 40bf 6b2d 243f
000002e0: cf0e a93f 2874 5fbe 1d26 1f3f 3ff8 653f
000002f0: 01b8 1e3f b19e 1dbf c271 33bf 0431 fb3e
00000300: 7490 4fbd 8a0b 823f 0c5c 8dbf e909 2cbf
00000310: 4939 673f f482 15bf b342 183f 975e b13c
0.71328545 -0.02412102 -0.015230006 -0.013264045 -0.033732634 -0.5888539 -1.2868683 0.65229654
-0.6013272 -0.65650225 0.61167663 -0.012389201 0.6776202 1.8650715 1.3335311 0.6594929
-0.49254093 -1.1606444 -1.1810071 0.7070888 0.97775257 -1.44405 0.8578597 -0.41983867
-1.4758558 -1.1287287 -0.06618382 -0.9753668 -0.013807612 -0.69355816 1.9320598 0.0033234542
0.61090654 -0.0031830817 0.015152166 -0.7013829 -0.06404267 -0.27599186 -1.3870184 -0.32743222
-1.1352572 0.5165398 -1.6631343 -0.6984679 0.03111955 0.1993056 -0.025209235 -0.84865004
-0.65901375 -1.0675853 -0.014907802 0.62535864 -1.5740272 -0.99237853 -0.7858837 -0.17671348
0.028511634 0.72225887 0.009379746 -0.9069727 -0.23461512 -0.70740503 0.7023552 -0.091711834
-1.3904644 -1.9599844 -0.895715 1.2728999 -0.56461024 0.38697708 -0.8166163 -1.1519717
-1.3492701 0.04954657 -0.012169529 -1.4381258 0.022624178 -1.3002299 -0.084795035 -0.33482128
0.59470403 -1.6461483 -0.56997657 0.37897396 0.78098977 0.018125804 -0.5908325 0.0011254046
0.63800114 1.1969436 1.0517358 0.6283228 0.48516384 0.5938964 1.4823126 1.633326
-0.009632276 -1.0777934 -0.6796154 -1.4767035 -1.6323503 -1.8608707 -0.02220004 0.069435954
0.038801055 -0.8773674 0.2213609 -0.17315328 2.1700945 0.6636224 1.4966708 0.3761252
-0.54833776 0.8353242 -0.8252452 -0.06015613 0.8471353 0.64468473 1.5462903 -0.6657484
0.0033640414 1.2834818 0.015798738 -0.7714981 -0.0064295144 -1.7634372 0.68876123 -0.73216224
-1.8074446 0.032271978 -0.34312484 -0.038471617 -1.0541744 0.6117506 -0.7156624 0.9653304
1.5678344 -0.2825048 -0.09454927 0.92524457 -0.50360423 -0.5969865 -1.8905845 -0.6237589
1.7099003 0.045067105 1.4719661 0.028013814 1.4489821 -0.35864168 0.66181654 0.7371184
-0.24379772 0.9173051 -0.008245536 -0.42213 1.1645032 0.020020485 -0.6259424 -0.76306415
0.3104566 1.1723989 -0.14565402 1.7220101 1.6222156 -0.039718296 -0.20111494 1.9782938
0.109735906 0.24703366 -1.0657475 0.5316569 -0.034885973 -1.3092537 2.0754611 -1.3915604
-1.4865278 0.022669181 0.2864329 -1.1888449 0.06682549 -0.19936654 -0.75286067 0.641318
1.3207644 -0.21821654 0.6216753 0.8983192 0.6199952 -0.6157027 -0.70095456 0.49060833
-0.05067487 1.0159771 -1.1043715 -0.6720262 0.90321785 -0.58402944 0.59476775 0.02165155

weight f4 [1, 200]
00000000: 765b 483e 2986 db39 a436 edb9 2071 f038
00000010: efb0 bdba 115f 9abd 2ce9 e2bd f56a 1e3e
00000020: 4a8c f8bd 8c77 07be 5323 123d 312c 16bb
00000030: 0c12 0f3e d9e1 373e 60e5 053e c978 223e
00000040: d11a 9dbe 303b 0ebe a683 3ebe c10b f53d
00000050: 1542 0d3e de51 4abd 6c1f b03d d87d a9bf
00000060: bf51 82be d357 91be 0753 5339 4c3e 99bd
00000070: 2faa 89ba 75a6 e1bd f07a 523e bd35 69b9
00000080: 83e4 e03e 4e3b 9f3a 242f 793a 9a05 05be
00000090: a44d 3fbb 5644 cabd 77ef 51bd f193 b6bd
000000a0: 7c75 35be d84a 753e 5a49 e2bd 3d6f b0bd
000000b0: 29b4 1a3b 941a 32be 27bc fcba 9b42 6bbd
000000c0: 48e7 a2bf 097e 44bd e395 13ba af75 ccbd
000000d0: 7782 87be da6c ebbd b8a3 9ebd 4913 293e
000000e0: 61d5 623a cb28 d63d e3a8 a8ba 75ae 6ebd
000000f0: 02ce 223e 6613 febd c38f 8cbd 5f26 8fbf
00000100: a2f1 37be c73b e0bd 6359 87be 8319 fa3d
00000110: d18b e7bd 19b1 493e ab51 6cbe 952a 14be
00000120: 6b19 16be c8cc df3a 1940 6939 b6e8 4ebd
00000130: bf2b 97ba 62e7 cbbd e9ec 233b 9037 1d3e
00000140: f3f0 393e a1b6 a0bd 5166 2cbe 6c70 c83e
00000150: 45b4 193e bb60 bc3a 4e5a 87bd 7a39 47bb
00000160: 584b e43d f0cf f13d be70 973d 940d 123e
00000170: dc81 b33d 1539 623e 1204 113d 83db 563d
00000180: 9cc1 1d39 b74b 86bd d429 11be 3ef6 abbd
00000190: 382d 13be 582c 1fbe 878d 69b9 66f9 b7ba
000001a0: ebc7 b3b9 769b 69bd ec09 4b3e 688d 973d
000001b0: a808 db3d 288b bc3d c230 b23d 88b5 423e
000001c0: df46 31be b0df 803d bc4c 72bd 67d2 0abb
000001d0: 9723 a63d de32 1c3e ad5b 4d3d 23ef eebd
000001e0: e898 093b 5ce0 713d 1bdc fe3a 4703 dcbd
000001f0: eced 5c3b 0f84 d6bd f60d de3d 4b0c 22be
00000200: d9c8 16be db60 763a e03e 1dbe c9ea 55ba
00000210: 8e38 a8be e2b0 063e 2752 1fbe 096c 103e
00000220: 4cba f63d 79f3 2e3e 549c b53d bd28 e03e
00000230: 7e00 1e3e d213 fabd 1783 13be 3749 eebd
00000240: 68cb 903d 8abe b83a 4af0 913d 5de8 433a
00000250: 415e 153e 9ec1 b9bf 4f8d d23d 2b64 e83d
00000260: 9d8c e8bd 1495 953d ae0c 3ebb 8a80 a1bd
00000270: de0e 923d a3f4 4639 0ea2 1ebe 491e 17be
00000280: bbf3 863d ff2a 6f3e c7a1 883f a908 013e
00000290: 1cea 133e 1f6a 3ebb 3b03 393e 0542 d13d
000002a0: 9c70 6c39 b4b1 1bbe 23a7 d0bd 21f2 163e
000002b0: 8729 c83d bfa1 57be 2bbc 843d b9e1 e4bd
000002c0: d4d7 ecbd b528 7f3a 1610 ce3d b6c9 0ebe
000002d0: 1b52 283a 15fb 6b3e a496 8dbe 380c 443d
000002e0: e5b1 d63d 60db 293e ea31 d33d 396b 2bbe
000002f0: 627b b13d 1853 eabd 4e94 0cbe 8d9a 413e
00000300: 245b 9bb9 31d8 1a3e 8bc2 f1bd 91c7 f3bd
00000310: 3310 1c3e 715b edbd d66d 083e 4658 283a
0.1956614 0.00041870892 -0.00045244873 0.00011465163 -0.0014472286 -0.07537664 -0.1107963 0.15470488
-0.12136133 -0.13229197 0.03567822 -0.0022914524 0.13971728 0.17957248 0.13075781 0.15866388
-0.30684522 -0.13889766 -0.18604907 0.119651325 0.1379474 -0.04939448 0.08599743 -1.324153
-0.25452992 -0.28387317 0.00020153458 -0.07482585 -0.0010502989 -0.11018077 0.2055471 -0.0002224063
0.4392434 0.0012148411 0.00095056207 -0.12990418 -0.0029190565 -0.09876315 -0.051253762 -0.08914936
-0.17720598 0.23954332 -0.11049147 -0.08614967 0.002360592 -0.17392951 -0.0019282148 -0.057436567
-1.2726831 -0.04797176 -0.000562994 -0.09983384 -0.26466724 -0.11495371 -0.077460706 0.16511263
0.0008653012 0.104569994 -0.0012867715 -0.058271844 0.15898898 -0.12406044 -0.06863358 -1.1183585
-0.1796327 -0.109489016 -0.26435384 0.12211897 -0.11305965 0.19696464 -0.23078029 -0.14469369
-0.14658134 0.0017074579 0.0002224449 -0.0505149 -0.0011533423 -0.09956242 0.0025013036 0.15353227
0.18158321 -0.07847334 -0.16835906 0.3914827 0.15010174 0.001437209 -0.06609021 -0.003039925
0.11147183 0.11807239 0.07394551 0.14262992 0.08765003 0.22092088 0.035404272 0.052455436
0.00015044812 -0.0655741 -0.14176112 -0.08396576 -0.14372718 -0.1554426 -0.00022273335 -0.0014036119
-0.0003429049 -0.057033025 0.19828004 0.07400018 0.106950104 0.092062294 0.08700706 0.19014561
-0.17312191 0.06292665 -0.05915521 -0.0021182538 0.08112257 0.1525378 0.050136257 -0.116667055
0.002099568 0.059051856 0.0019444259 -0.107428126 0.0033711148 -0.10474407 0.108425066 -0.15825002
-0.14725055 0.0009398588 -0.15356016 -0.0008160291 -0.32855648 0.13153413 -0.15558682 0.14103712
0.12047252 0.17085065 0.08867708 0.4378108 0.15429875 -0.12210812 -0.14405476 -0.116350584
0.07070047 0.0014094871 0.071259096 0.00074732845 0.14586736 -1.4512212 0.10280859 0.113472305
-0.11354945 0.07303825 -0.0028999257 -0.07885845 0.07131742 0.00018973886 -0.15491506 -0.14757647
0.06589457 0.23356245 1.067437 0.1260096 0.14444774 -0.0029054952 0.18067639 0.1021767
0.00022548664 -0.15204507 -0.10188129 0.14740802 0.09773546 -0.21057795 0.06481203 -0.11175866
-0.115646034 0.0009733544 0.10061662 -0.13944134 0.0006420926 0.23044999 -0.27653992 0.047863215
0.104831494 0.16587591 0.10312255 -0.16740121 0.086661115 -0.1144163 -0.13728449 0.18906613
-0.0002963181 0.15121533 -0.11804684 -0.11903299 0.15240555 -0.11589707 0.13323149 0.0006421845
