scripts/distance/50-50/250k_nn_ssm_distance.pt (torch, 17407 bytes, 5 tensors)

weight f4 [50, 15]
-0.31365958 -0.42256978 0.055764604 0.04717629 0.054315645 -0.009324975 -0.56065995 -0.60211056
-0.0008409441 0.009835784 -0.008289832 0.029929439 0.7485424 0.022871165 0.2312287 -0.083838806
0.7244627 -0.14435677 0.045397043 -0.11708759 -0.009903728 -0.08688518 0.9700462 0.0052188877
-0.0634981 0.047273625 0.011469637 -0.23979549 -0.7427063 0.016344666 -0.023131326 -0.09472078
-0.17191237 -0.03820595 0.6967497 0.32962346 0.026201371 -0.23360913 -0.23549585 -0.01649321
0.49209818 0.23518364 -0.02188871 0.030411523 0.02509052 -0.74507046 -0.8371699 -0.72365
-0.27741405 -0.59353936 -0.23794472 -0.21227913 -0.44532898 -0.39543545 -0.012775283 -0.39914027
-0.1767969 1.0065438 -0.69340324 0.026747756 4.6746325 0.21119003 -0.00711911 1.0161885
-0.051586445 -0.09755075 -4.868777 -0.34907907 -0.059764378 -1.1656284 0.009717231 0.10231164
0.010606732 -0.11692289 -0.061777785 -0.20436688 0.18033879 0.31484753 -0.07794169 0.27388525
0.16459079 -0.10493124 0.14020263 0.2217033 -0.059907928 0.2536184 0.12320841 -0.49031374
-0.78051436 -0.03727291 0.48836464 0.32370293 0.23853524 0.02191854 0.053778306 -0.020039722
0.44724968 0.5878816 0.3075147 -0.043415666 -0.005247535 -0.014437926 -1.0556772 0.67813814
0.017331699 -0.28954792 0.068520196 0.004976993 -0.004499109 -0.0349837 -0.0052573513 -0.34542033
0.017621499 -0.011050581 0.015887389 0.03242744 -0.017638044 2.2467241 0.40838093 0.12417239
-0.33887762 -0.60921395 -0.8175511 0.0012675109 -0.4052197 -0.14476638 -0.2668454 -0.2732256
-0.37516102 -0.11658301 -0.13539314 0.01837623 -0.80842054 0.48619843 -0.13775237 -0.29408038
-0.24601135 -0.30170864 0.2702068 -0.10688068 -0.012524892 -0.09291725 -0.2447075 -0.27102727
0.29557827 -0.058296923 -0.0068330886 0.31336564 0.47278693 -0.0037300633 0.8899439 1.7388653
0.303717 -0.032090344 0.17440422 -0.036530755 -1.213585 -1.9783716 -0.4540307 -0.06196582
-0.23661642 0.02082747 0.038310524 0.001836003 -0.14149213 -0.070713066 0.03222606 -0.010646346
-0.0010165261 0.03342247 0.007621685 0.0052256174 0.02237175 -0.03314577 -0.0139960665 -0.03653578
-0.013489744 -1.6275288 0.3678556 -0.045155756 -0.55927926 0.7446517 0.63082486 -0.032223087
0.49896574 0.2447928 -0.17665221 0.20778814 0.2660246 0.09098866 0.34629086 0.24758323
0.64974594 0.43299437 0.037069205 -0.5913447 0.1497257 0.1553126 -0.11636391 0.07890076
0.0251995 -0.78185076 0.4100035 0.25761032 -0.25050768 0.097291 0.013970149 1.4217335
0.50106794 -0.2131206 1.5782254 2.887113 2.0155022 0.2999673 1.1308779 0.35688627
-1.5194191 -1.9505054 -1.4584017 -0.38301602 -0.8810065 -0.27673334 -0.2410863 1.1284351
-0.050626673 -0.10050525 0.8444922 0.6329924 -0.0076757176 0.27498245 0.08022183 -0.08596476
0.4363883 0.43307382 0.028656522 0.09668807 -0.010449746 0.40532124 0.98603153 0.105051145
0.37947488 0.7259958 -0.054680206 -0.025347581 -0.03549103 -0.012465781 0.23868771 0.41035414
0.06512683 0.033306114 0.017603258 -0.02243586 0.574024 -0.15496294 0.1896154 -0.09089007
00000000: fd97 a0be 115b d8be 6d69 643d ed3b 413d
00000010: 157a 5e3d c8c7 18bc 6987 0fbf eb23 1abf
00000020: ce72 5cba 4526 213c 13d2 07bc 952e f53c
00000030: 7aa0 3f3f 4f5c bb3c 37c7 6c3e aeb3 abbd
00000040: 6376 393f 43d2 13be 40f2 393d 9ecb efbd
00000050: 3f43 22bc dbf0 b1bd f354 783f 3403 ab3b
00000060: 4b0b 82bd fda1 413d 25eb 3b3c f38c 75be
00000070: 0022 3ebf 40e5 853c e87d bdbc f8fc c1bd
00000080: cc09 30be d87d 1cbd 305e 323f 68c4 a83e
00000090: 42a4 d63c 3b37 6fbe d325 71be c51c 87bc
000000a0: 4bf4 fb3e fbd3 703e f44f b3bc 9621 f93c
000000b0: a28a cd3c f0bc 3ebf c450 56bf 2041 39bf
000000c0: 3709 8ebe 32f2 17bf c8a7 73be b35f 59be
000000d0: 2902 e4be 8476 cabe 6c4f 51bc 1d5c ccbe
000000e0: 3f0a 35be 6dd6 803f e082 31bf 1c1e db3c
000000f0: 9796 9540 3342 583e 6c47 e9bb 7712 823f
00000100: 4f4c 53bd b0c8 c7bd 05cd 9bc0 7eba b2be
00000110: 7ecb 74bd 5033 95bf 0535 1f3c c488 d13d
00000120: dcc7 2d3c 4575 efbd b40a 7dbd 8d45 51be
00000130: bbaa 383e b233 a13e e59f 9fbd b03a 8c3e
00000140: 7d8a 283e 31e6 d6bd 4791 0f3e 3106 633e
00000150: 0462 75bd 45da 813e b154 fc3d 670a fbbe
00000160: cacf 47bf 7bab 18bd ee0a fa3e 64bc a53e
00000170: 9542 743e 838e b33c a446 5c3d 582a a4bc
00000180: e9fd e43e 697f 163f 9172 9d3e a0d4 31bd
00000190: 84f3 abbb 0d8d 6cbc 6e20 87bf 769a 2d3f
000001a0: 35fb 8d3c a03f 94be 5154 8c3d 0b16 a33b
000001b0: 436d 93bb 114b 0fbd dc45 acbb efda b0be
000001c0: f65a 903c 7f0d 35bc 4526 823c a3d2 043d
000001d0: a97d 90bc 54ca 0f40 4e17 d13e 184e fe3d
000001e0: 5e81 adbe 72f5 1bbf 074b 51bf 9c22 a63a
000001f0: f578 cfbe a33d 14be f69f 88be 3ae4 8bbe
00000200: 1b15 c0be 13c3 eebd 80a4 0abe bf89 963c
00000210: a6f4 4ebf 00ef f83e f50e 0dbe b491 96be
00000220: 66ea 7bbe 8e79 9abe 8c58 8a3e 42e4 dabd
00000230: 3435 4dbc 664b bebd 9a94 7abe 16c4 8abe
00000240: 0956 973e c1c8 6ebd 1ae8 dfbb 7671 a03e
00000250: 2111 f23e 1474 74bb 5dd3 633f 2393 de3f
00000260: cb80 9b3e 2a71 03bd 0597 323e 46a1 15bd
00000270: c156 9bbf 483b fdbf b676 e8be dfcf 7dbd
00000280: 934b 72be 5f9e aa3c 7feb 1c3d 0aa6 f03a
00000290: 50e3 10be 03d2 90bd 79ff 033d 036e 2ebc
000002a0: f53c 85ba 00e6 083d 54bf f93b a83b ab3b
000002b0: f644 b73c dcc3 07bd c24f 65bc 8ba6 15bd
000002c0: 1604 5dbc dd52 d0bf 9257 bc3e 3ef5 38bd
000002d0: ed2c 0fbf 7ea1 3e3f bd7d 213f 5bfc 03bd
000002e0: 7078 ff3e f7aa 7a3e 51e4 34be 6ac6 543e
000002f0: 6034 883e 4358 ba3d 094d b13e 7586 7d3e
00000300: c055 263f 70b1 dd3e e1d5 173d 5e62 17bf
00000310: b251 193e 440a 1f3e 3450 eebd b996 a13d
00000320: 2f6f ce3c 5f27 48bf fbeb d13e 80e5 833e
00000330: 8b42 80be 8140 c73d 0de3 643c 5dfb b53f
00000340: fd45 003f 493c 5abe 4a03 ca3f 76c6 3840
00000350: fdfd 0040 5095 993e 9bc0 903f ccb9 b63e
00000360: 537c c2bf 29aa f9bf e8ac babf ad1a c4be
00000370: a489 61bf feaf 8dbe 54df 76be 9070 903f
00000380: ea5d 4fbd b2d5 cdbd a430 583f ca0b 223f
00000390: 9684 fbbb 80ca 8c3e 584b a43d 4b0e b0bd
000003a0: 4a6e df3e dabb dd3e 15c1 ea3c 6504 c63d
000003b0: 6935 2bbc 4486 cf3e 906c 7c3f 0e25 d73d
000003c0: 884a c23e dcda 393f 5af8 5fbd bba5 cfbc
000003d0: 0b5f 11bd 463d 4cbc 8d6a 743e f019 d23e
000003e0: 3761 853d fe6b 083d b534 903c 69cb b7bc
000003f0: 3df3 123f 9bae 1ebe 8a2a 423e 9324 babd

bias f4 [50]
0.7654579 0.8741678 0.032559324 -0.20194055 1.0058849 -0.030603377 0.91515 -1.0462854
-1.615231 -0.073449336 1.7672075 1.2371507 0.013628492 -0.7552195 0.017304802 0.85979474
-0.52291363 0.014837437 0.17139624 -4.1743 0.049182322 -0.43984535 0.030963821 1.0216959
0.7514881 0.015841221 -1.410168 -0.006689776 -0.7982797 0.20720732 -0.83454734 -0.37355152
-0.76770085 -2.380209 -1.0077646 -1.2282668 0.9858682 -1.4320985 1.1668656 0.5809221
0.87469876 0.016297817 -1.0101341 0.4745998 1.1289449 0.97098047 0.11557965 -0.20744488
-0.012494203 1.3929217
00000000: 0df5 433f 76c9 5f3f ed5c 053d 81c9 4ebe
00000010: d6c0 803f efb3 fabc 4547 6a3f aeec 85bf
00000020: e4bf cebf 9b6c 96bd db33 e23f f45a 9e3f
00000030: 0a4a 5f3c 1156 41bf cdc2 8d3c 821b 5c3f
00000040: abdd 05bf b918 733c 7f82 2f3e de93 85c0
00000050: 6773 493d 6933 e1be d7a7 fd3c eec6 823f
00000060: 8661 403f 73c5 813c 6380 b4bf e935 dbbb
00000070: 0f5c 4cbf 282e 543e e5a4 55bf 2542 bfbe
00000080: 0b88 44bf 5855 18c0 6efe 80bf d937 9dbf
00000090: dc61 7c3f 014f b7bf da5b 953f 50b7 143f
000000a0: 42ec 5f3f 0083 853c 134c 81bf bffe f23e
000000b0: 4481 903f 2d92 783f 06b5 ec3d 6e6c 54be
000000c0: 7cb4 4cbc 424b b23f

weight f4 [50, 50]
-0.55066586 0.25141364 -0.34124884 -0.50737196 0.4962683 1.4477235 -1.4364896 1.6811188
-0.66239506 -1.7904555 -1.9914613 0.82372046 -0.8320409 0.22789001 -0.17650059 -0.9833892
0.5070807 0.058101147 -0.3228617 0.010110697 -0.35150504 0.3121417 -2.0295804 -0.6438762
-0.87941206 -0.54147226 0.852718 -0.32094938 -1.0769212 -0.36880165 0.61922026 -2.1051736
0.28064552 1.3323379 -0.067543164 -0.5246588 -0.02998468 -1.9031963 0.12582418 -0.19407569
-0.038406797 -0.468249 -1.7734923 0.59606963 -1.5894449 -0.20051128 -0.092802145 -1.6377686
-0.31629798 -1.1638951 1.778016 -1.0262969 -0.79455733 2.7846506 -0.075585134 0.86767507
1.4103763 -1.8128333 1.5897487 -0.22395009 -1.3373256 3.972241 -0.04661733 -0.29503265
-1.0419655 -1.4112178 1.0428231 -0.8110185 -0.15353762 -0.9640063 1.6155334 -0.043764763
0.03900495 -0.53999525 2.0225868 0.34447005 -0.3446411 0.4350765 0.50607437 -1.2331502
-1.0022273 -1.0601703 -0.76836663 -0.7946766 -0.29258022 -0.74699056 1.0389508 0.67762125
1.6469629 -0.5445911 -0.10003704 -1.3808098 -0.051350586 -0.05858491 1.461189 -0.12566715
0.47153202 -0.0473883 0.049899846 3.0466514 1.1881778 0.16742961 -0.6801973 -0.050175294
-0.26709342 -0.60158384 0.94422406 -0.76413584 -1.3731633 -0.96636176 -0.70166475 -1.6820861
-0.6892378 -0.26466542 -0.236711 -1.695245 -2.9142385 -0.31401527 -0.9623217 -1.8816714
-0.13948916 1.1571597 0.1312503 0.002115597 1.5276037 0.78688085 -0.21597432 0.5059149
0.601011 1.485007 0.90635616 0.6321851 0.33679664 -0.36260962 1.1400466 0.5769037
0.29553738 1.1818306 0.82761747 -0.6646422 0.0018202827 -0.6036007 0.89169544 -0.19098173
0.44408622 0.031159783 0.8276072 0.055641036 -0.34852526 0.42865133 0.58684814 0.2595909
-2.0240397 1.475932 0.15739834 2.4729707 -0.5085077 0.29055935 -0.8379277 -0.86366975
0.20287253 -0.47386983 -1.5187823 1.4619322 -0.25026438 -0.004754366 -0.10802775 -2.2842076
1.0167781 -0.94682425 -0.7346161 0.26006687 2.4191012 -0.47574627 0.44808674 0.85263646
-1.3376753 0.27337974 0.042609435 1.7799839 1.6956323 -0.82958025 -0.60760176 0.9347776
-0.84005743 -0.14954156 0.17189352 -1.6652969 -1.0255573 0.662087 -0.12505504 -0.46076423
0.02952488 -1.7778047 1.2295811 0.4771818 1.3728942 -0.8576409 -2.7273548 -0.7933659
-0.6205779 -0.3423689 1.8581082 -1.4367503 -0.00697055 -2.6340694 -0.33725083 0.5148577
1.0222878 0.13614438 0.7726895 1.2141792 1.4993753 -0.62390095 0.46308836 -0.8972451
-0.1786546 2.719458 -1.3686475 -3.184903 0.12931381 -0.2670691 -3.8488533 0.7009236
-0.64366376 -0.63103265 0.9006777 0.11501654 -0.9280345 -1.8264538 0.6021907 0.1836057
-0.7686637 -2.5118425 1.8681128 0.4884317 -1.2759744 1.6622198 0.3649897 -0.95418304
-0.51818085 0.4641432 -0.22910973 1.7383344 -0.8776488 -0.16822569 -0.2373948 1.0893676
3.091381 -0.07158633 -1.2281768 -0.21579352 0.24966756 -0.2193748 0.40583816 -1.8783083
00000000: 70f8 0cbf 4ab9 803e 2bb8 aebe 21e3 01bf
00000010: e116 fe3e 014f b93f e4de b7bf e72e d73f
00000020: b992 29bf a52d e5bf 34e8 febf 58df 523f
00000030: a200 55bf 005c 693e 92bc 34be 65bf 7bbf
00000040: 0ad0 013f 78fb 6d3d 214e a5be 56a7 253c
00000050: 78f8 b3be 09d1 9f3e a5e4 01c0 12d5 24bf
00000060: 2621 61bf ed9d 0abf ba4b 5a3f 7a53 a4be
00000070: 8ed8 89bf 92d3 bcbe 3885 1e3f 2abb 06c0
00000080: c5b0 8f3e 0c8a aa3f 1254 8abd 0a50 06bf
00000090: 6ea2 f5bc f09b f3bf 0ed8 003e c7bb 46be
000000a0: 7250 1dbd 55be efbe cc01 e3bf 0598 183f
000000b0: ee72 cbbf d452 4dbe 0d0f bebd 67a2 d1bf
000000c0: cff1 a1be 84fa 94bf 0796 e33f b25d 83bf
000000d0: 1c68 4bbf b737 3240 61cc 9abd f41f 5e3f
000000e0: 3687 b43f ec0a e8bf e37c cb3f 2c53 65be
000000f0: 7c2d abbf 3239 7e40 d0f1 3ebd 850e 97be
00000100: 205f 85bf c9a2 b4bf 3a7b 853f e99e 4fbf
00000110: f738 1dbe 1ec9 76bf ccc9 ce3f ae42 33bd
00000120: a8c3 1f3d 213d 0abf 1072 0140 615e b03e
00000130: cc74 b0be 59c2 de3e 178e 013f ded7 9dbf
00000140: fc48 80bf a9b3 87bf adb3 44bf ed6f 4bbf
00000150: 13cd 95be c63a 3fbf 57fc 843f 9678 2d3f
00000160: aecf d23f 536a 0bbf 38e0 ccbd 60be b0bf
00000170: fe54 52bd bbf6 6fbd 3e08 bb3f e4ae 00be
00000180: a56c f13e 3c1a 42bd c863 4c3d 56fc 4240
00000190: 3616 983f ab72 2b3e 6921 2ebf 9c84 4dbd
000001a0: 78c0 88be 6601 1abf abb8 713f 689e 43bf
000001b0: d1c3 afbf 7c63 77bf 4da0 33bf 994e d7bf
000001c0: e371 30bf 3a82 87be 5e64 72be cafd d8bf
000001d0: e282 3ac0 9cc6 a0be b75a 76bf 9cda f0bf
000001e0: 3fd6 0ebe cf1d 943f 7b66 063e d4a5 0a3b
000001f0: 8588 c33f 0671 493f 5f28 5dbe a483 013f
00000200: dbdb 193f b614 be3f f506 683f e2d6 213f
00000210: 9c70 ac3e f8a7 b9be 0ced 913f f6af 133f
00000220: ad50 973e 3a46 973f bdde 533f fe25 2abf
00000230: 8d96 ee3a 9385 1abf 2746 643f b790 43be
00000240: 455f e33e cd42 ff3c 11de 533f dbe7 633d
00000250: e771 b2be 3078 db3e ae3b 163f 19e9 843e
00000260: de89 01c0 57eb bc3f 082d 213e 2745 1e40
00000270: 902d 02bf 32c4 943e 6e82 56bf 7619 5dbf
00000280: d1bd 4f3e 119f f2be 7567 c2bf 9820 bb3f
00000290: a722 80be 83ca 9bbb a73d ddbd 7530 12c0
000002a0: c925 823f 1363 72bf cd0f 3cbf 7c27 853e
000002b0: 8ed2 1a40 0495 f3be a06b e53e 6246 5a3f
000002c0: f238 abbf 6ef8 8b3e 3b87 2e3d 83d6 e33f
000002d0: 7b0a d93f 5f5f 54bf ca8b 1bbf 964d 6f3f
000002e0: 010e 57bf 6c21 19be db04 303e 7328 d5bf
000002f0: 7645 83bf 897e 293f 6e0e 00be 4ae9 ebbe
00000300: 29de f13c 1b8f e3bf ea62 9d3f 2c51 f43e
00000310: ffba af3f 5b8e 5bbf fb8c 2ec0 071a 4bbf
00000320: 31de 1ebf fa4a afbe 7dd6 ed3f 6fe7 b7bf
00000330: 3669 e4bb 9894 28c0 24ac acbe b7cd 033f
00000340: 54da 823f 6f69 0b3e fbce 453f 396a 9b3f
00000350: 88eb bf3f f9b7 1fbf eb19 ed3e dbb1 65bf
00000360: 3bf1 36be 9a0b 2e40 d72f afbf 73d5 4bc0
00000370: d76a 043e 48bd 88be 9d53 76c0 bb6f 333f
00000380: 26c7 24bf 5b8b 21bf d092 663f cb8d eb3d
00000390: ab93 6dbf 3dc9 e9bf 2b29 1a3f 2203 3c3e
000003a0: 25c7 44bf 07c2 20c0 521e ef3f b813 fa3e
000003b0: 2153 a3bf 9ec3 d43f eedf ba3e 5745 74bf
000003c0: 80a7 04bf 2da4 ed3e be9b 6abe be81 de3f
000003d0: 97ad 60bf 5b43 2cbe 9f17 73be 6670 8b3f
000003e0: 30d9 4540 db9b 92bd e634 9dbf faf8 5cbe
000003f0: daa8 7f3e caa3 60be 05ca cf3e 686c f0bf

bias f4 [50]
-1.2982348 2.3826478 2.0106952 -0.16649893 1.3543304 2.229191 -0.6843691 -0.6033477
-1.6515409 0.5775376 1.2462282 -1.1080892 -1.7915204 4.3315673 -0.82417756 1.2519186
0.022266367 -0.1391917 -1.5796045 1.457521 -0.105724886 -0.53919023 -0.85563934 0.42267197
-0.97035855 -1.2559673 -8.420131 1.3630066 1.3569775 2.7197702 -2.1992362 1.3325437
0.91773564 1.4595805 5.962361 -0.798891 -0.108505584 -0.065557696 0.5731787 0.10883057
-2.8020093 0.576967 0.5975176 -2.0499365 0.34068763 -1.9718405 -0.48606387 -1.8231974
-0.86833555 -0.3536355
00000000: 8f2c a6bf 4d7d 1840 3baf 0040 b27e 2abe
00000010: b35a ad3f 11ab 0e40 d032 2fbf ff74 1abf
00000020: b165 d3bf 81d9 133f 6884 9f3f ded5 8dbf
00000030: 8a50 e5bf 339c 8a40 4dfd 52bf de3e a03f
00000040: f567 b63c 4588 0ebe 7b30 cabf 0c90 ba3f
00000050: 4a86 d8bd 5f08 0abf 2e0b 5bbf 7668 d83e
00000060: 6b69 78bf 89c3 a0bf dbb8 06c1 0077 ae3f
00000070: 70b1 ad3f b710 2e40 49c0 0cc0 cb90 aa3f
00000080: b9f0 6a3f 89d3 ba3f a9cb be40 1f84 4cbf
00000090: 2d38 debd 1d43 86bd d7bb 123f 90e2 de3d
000000a0: 1f54 33c0 1cb4 133f eaf6 183f 2932 03c0
000000b0: 9c6e ae3e 4565 fcbf 5ddd f8be 885e e9bf
000000c0: 3d4b 5ebf b60f b5be

weight f4 [1, 50]
-0.687548 -2.1781335 0.20826873 -0.40321168 0.2809924 0.23650242 0.26275662 -0.24096213
0.4094011 0.1503375 -0.11305801 -0.32838726 0.23008151 1.1109549 0.378901 0.23003198
-7.512399e-05 -0.19457442 -0.5907122 -0.30841932 -0.19399776 0.28012642 -0.32650948 0.28048167
1.0605515 -0.52210116 -2.6768064 0.18688829 -0.2695868 -2.5354753 -0.15680383 0.24536003
0.22423302 -2.161968 1.9227074 -0.37523308 0.19684386 -0.00013708095 -0.1144602 -0.14167327
-0.1585302 -0.08882669 -0.14795046 -0.24572934 0.9497394 -0.8360361 -0.108116604 -0.5526407
-0.11759653 0.5300123
00000000: 2503 30bf 8a66 0bc0 6644 553e c371 cebe
00000010: 3cde 8f3e b12d 723e 0988 863e c7be 76be
00000020: 059d d13e 13f2 193e f58a e7bd 6022 a8be
00000030: 7d9a 6b3e c533 8e3f 50ff c13e 818d 6b3e
00000040: e38b 9db8 843e 47be ea38 17bf 23e9 9dbe
00000050: 59a7 46be bb6c 8f3e 402c a7be 4b9b 8f3e
00000060: 27c0 873f 6ca8 05bf cc50 2bc0 a55f 3f3e
00000070: 4807 8abe 3a45 22c0 2f91 20be a93f 7b3e
00000080: 579d 653e af5d 0ac0 471b f63f 8d1e c0be
00000090: 7091 493e 63bd 0fb9 1c6a eabd cc12 11be
000000a0: be55 22be c5ea b5bd 5380 17be 79a0 7bbe
000000b0: 1f22 733f 7606 56bf 3d6c ddbd dc79 0dbf
000000c0: 73d6 f0bd e3ae 073f
