scripts/distance/150-150/nn_ssm_distance.pt (torch, 104471 bytes, 5 tensors)

weight f4 [150, 15]
0.27408293 0.53282446 0.1638061 -0.16327956 -1.2038586 -0.21429995 0.14988506 0.5913105
0.62794596 -0.15590072 -0.46607625 -0.1463724 -0.89365363 1.0821246 -0.03155079 0.3962316
0.054292437 0.092027605 0.059768368 0.004989118 -0.0022643136 0.1802928 -0.0054163467 -0.028748646
-0.1653769 -0.05970501 -0.031238748 -0.17029677 0.046654556 1.3865012 0.035915285 -0.3458655
-0.19982938 -0.7299602 -1.1119542 -0.46078277 -0.04749064 0.017983977 0.08264012 -0.30053407
-0.47533813 -0.23549917 0.06961751 -0.6575954 0.016432924 0.60036314 1.7184944 1.2658539
0.041546006 0.81490576 0.19560108 0.04243025 0.6383328 0.45009923 0.21638423 0.29247162
0.06377598 -1.0329415 2.2615175 -0.20488386 0.3476516 0.12867656 0.08270902 0.39416343
-0.012370151 -0.18156622 2.0859694 -0.7176042 -0.5631911 0.87944317 -0.48982537 -0.017945003
-2.399141 -0.4638442 -0.736696 0.3353586 0.53650695 0.17675573 -0.016590092 0.008803612
0.062455967 0.55585104 0.85154223 0.16163887 0.0018542522 0.14222662 -0.014834066 0.028177628
-0.5232306 -0.21894367 0.037096392 0.4721105 0.45839095 -0.014353388 1.155817 1.1244981
-0.12530854 -0.25603136 -0.4930422 -0.15027378 0.52658695 0.83324796 0.12245766 0.78202647
0.05094066 0.053997826 0.103036776 0.20408943 0.1253655 0.15092921 -0.018936215 -0.311949
-0.17034505 0.0027766528 -0.00018943699 -0.05102565 0.07990138 3.3402255 -0.7633171 0.32672924
0.29988986 -0.96371144 0.36834058 -0.051511385 0.13304335 0.055085905 0.1774028 -0.22506833
0.4948706 -0.13463208 0.36270848 0.10149999 -0.12020428 -0.5917878 0.102319494 0.43860567
0.037723422 0.08127162 0.8339574 0.034683578 -0.061093163 0.1849373 -0.0340813 -0.07137141
0.28287646 -0.178563 0.019981056 1.3794988 -0.14671962 -0.5372585 -0.019466218 0.26084206
0.053730424 0.008473779 0.03841867 0.021620318 0.10612348 -0.07021409 -0.1550125 0.09382813
-0.12091005 -0.05522246 1.5538522 1.0512245 0.8015576 0.62925 0.33367863 0.36154413
0.16941887 0.17968059 0.122998685 -0.004874301 0.92862195 0.76101375 -0.09204646 0.6291242
0.22966115 1.5209515 0.5641292 -0.17807469 0.017113527 0.3778061 -0.22237132 0.13018782
0.01458264 0.089801796 0.5864364 1.1339672 0.031232988 -0.031424426 -0.13228215 -0.13492711
-1.2827357 0.09703429 0.005713168 -0.55152196 0.73627853 0.42799065 -0.9508764 -0.32161057
-0.0642827 -0.04872401 0.48795885 0.551496 -0.88486874 -0.4375985 -0.2642016 0.66857105
0.94417906 0.0717636 0.54039955 0.515275 0.691817 0.13242713 0.31393832 -0.012216745
-0.20771566 0.36029232 0.44148314 -0.086028636 0.1833015 0.16631757 0.9645062 -1.0861918
0.40512958 0.009597633 -0.005999996 0.0014281169 -0.017840078 0.020430442 -0.020326244 -0.007888145
-0.013236275 0.008077524 0.0011995727 -0.009481485 0.0026264067 0.0016379006 0.002949453 0.004090483
-0.20942003 0.19809255 0.2877655 0.04962871 0.37210175 0.18807296 1.8162366 0.098656125
-0.30731025 1.4838655 -0.29381365 -0.1977396 -0.99111515 0.48699078 0.56746936 -0.2788675
00000000: 9954 8c3e 2f67 083f c9bc 273e c232 27be
00000010: 0a18 9abf 7271 5bbe 787b 193e 2060 173f
00000020: 11c1 203f 70a4 1fbe 8ca1 eebe a5e2 15be
00000030: 7cc6 64bf 0f83 8a3f 673b 01bd dede ca3e
00000040: bf61 5e3d f878 bc3d adcf 743d c17b a33b
00000050: e164 14bb ad9e 383e 9c7b b1bb 4882 ebbc
00000060: 9058 29be 3e8d 74bd 67e8 ffbc 4762 2ebe
00000070: d918 3f3d df78 b13f e81b 133d 4815 b1be
00000080: 13a0 4cbe acde 3abf 8454 8ebf b8eb ebbe
00000090: 8c85 42bd 2253 933c 393f a93d 9adf 99be
000000a0: 855f f3be b226 71be a093 8e3d 2c58 28bf
000000b0: 579e 863c 66b1 193f a0f7 db3f 8007 a23f
000000c0: 252c 2a3d aa9d 503f a64b 483e 58cb 2d3d
000000d0: c769 233f 6873 e63e d493 5d3e d7be 953e
000000e0: fb9c 823d 6d37 84bf b4bc 1040 13cd 51be
000000f0: 64ff b13e cac3 033e 5963 a93d cacf c93e
00000100: 2cac 4abc 7fec 39be 8680 0540 e9b4 37bf
00000110: 4b2d 10bf 3023 613f 64ca fabe 6601 93bc
00000120: 878b 19c0 fd7c edbe 1c98 3cbf 1fb4 ab3e
00000130: 8558 093f 74ff 343e f2e7 87bc 063d 103c
00000140: d4d1 7f3d 414c 0e3f acfe 593f a984 253e
00000150: 610a f33a dba3 113e 950a 73bc c5d4 e63c
00000160: 71f2 05bf c532 60be 63f2 173d 78b8 f13e
00000170: 38b2 ea3e 792a 6bbc d0f1 933f 8eef 8f3f
00000180: e250 00be 8b16 83be 0770 fcbe 5fe1 19be
00000190: 67ce 063f bd4f 553f 15cb fa3d e332 483f
000001a0: 27a7 503d d32c 5d3d f204 d33d d2fc 503e
000001b0: d05f 003e 308d 1a3e 1f20 9bbc c8b7 9fbe
000001c0: ef6e 2ebe 81f8 353b 9ba3 46b9 4600 51bd
000001d0: 56a3 a33d 41c6 5540 c068 43bf 0e49 a73e
000001e0: 2a8b 993e cbb5 76bf 2397 bc3e 9afd 52bd
000001f0: 843c 083e c2a1 613d 14a9 353e 5078 66be
00000200: ae5f fd3e fedc 09be edb4 b93e 3adf cf3d
00000210: a92d f6bd 687f 17bf e28c d13d ec90 e03e
00000220: e083 1a3d bc71 a63d 3b7e 553f 5e10 0e3d
00000230: d33c 7abd 3460 3d3e d598 0bbd 2c2b 92bd
00000240: 2fd5 903e 38d9 36be 50af a33c 6b93 b03f
00000250: ab3d 16be c689 09bf 9e77 9fbc 178d 853e
00000260: 6f14 5c3d 9bd5 0a3c e55c 1d3d 181d b13c
00000270: 4457 d93d 68cc 8fbd 99bb 1ebe f628 c03d
00000280: b09f f7bd f230 62bd a1e4 c63f 868e 863f
00000290: e132 4d3f 8716 213f edd7 aa3e 501c b93e
000002a0: 247c 2d3e 30fe 373e bce6 fb3d 9ab8 9fbb
000002b0: 2bba 6d3f ccd1 423f db82 bcbd 490e 213f
000002c0: 4b2c 6b3e 8aae c23f c56a 103f 3659 36be
000002d0: ab31 8c3c cd6f c13e 4fb5 63be f54f 053e
000002e0: 06ec 6e3c 01ea b73d b220 163f d625 913f
000002f0: 53dc ff3c e6b6 00bd f974 07be 552a 0abe
00000300: af30 a4bf eab9 c63d 8735 bb3b 8b30 0dbf
00000310: c07c 3c3f 9721 db3e a36c 73bf 24aa a4be
00000320: a6a6 83bd d492 47bd bed5 f93e d82e 0d3f
00000330: c286 62bf e90c e0be 6f45 87be 7927 2b3f
00000340: b8b5 713f cbf8 923d a057 0a3f 10e9 033f
00000350: eb1a 313f fa9a 073e 86bc a03e be28 48bc
00000360: 6ab3 54be 3c78 b83e 140a e23e c82f b0bd
00000370: 63b3 3b3e 274f 2a3e e1e9 763f 5508 8bbf
00000380: 256d cf3e 643f 1d3c 9d9b c4bb a72f bb3a
00000390: 5b25 92bc be5d a73c 3983 a6bc 473d 01bc
000003a0: f6dc 58bc 9757 043c fb3a 9d3a 3b58 1bbc
000003b0: cb1f 2c3b d3ae d63a 9c4b 413b 7509 863b
000003c0: 3472 56be c6d8 4a3e 0056 933e 7947 4b3d
000003d0: 1f84 be3e 3396 403e 717a e83f 390c ca3d
000003e0: c557 9dbe 4eef bd3f be6e 96be 407c 4abe
000003f0: b9b9 7dbf db56 f93e ac45 113f b9c7 8ebe

bias f4 [150]
0.06572862 -0.3964742 -0.124087535 -0.64089453 1.0921612 -0.1577481 0.12318943 -0.13322839
-0.09450949 0.10272681 -1.0244902 -0.048994165 1.0863177 -0.7255235 0.237284 0.0012631232
-0.36826664 0.36712015 -1.4360886 1.2990227 0.15013795 -1.3584106 0.7461537 -0.12150985
-0.9294978 0.0004178551 -0.19827937 0.06753211 -1.5053238 -0.67617154 1.0854582 0.8944462
0.5216951 -0.0009509018 -1.2858813 1.0227263 0.016383195 0.13175699 0.7180512 0.3955714
0.7539434 0.003745725 -0.0031307107 -0.809881 1.6995828 -0.8599128 -1.1773093 0.22663559
-1.1966637 -0.032570895 -1.4617405 1.3328843 1.251169 0.041844662 -0.0070857713 0.6812928
0.10150802 0.35117695 -0.00010574309 -1.2574557 0.5877623 0.8621112 -0.803461 -0.15593384
-0.003474043 0.37111858 -0.649235 -0.11828109 -1.130547 0.26487482 0.20223662 -1.021034
-1.4995415 -0.03084924 -0.18017003 -1.0266918 0.026655894 -0.004715373 -1.5885316 0.89195323
-0.82121205 1.0501391 0.098464824 -0.00027997416 -0.7223053 -0.41314656 0.058048215 -0.074348785
-0.41753003 0.01970602 -1.4414455 -1.3712113 0.29100388 0.0026101973 -1.3829223 1.5796272
-1.3284276 -0.82543933 0.02031178 -0.15357274 1.0524837 -1.3512843 0.009982399 0.9519878
-1.2098535 -0.0703176 -0.12438085 0.20081697 -0.4314311 0.40421137 0.30035007 -0.7783457
-0.0022316137 0.12811369 0.0023457909 0.73736864 0.16139035 -0.19499274 -0.27384982 0.60057557
-1.3906465 0.055160064 0.030227039 -1.0357147 -1.5545472 -1.1777765 1.0391212 0.5785467
0.075206995 0.1529112 -0.7051586 0.18505599 -1.1366659 0.5098963 -0.09135384 -1.3320453
0.0035432922 -0.53393364 0.2678193 -0.99260193 0.79745674 0.48491758 0.67141145 -0.0025466387
1.4856256 1.2527533 0.7497325 0.32835516 -0.07986426 -0.17782669
00000000: ba9c 863d abfe cabe 9b21 febd aa11 24bf
00000010: f0cb 8b3f b888 21be bd4a fc3d 066d 08be
00000020: 318e c1bd 6f62 d23d 7f22 83bf 1bae 48bd
00000030: 750c 8b3f e8bb 39bf 94fa 723e 628f a53a
00000040: 728d bcbe 2cf7 bb3e c0d1 b7bf 6046 a63f
00000050: c3bd 193e 66e0 adbf ee03 3f3f 28da f8bd
00000060: 91f3 6dbf 9013 db39 bf09 4bbe 464e 8a3d
00000070: 73ae c0bf 9419 2dbf 4bf0 8a3f 6dfa 643f
00000080: cf8d 053f f145 79ba c297 a4bf b2e8 823f
00000090: 0d36 863c 4eeb 063e 34d2 373f 5688 ca3e
000000a0: 6f02 413f d67a 753b 9c2c 4dbb 5c54 4fbf
000000b0: ee8b d93f 3f23 5cbf 12b2 96bf 2913 683e
000000c0: 472c 99bf 0f69 05bd 501a bbbf f49b aa3f
000000d0: 4e26 a03f 4f65 2b3d c22f e8bb 3469 2e3f
000000e0: 70e3 cf3d 77cd b33e 64c2 ddb8 4ff4 a0bf
000000f0: 9777 163f 52b3 5c3f 9faf 4dbf 1fad 1fbe
00000100: c5ac 63bb 4103 be3e 4434 26bf 5b3d f2bd
00000110: c4b5 90bf ac9d 873e 1e17 4f3e 3eb1 82bf
00000120: faf0 bfbf 8cb7 fcbc 7e7e 38be a36a 83bf
00000130: 765d da3c 6a83 9abb 0155 cbbf 0c57 643f
00000140: f43a 52bf f56a 863f eda7 c93d 7fc9 92b9
00000150: 00e9 38bf f287 d3be f7c3 6d3d 2d44 98bd
00000160: 7fc6 d5be 856e a13c 4981 b8bf da83 afbf
00000170: 76fe 943e d80f 2b3b 9903 b1bf 3931 ca3f
00000180: ea09 aabf fe4f 53bf e464 a63c 2c42 1dbe
00000190: c9b7 863f e2f6 acbf 378d 233c 79b5 733f
000001a0: 7bdc 9abf ad02 90bd 63bb febd f7a2 4d3e
000001b0: 8ae4 dcbe cbf4 ce3e 7cc7 993e aa41 47bf
000001c0: 4440 12bb 3c30 033e d7bb 193b 31c4 3c3f
000001d0: 8343 253e 2dac 47be 0b36 8cbe 52bf 193f
000001e0: b400 b2bf 85ef 613d b29e f73c 4d92 84bf
000001f0: 67fb c6bf 61c1 96bf ec01 853f a31b 143f
00000200: 2006 9a3d c194 1c3e 4685 34bf 517f 3d3e
00000210: 457e 91bf 9088 023f b917 bbbd 7680 aabf
00000220: 9436 683b e0af 08bf 9c1f 893e 291b 7ebf
00000230: 2026 4c3f 1e47 f83e 9fe1 2b3f 82e5 26bb
00000240: fb28 be3f 385a a03f 78ee 3f3f 2b1e a83e
00000250: e08f a3bd 3318 36be

weight f4 [150, 150]
0.32547325 0.020211332 -1.3686634 -0.24630357 -1.4631394 -1.9725504 -0.68302375 0.3731471
0.46873343 -1.7406963 0.41873243 -0.5720078 0.13952029 0.3324558 -0.4778886 0.011669492
0.3978512 -0.4011436 0.35525933 0.34215695 -0.097084805 -0.5692742 0.02802309 0.5337937
0.5667675 -0.0065698843 -0.81941426 0.3207523 1.5523208 -0.66893935 -0.44997886 1.0084795
-0.0559577 0.030207274 0.48737013 0.08675567 0.076938115 -0.9610061 -0.73369086 -1.034008
0.9200489 0.01403697 0.0018657366 1.3888451 -0.73098093 -0.12442027 0.8716946 -0.62418044
-0.2065703 -0.19496012 0.8743056 1.4059583 -0.567232 1.3832517 -0.2707509 0.25536692
-0.7224877 0.560211 0.0063690785 -0.0006786374 1.6028643 0.4269471 0.122972876 -0.36074626
-0.026834698 -0.5013709 -0.30439463 0.6426267 -1.4868733 0.86489326 -0.47723612 -0.88433796
-1.5064911 -0.44626558 -0.64626914 -0.4373542 -0.51983154 0.20539749 -0.47185197 -0.3357968
-0.42276707 0.22357644 0.94430554 0.047331996 1.2629586 -0.101205535 -1.1327492 -0.11115186
0.41137102 -0.21592721 -0.34898657 0.8034956 1.6208231 0.038640976 1.4250033 1.4352129
0.5488109 0.9584789 -0.44183043 0.63553923 -1.1573682 -0.5682127 0.07363495 0.6787267
1.1297823 -0.7711636 -0.36353543 1.7080076 -0.32376844 -0.0925637 0.7437903 -0.23544915
-0.0075530116 -1.1556695 0.04117307 0.18826139 0.88174015 1.2144564 -1.5012786 0.79931915
-1.1271052 -0.19851708 -0.7008962 1.7748281 -1.220497 -1.6190019 0.14478353 0.83550346
1.8755232 0.08086689 0.19744383 -0.67928034 -0.22290093 -0.40756935 0.63982886 -1.6188356
0.005129937 -0.5364524 -0.43493694 -0.111216895 0.9875133 -1.0037043 -0.62862295 -0.76715237
-0.5824961 -0.079097286 0.25500205 0.9176343 0.3430288 0.6493205 -0.18710157 1.0500968
-0.4886284 -0.0656426 -0.9306478 -0.22550304 -0.3931843 0.7248697 0.40780655 -0.23278147
-0.37467578 0.17570609 0.3205243 -0.10513273 0.5972798 0.0131623335 0.13811219 -0.25969148
0.14450338 0.92496824 -1.03589 -0.55777687 0.12023012 0.9398269 -0.87425673 -0.012028461
-0.22375749 0.2329527 0.22704531 -0.6922301 0.11422719 0.7839427 1.0506995 -0.025720263
-0.32279098 0.5985819 -0.50880396 -0.3603543 1.7215028 -0.36939296 -0.24614382 -0.048169997
0.0039639985 -0.06390183 -1.053808 0.9926626 -1.5725664 -0.7807096 -1.5797657 0.3545142
0.49333414 0.96261656 -0.92128336 -1.0189832 -0.1434814 1.508838 0.96597534 1.402837
0.043399386 0.081230715 -0.048887614 0.37852737 -0.46901584 -0.6478053 -0.044609834 0.91476536
-0.46546486 -1.1912587 -0.2013327 0.4327802 1.4168135 0.687757 0.68494076 0.47684908
0.019562602 0.16110773 0.38362315 -0.13472433 0.1565053 0.44970474 -0.8888514 0.07807855
-0.89453274 -0.0036932658 -0.603891 0.61970687 0.9559398 0.46673363 0.019064145 -0.21287295
-0.29258803 -0.045297187 1.1929482 0.02866159 -1.5120201 0.07247625 0.09371793 -0.17655978
-0.027194584 0.638624 0.85485137 -0.25139043 -0.42197973 -0.93611693 -0.20881708 -0.75549835
00000000: 6ea4 a63e 3c92 a53c 5d30 afbf 0137 7cbe
00000010: 2748 bbbf 887c fcbf a5da 2ebf 230d bf3e
00000020: d4fd ef3e 23cf debf 1964 d63e 1a6f 12bf
00000030: 68de 0e3e a637 aa3e d1ad f4be 6631 3f3c
00000040: 27b3 cb3e b262 cdbe 8de4 b53e 322f af3e
00000050: 66d4 c6bd f4bb 11bf ae90 e53c b4a6 083f
00000060: ad17 113f 2f48 d7bb 22c5 51bf a539 a43e
00000070: 73b2 c63f 9c3f 2bbf a163 e6be db15 813f
00000080: e733 65bd 3f75 f73c 9488 f93e f5ac b13d
00000090: bb91 9d3d 7f04 76bf 2ad3 3bbf 605a 84bf
000000a0: 5388 6b3f 52fb 653c bb8b f43a adc5 b13f
000000b0: 9121 3bbf 0ed0 febd 6127 5f3f 4aca 1fbf
000000c0: 2a87 53be a0a3 47be 7ed2 5f3f 71f6 b33f
000000d0: 1e36 11bf 640e b13f dd9f 8abe 74bf 823e
000000e0: f4f4 38bf fd69 0f3f b4b3 d03b 96e6 31ba
000000f0: a82a cd3f cf98 da3e 34d9 fb3d bcb3 b8be
00000100: 71d4 dbbc d859 00bf 9dd9 9bbe 2f83 243f
00000110: dd51 bebf a569 5d3f 4b58 f4be f963 62bf
00000120: b3d4 c0bf ec7c e4be e571 25bf e4ec dfbe
00000130: ae13 05bf b853 523e 9596 f1be 8fed abbe
00000140: ed74 d8be 39f1 643e 02be 713f 32df 413d
00000150: a1a8 a13f d944 cfbd edfd 90bf 96a3 e3bd
00000160: 399f d23e 061c 5dbe 5eae b2be e3b1 4d3f
00000170: 2277 cf3f 0046 1e3d 8266 b63f 0eb5 b73f
00000180: df7e 0c3f e05e 753f 9937 e2be b3b2 223f
00000190: a424 94bf 6376 11bf eccd 963d 08c1 2d3f
000001a0: b59c 903f fa6a 45bf 5121 babe fe9f da3f
000001b0: fac4 a5be 0a92 bdbd 0b69 3e3f 9519 71be
000001c0: 417f f7bb faec 93bf 18a5 283d 98c7 403e
000001d0: b9b9 613f 4f73 9b3f e629 c0bf 2ea0 4c3f
000001e0: fc44 90bf 1048 4bbe ef6d 33bf 912d e33f
000001f0: 3f39 9cbf 743b cfbf 2242 143e 8ee3 553f
00000200: 2511 f03f 8a9d a53d b72e 4a3e 51e5 2dbf
00000210: 2440 64be eeac d0be d3cb 233f 0136 cfbf
00000220: 0819 a83b f254 09bf 0eb0 debe afc5 e3bd
00000230: accd 7c3f 6279 80bf 6fed 20bf 1964 44bf
00000240: 771e 15bf c2fd a1bd a18f 823e 15ea 6a3f
00000250: 79a1 af3e de39 263f 8e97 3fbe 9269 863f
00000260: 802d fabe a16f 86bd ef3e 6ebf 45ea 66be
00000270: 744f c9be 1091 393f 05cc d03e 445e 6ebe
00000280: 81d5 bfbe 4cec 333e c31b a43e d44f d7bd
00000290: 54e7 183f d4a6 573c 486d 0d3e 48f6 84be
000002a0: b2f8 133e b8ca 6c3f 0b98 84bf 77ca 0ebf
000002b0: 363b f63d 7f98 703f 4acf 5fbf 0613 45bc
000002c0: af20 65be 278b 6e3e 917e 683e fe35 31bf
000002d0: f2ef e93d 78b0 483f 527d 863f 4db3 d2bc
000002e0: dc44 a5be aa3c 193f fa40 02bf 5c80 b8be
000002f0: 345a dc3f 1321 bdbe 200d 7cbe e74d 45bd
00000300: 6ee4 813b f6de 82bd 2ee3 86bf 231f 7e3f
00000310: db49 c9bf 96dc 47bf c335 cabf e382 b53e
00000320: 4b96 fc3e 0a6e 763f 3ad9 6bbf 0b6e 82bf
00000330: caec 12be 9b21 c13f 294a 773f 2a90 b33f
00000340: 8ec3 313d 4a5c a63d 613e 48bd 57ce c13e
00000350: d822 f0be 91d6 25bf cdb8 36bd 102e 6a3f
00000360: 6951 eebe 2a7b 98bf 292a 4ebe 5e95 dd3e
00000370: 255a b53f d810 303f 4758 2f3f 9025 f43e
00000380: c041 a03c 6df9 243e 416a c43e 2df5 09be
00000390: ed42 203e b33f e63e c48b 63bf a6e7 9f3d
000003a0: 1900 65bf b80a 72bb 9a98 1abf 1ca5 1e3f
000003b0: 79b8 743f b6f7 ee3e 692c 9c3c 5efb 59be
000003c0: 19ce 95be 8b89 39bd 87b2 983f b6cb ea3c
000003d0: e089 c1bf 6e6e 943d 30ef bf3d 16cc 34be
000003e0: 2dc7 debc dd7c 233f 8ad7 5a3f 3fb6 80be
000003f0: ba0d d8be 5ca5 6fbf 25d4 55be 5768 41bf

bias f4 [150]
1.4741658 1.1473649 0.97664136 2.6921792 0.039717585 0.82573324 1.0098418 -0.86969304
-0.009031794 -1.3959045 1.6593249 0.9409404 0.015227783 -0.5003057 -1.869594 0.6695378
0.684724 -0.73755485 -0.08291763 0.13306496 -1.4334577 -1.208725 1.9344598 -0.0011987471
-0.024833594 0.6648645 -1.4752337 1.1244073 -0.20375037 -1.2011817 3.013245 2.2720122
0.8508174 -1.6898527 1.1253352 1.9986756 -1.0441834 0.025575364 1.2350487 -3.8802989
0.8273566 -0.056988325 0.3135368 0.19126499 3.8131704 0.38671196 -0.68013614 -1.3936633
1.5259149 -1.4016472 0.4758456 2.0543795 -0.9442752 1.7663214 1.5448154 -3.1796048
-1.8253502 1.3242733 -0.8912203 1.1876639 0.30063373 0.058074716 -0.669282 0.06804759
-0.025406763 -0.76505363 -1.2525519 1.4598225 0.085891284 0.42014736 -1.2230184 0.06771069
-0.95068115 1.2483981 1.0089707 -0.031948026 0.90313476 -0.55149055 0.43978786 -1.4067247
0.9312746 0.00050181657 0.048940655 0.4441078 0.5746661 -0.011108833 0.63235986 1.4345053
-1.2076455 0.026164949 -3.2993004 0.049497217 0.076817416 -1.2714236 0.3440951 -0.0029715253
-3.5921216 -0.0037901497 1.666495 -0.038841154 -1.3578672 -1.3937557 0.7572746 0.0062272795
1.6361398 3.8829827 -1.6721779 1.0225435 -0.9279543 1.5903393 -0.759598 1.1618353
5.207177 -0.2732122 0.9404348 0.0017871201 -0.05674928 -0.76804054 1.2435877 1.1449594
0.019900285 -1.8185166 -2.0089846 2.2622268 0.51308256 -1.1219347 1.0935043 -5.7345977
-0.82829034 4.1381226 -0.0011534872 0.98444134 0.6718972 1.2101256 -0.021566048 -0.12517631
1.1205238 -1.4550827 0.013426283 1.3522162 1.485739 0.9572437 -0.7991649 -0.045834363
-1.4814129 -2.5350323 0.7078411 -0.7607407 -3.221056 -1.3382765
00000000: 77b1 bc3f dadc 923f 2b05 7a3f aa4c 2c40
00000010: e8ae 223d 4163 533f 7f42 813f 34a4 5ebf
00000020: 17fa 13bc 00ad b2bf c264 d43f 78e1 703f
00000030: f37d 793c 0914 00bf db4e efbf d466 2b3f
00000040: 124a 2f3f 65d0 3cbf b8d0 a9bd 2e42 083e
00000050: 8b7b b7bf 80b7 9abf 619c f73f 471f 9dba
00000060: d26f cbbc 8f34 2a3f 75d4 bcbf 94ec 8f3f
00000070: f0a3 50be 52c0 99bf 02d9 4040 a668 1140
00000080: 2bcf 593f 184d d8bf fc0a 903f 9ad4 ff3f
00000090: cda7 85bf 6d83 d13c 1316 9e3f d156 78c0
000000a0: a4cd 533f 976c 69bd e587 a03e f8da 433e
000000b0: fc0a 7440 1cff c53e 671d 2ebf 8f63 b2bf
000000c0: 2e51 c33f 2d69 b3bf 09a2 f33e f47a 0340
000000d0: 05bc 71bf d216 e23f 83bc c53f a57e 4bc0
000000e0: 13a5 e9bf ca81 a93f 0327 64bf 5f05 983f
000000f0: aaec 993e c1df 6d3d 1156 2bbf 895c 8b3d
00000100: d821 d0bc 8eda 43bf 9f53 a0bf 77db ba3f
00000110: c5e7 af3d 8e1d d73e de8b 9cbf e7ab 8a3d
00000120: d75f 73bf 82cb 9f3f f425 813f efdb 02bd
00000130: d733 673f 7c2e 0dbf e02b e13e 8e0f b4bf
00000140: 0368 6e3f 578c 033a ff75 483d 1962 e33e
00000150: 511d 133f d301 36bc 56e2 213f df9d b73f
00000160: 2194 9abf e057 d63c bd27 53c0 98bd 4a3d
00000170: 7352 9d3d 02be a2bf 3c2d b03e ecbd 42bb
00000180: 52e5 65c0 2964 78bb b54f d53f e717 1fbd
00000190: 98ce adbf 9666 b2bf c0dc 413f 350e cc3b
000001a0: 076d d13f ca82 7840 ed09 d6bf b5e2 823f
000001b0: 6a8e 6dbf 3d90 cb3f 0475 42bf 05b7 943f
000001c0: 32a1 a640 78e2 8bbe 56c0 703f cd3d ea3a
000001d0: ef71 68bd 4e9e 44bf e22d 9f3f 088e 923f
000001e0: ec05 a33c 27c5 e8bf 3493 00c0 53c8 1040
000001f0: 6159 033f 8e9b 8fbf f3f7 8b3f d381 b7c0
00000200: d60a 54bf 806b 8440 9c30 97ba 5904 7c3f
00000210: 7401 2c3f 65e5 9a3f 48ab b0bc 382e 00be
00000220: 536d 8f3f 2640 babf eaf9 5b3c 6c15 ad3f
00000230: b22c be3f ec0d 753f 1296 4cbf d0bc 3bbd
00000240: f09e bdbf f83d 22c0 1335 353f e7bf 42bf
00000250: c825 4ec0 a54c abbf

weight f4 [1, 150]
0.052711684 0.11276815 0.29719695 0.06397408 0.00078339875 0.2738692 0.20692818 -0.059546366
-0.00246074 -0.083233714 0.17095532 0.27317172 -0.0040501044 1.3757945 -0.16403496 0.29024383
0.22932208 -0.10529758 -0.0016965216 -0.06719984 -0.09082737 -0.06095477 0.11786462 0.0037058908
-0.0017030892 0.14395991 -0.17037627 0.1223931 0.16655643 -0.14517474 0.079084665 0.04652305
-1.3382678 -0.27587277 0.2847891 0.15080833 -0.32059968 0.0019961821 0.12843499 -0.0957725
0.20198442 0.0010642861 -1.2613304 0.20454864 0.15820622 -1.5659045 -0.23987679 -0.07272752
0.19107756 -0.12478776 0.4712656 0.035276715 -0.25751716 0.042125054 0.119248785 -0.16135824
-0.029817827 0.090159714 -0.15846235 0.26091966 0.15597144 0.00015676217 -0.25430968 0.0017631813
0.00042481013 -0.25439987 -0.16500422 0.037601616 -0.12740839 0.4335004 -0.15840894 -0.00018237613
-0.2728575 0.14473675 0.27549312 0.0022517133 0.24024177 -0.1790837 0.11786367 -0.017998267
0.2028458 -0.0004146925 0.0015308777 0.108605534 0.755931 -0.0016592527 0.32299644 0.2715901
-0.14048503 0.0030536214 -0.19976142 0.002262405 0.002738664 -0.2565396 0.39615595 0.00030960335
-0.17429675 -0.0054004896 0.27320576 0.084069364 -0.27076215 -0.2394269 0.110841826 -0.0017041272
0.17314443 0.10271341 -0.046672896 0.23024411 -0.30663255 0.08576307 -0.30585083 1.9552357
0.07418415 1.4355034 0.13354254 -0.0021817822 -0.00399649 0.10845189 0.19101638 0.20566127
-0.0023811075 -0.046647534 -0.082018234 0.021908993 0.14918697 -0.2477541 0.2667813 -0.44903666
-0.32936248 0.14893359 0.0045539085 0.31045943 0.09576019 0.1955852 -0.002380359 0.13512768
0.25158376 -0.15017699 0.00470116 0.18907338 0.14590557 0.07924566 -0.18554056 0.002495122
-0.23881286 -0.12330235 0.28528243 -0.3151024 -0.07842545 -0.07358946
00000000: 35e8 573d fdf2 e63d 332a 983e d804 833d
00000010: 005d 4d3a 9538 8c3e fbe4 533e e4e6 73bd
00000020: 5e44 21bb 7076 aabd e90e 2f3e 2add 8b3e
00000030: bdb6 84bb 091a b03f c8f8 27be d79a 943e
00000040: 68d3 6a3e 42a6 d7bd d25d deba 12a0 89bd
00000050: b303 babd b5ab 79bd 0263 f13d 88de 723b
00000060: 313a dfba 3a6a 133e 1e77 2ebe 3ca9 fa3d
00000070: c58d 2a3e b0a8 14be 24f7 a13d f48e 3e3d
00000080: 5c4c abbf 323f 8dbe e0cf 913e 806d 1a3e
00000090: a425 a4be 61d2 023b 7684 033e 5f24 c4bd
000000a0: 01d5 4e3e 847f 8b3a 4673 a1bf 3375 513e
000000b0: d000 223e 8f6f c8bf 43a2 75be 2af2 94bd
000000c0: d6a9 433e ba90 ffbd ba49 f13e 517e 103d
000000d0: 4ad9 83be 528b 2c3d b538 f43d 183b 25be
000000e0: 8444 f4bc a8a5 b83d f443 22be 4397 853e
000000f0: fab6 1f3e 8660 2439 e134 82be 8c1a e73a
00000100: 0db9 de39 b340 82be def6 28be 2704 1a3d
00000110: 5877 02be c4f3 dd3e f435 22be 383c 3fb9
00000120: fab3 8bbe df35 143e 6f0d 8d3e 7b91 133b
00000130: f001 763e b861 37be 8262 f13d 1a71 93bc
00000140: cfb6 4f3e 166b d9b9 bba7 c83a 946c de3d
00000150: b284 413f 487b d9ba ca5f a53e dc0d 8b3e
00000160: 4fdb 0fbe 441f 483b 428e 4cbe db44 143b
00000170: 287b 333b 2959 83be f4d4 ca3e 4252 a239
00000180: d97a 32be 97f6 b0bb a0e1 8b3e 8f2c ac3d
00000190: 56a1 8abe 532c 75be 0a01 e33d 055d dfba
000001a0: c64c 313e 695b d23d 142c 3fbd 1dc5 6b3e
000001b0: f1fe 9cbe 8ca4 af3d 7b98 9cbe 2a45 fa3f
000001c0: dced 973d 93be b73f 60bf 083e 3bfc 0ebb
000001d0: fdf4 82bb 061c de3d cc99 433e de98 523e
000001e0: 5b0c 1cbb 7c11 3fbd 2df9 a7bd 7d7a b33c
000001f0: 78c4 183e 40b3 7dbe 8f97 883e 22e8 e5be
00000200: 33a2 a8be 0c82 183e f438 953b 8af4 9e3e
00000210: eb1d c43d 7d47 483e ccff 1bbb e95e 0a3e
00000220: 96cf 803e ffc7 19be 300c 9a3b 749c 413e
00000230: 4568 153e 8c4b a23d 58fe 3dbe 3385 233b
00000240: 5c8b 74be f185 fcbd 8a10 923e 1a55 a1be
00000250: 869d a0bd 12b6 96bd
